SMA_C4/model/en_model.pth (torch, 191350 bytes, 15 tensors)

conv1.weight f4 [31, 1, 1, 31]
-0.11081397 0.02297863 0.17344883 -0.06731941 0.12111853 -0.080604136 -0.04938127 -0.22064874
0.11761596 -0.07088131 -0.14560226 -0.10611144 0.13104513 0.15672724 -0.0866218 0.12829456
0.078404464 0.10952043 -0.17253996 -0.003303857 0.013343739 0.029432217 -0.012042677 0.0020369722
0.09834461 -0.16538747 -0.023390224 -0.012425132 -0.18304186 0.0874858 0.007363472 0.099025585
-0.0012820581 -0.03338279 -0.085441485 -0.15758939 0.09740694 -0.12175865 0.1984649 0.16066796
0.1562118 0.14951763 -0.12056578 0.04033402 0.06000396 -0.16214049 0.08501839 -0.10354344
-6.953958e-05 0.14182787 -0.06632226 -0.034841016 -0.003052422 0.09090701 -0.054870795 0.115647
0.11185646 -0.054226708 0.06616706 0.021903133 -0.20640218 -0.13069388 0.1457281 0.14172176
0.020935485 -0.103508264 -0.049851052 0.16024522 -0.105244204 0.10422075 0.10883789 0.055669773
-0.16356741 -0.04273469 -0.017614935 0.10600778 -0.15528308 0.14796606 -0.14376777 0.026633501
0.112342335 -0.15392764 -0.07833736 0.1370495 0.029088853 0.15655719 -0.008268336 0.14690594
0.10049692 0.0062587378 -0.23289639 -0.026198382 0.10990545 0.10825853 -0.11070339 0.04059397
-0.018478196 0.19262783 0.14271648 0.051769514 -0.093059435 0.10807638 0.17895272 0.07332381
-0.02386372 0.18010214 -0.045011 0.06327744 0.025280738 0.12074475 -0.007619023 0.109473325
0.04375189 0.17130628 0.011956275 0.0060597137 5.0239047e-05 0.08525199 0.11256211 0.1507299
0.1490243 -0.12746942 0.0990607 0.026496504 0.33348566 -0.16154578 0.107288405 -0.14923966
0.18367133 -0.07770288 0.15246266 0.20407316 0.12582555 -0.0035857614 0.061477248 0.0104012005
0.065996654 -0.13035198 -0.08337497 0.1675061 0.15568964 -0.17290716 -0.08085034 -0.16566586
0.023866374 -0.07640974 -0.022018805 -0.13276039 -0.017693916 -0.1464252 0.025602384 0.13158984
0.09344657 -0.06843468 -0.009633212 0.062960565 -0.13496706 -0.025617547 0.035049256 -0.005639423
-0.0714477 -0.24825528 0.077247754 -0.042777564 -0.13630867 0.12900619 -0.042960558 0.061517477
0.17888291 0.0010453602 -0.012700375 0.05920311 -0.050434563 -0.021895215 0.14371084 0.114898026
-0.0633756 0.08825367 -0.08821306 0.15427284 -0.12749235 -0.15133725 0.12210613 -0.03375296
-0.19599551 -0.093422875 0.063437685 -0.025791258 0.15746064 -0.00018593611 -0.1546302 -0.12047009
0.0329515 0.0986162 -0.12138476 0.13151625 -0.081884384 -0.1371409 -0.06866324 -0.080418296
-0.18305358 0.03214409 0.018436182 -0.19001268 -0.11102557 0.09340595 0.1719901 -0.03359942
0.11303805 0.023082566 0.20172584 0.17127377 -0.08289818 0.06661244 0.24514836 -0.075923
0.014594513 -0.13223776 -0.024587879 -0.11523278 0.12873256 0.16750531 -0.030716335 0.03829182
-0.092991866 -0.12565167 -0.03404348 0.0034356145 -0.09773386 0.120259516 0.047493342 0.080106705
-0.0136711905 0.06265544 -0.10370285 0.048742138 -0.17311954 0.026512092 -0.17309658 -0.07234058
0.07028491 0.10686625 -0.1659315 0.025314184 0.160868 -0.05439941 -0.12897177 0.13314244
-0.21608207 -0.15587756 -0.12350463 0.13984683 -0.029751226 -0.047139738 0.014929463 -0.006325126
00000000: 6ff2 e2bd ae3d bc3c 929c 313e c2de 89bd
00000010: fe0c f83d c813 a5bd 0444 4abd bef1 61be
00000020: a3e0 f03d 382a 91bd c218 15be f450 d9bd
00000030: b230 063e 1b7d 203e c566 b1bd a65f 033e
00000040: 8592 a03d 3f4c e03d 51ae 30be 8685 58bb
00000050: b39f 5a3c d51b f13c a64e 45bc b97e 053b
00000060: e668 c93d 555b 29be db9c bfbc c892 4bbc
00000070: 536f 3bbe c12b b33d 4849 f13b edcd ca3d
00000080: bb0a a8ba 64bc 08bd f2fb aebd 1d5f 21be
00000090: 4a7d c73d 995c f9bd 623a 4b3e 2486 243e
000000a0: fcf5 1f3e 261b 193e 31eb f6bd 4935 253d
000000b0: b6c6 753d 2808 26be 1f1e ae3d 950e d4bd
000000c0: c7d5 91b8 533b 113e f7d3 87bd 74b5 0ebd
000000d0: 250b 48bb 742d ba3d 33c0 60bd 56d8 ec3d
000000e0: 0015 e53d d31c 5ebd 9882 873d 336e b33c
000000f0: 185b 53be 9ed4 05be bf39 153e 821f 113e
00000100: e580 ab3c 24fc d3bd 9e30 4cbd 5317 243e
00000110: 468a d7bd b071 d53d 66e6 de3d fd05 643d
00000120: 377e 27be 920a 2fbd 324d 90bc 9b1a d93d
00000130: 8702 1fbe 6a84 173e dc37 13be 802e da3c
00000140: bd13 e63d 359f 1dbe 566f a0bd b456 0c3e
00000150: bf4b ee3c 8750 203e ea77 07bc 836e 163e
00000160: 54d1 cd3d 1916 cd3b 647c 6ebe fd9d d6bc
00000170: 1c16 e13d a6b6 dd3d 75b8 e2bd dd45 263d
00000180: 965f 97bc 3b40 453e 4524 123e 450c 543d
00000190: f295 bebd 2657 dd3d 623f 373e cb2a 963d
000001a0: d97d c3bc b26c 383e 745d 38bd 9a97 813d
000001b0: 8d19 cf3c 0649 f73d ffa8 f9bb 8d33 e03d
000001c0: 2f35 333d ea6a 2f3e 41e4 433c 9090 c63b
000001d0: c4b7 5238 9898 ae3d f786 e63d f058 1a3e
000001e0: d399 183e 5887 02be 56e0 ca3d 320f d93c
000001f0: a2be aa3e 426c 25be 06ba db3d 48d2 18be
00000200: 5614 3c3e b022 9fbd 2c1f 1c3e 8ef8 503e
00000210: 6ad8 003e 18ff 6abb 91cf 7b3d cc69 2a3c
00000220: 4129 873d fd7a 05be 7fc0 aabd b886 2b3e
00000230: 1b6d 1f3e 930e 31be dd94 a5bd 50a4 29be
00000240: 6a83 c33c b67c 9cbd c860 b4bc 57f2 07be
00000250: d5f2 90bc 7df0 15be 17bc d13c 7dbf 063e
00000260: ea60 bf3d 7b27 8cbd 9fd4 1dbc 78f1 803d
00000270: ce34 0abe e4db d1bc cf8f 0f3d e9ca b8bb
00000280: 2c53 92bd a236 7ebe 1234 9e3d 8737 2fbd
00000290: 8094 0bbe 331a 043e 69f7 2fbd c0f9 7b3d
000002a0: 152d 373e 7804 893a 3c15 50bc f67e 723d
000002b0: 7994 4ebd 985d b3bc ef28 133e a84f eb3d
000002c0: 11cb 81bd 57be b43d 0ca9 b4bd b3f9 1d3e
000002d0: 5b8d 02be 27f8 1abe c712 fa3d 8b40 0abd
000002e0: 0cb3 48be 7e54 bfbd 9eeb 813d 3048 d3bc
000002f0: 5d3d 213e d8f7 42b9 6157 1ebe 06b9 f6bd
00000300: 27f8 063d 4af7 c93d 9398 f8bd 32ac 063e
00000310: 00b3 a7bd aa6e 0cbe 509f 8cbd 59b2 a4bd
00000320: 6672 3bbe 85a9 033d 7a07 973c af92 42be
00000330: 6061 e3bd 9e4b bf3d 2c1e 303e 8c9f 09bd
00000340: 7e80 e73d a617 bd3c 3891 4e3e 6462 2f3e
00000350: 85c6 a9bd 1a6c 883d 2c08 7b3e 857d 9bbd
00000360: d31d 6f3c 5669 07be 856c c9bc 2aff ebbd
00000370: 78d2 033e 8386 2b3e d3a0 fbbc e2d7 1c3d
00000380: 8572 bebd d5aa 00be 2d71 0bbd 0c28 613b
00000390: b128 c8bd 9f4a f63d 6188 423d fc0e a43d
000003a0: 21fd 5fbc 7f51 803d 2962 d4bd d6a5 473d
000003b0: 4046 31be e32f d93c 3b40 31be 4c27 94bd
000003c0: 89f1 8f3d b1dc da3d f2e9 29be b15f cf3c
000003d0: 95ba 243e ead1 5ebd 2d11 04be 7e56 083e
000003e0: 9e44 5dbe 5e9e 1fbe ffef fcbd 0234 0f3e
000003f0: d8b8 f3bc 9915 41bd b59a 743c 0143 cfbb

conv1.bias f4 [31]
0.038308635 0.18370594 -0.170721 -0.17609224 0.050019786 0.13414812 -0.09400127 0.038974736
0.14918275 0.06434885 0.016895367 0.17947714 0.17757201 -0.1389369 0.008789093 0.059524283
0.2350368 -0.24180311 0.07049703 -0.049793735 -0.19689265 0.0410238 -0.09521205 0.01279126
-0.0853201 -0.119683236 -0.085917 -0.066463605 0.08228441 0.029047377 0.18088649
00000000: 84e9 1c3d 691d 3c3e 7cd1 2ebe 8651 34be
00000010: 8ce1 4c3d 205e 093e bd83 c0bd f9a3 1f3d
00000020: 5dc3 183e 54c9 833d 2768 8a3c dbc8 373e
00000030: 70d5 353e 7a45 0ebe 2100 103c bccf 733d
00000040: 7dad 703e 3c9b 77be bf60 903d 84f4 4bbd
00000050: 3a9e 49be 9208 283d 89fe c2bd 6f92 513c
00000060: 4ebc aebd 7c1c f5bd 41f5 afbd 121e 88bd
00000070: bb84 a83d c4f4 ed3c 4f3a 393e

bn1.weight f4 [31]
0.9073585 0.89054376 0.95459956 0.9602093 1.1752129 0.92802274 0.952913 0.97388107
0.9458042 0.90723795 0.9010017 0.89967805 1.1790267 0.9896727 0.946235 0.8688662
1.4953016 1.095505 0.8958445 0.87111324 1.0003774 0.8539256 1.0009831 0.8988815
0.9063813 0.87660044 1.0928514 0.90355116 0.95077854 0.8430679 0.86063933
00000000: a648 683f adfa 633f a360 743f 47d0 753f
00000010: 606d 963f e692 6d3f 1bf2 733f 4550 793f
00000020: 3920 723f bf40 683f 0ca8 663f 4d51 663f
00000030: 59ea 963f 315b 7d3f 753c 723f 046e 5e3f
00000040: 0b66 bf3f 8239 8c3f 1156 653f 4701 5f3f
00000050: 5e0c 803f de9a 5a3f 3720 803f 191d 663f
00000060: 9b08 683f e368 603f 8ee2 8b3f 214f 673f
00000070: 3966 733f 4cd3 573f dc52 5c3f

bn1.bias f4 [31]
-0.0118213445 -0.10094644 -0.011458474 -0.01592895 -0.145979 -0.06289344 -0.05918947 -0.011509509
-0.03084086 -0.15908001 -0.06875062 -0.07394567 0.008704777 -0.098506816 -0.003946623 -0.061951682
-0.022294154 0.03986454 -0.022875646 -0.024395073 0.0060465476 -0.080058925 -0.07746485 -0.06592708
-0.12053978 -0.002299498 0.044929974 -0.06486603 -0.035292294 -0.108676225 -0.069506295
00000000: 50ae 41bc 02bd cebd 53bc 3bbc 6e7d 82bc
00000010: 857b 15be 47ce 80bd a870 72bd 6192 3cbc
00000020: f9a5 fcbc dfe5 22be 20cd 8cbd d470 97bd
00000030: 7b9e 0e3c f1bd c9bd ac52 81bb 0cc1 7dbd
00000040: 3ba2 b6bc 0049 233d b565 bbbc 2dd8 c7bc
00000050: 1e22 c63b eff5 a3bd e4a5 9ebd c704 87bd
00000060: 8fdd f6bd 2db3 16bb 7e08 383d 7bd8 84bd
00000070: a78e 10bd a491 debd 5159 8ebd

bn1.running_mean f4 [31]
0.03747008 0.18306968 -0.1713845 -0.17692983 0.048106186 0.1339913 -0.09410384 0.03935111
0.15016182 0.0651861 0.015210918 0.17937513 0.17909421 -0.14093328 0.00957118 0.059255023
0.23399709 -0.24058768 0.07010899 -0.050533026 -0.19871837 0.03985607 -0.09662615 0.013049676
-0.08595187 -0.11918006 -0.08510536 -0.0663516 0.08210552 0.029753856 0.18044785
00000000: 3a7a 193d 9e76 3b3e 6b7f 2fbe 182d 35be
00000010: fe0a 453d 0435 093e 84b9 c0bd a12e 213d
00000020: 05c4 193e 4a80 853d 3737 793c 1dae 373e
00000030: 7964 373e d050 10be 70d0 1c3c 65b5 723d
00000040: ef9c 6f3e 9e5c 76be 4d95 8f3d b8fb 4ebd
00000050: d47c 4bbe 1e40 233d eee3 c5bd 4fce 553c
00000060: 8907 b0bd ad14 f4bd b84b aebd 59e3 87bd
00000070: f026 a83d 5cbe f33c 52c7 383e

bn1.running_var f4 [31]
0.18517831 0.32389578 1.2229794 0.4583319 0.15511505 1.07483 0.9463247 0.13124722
0.7792675 0.38010058 0.16266643 1.5012234 0.20989631 0.16158968 0.7236472 0.76961756
0.09770665 0.21097255 0.8380556 0.27104986 0.18179959 0.42668366 0.35353276 0.81754637
0.28356507 0.3708423 0.1364159 3.4440634 0.3262238 1.0468706 0.3824516
00000000: 629f 3d3e abd5 a53e 978a 9c3f 7baa ea3e
00000010: 7bd6 1e3e 0894 893f 5642 723f ac65 063e
00000020: 137e 473f 8b9c c23e 0792 263e 1728 c03f
00000030: 0fef 563e c477 253e f140 393f a805 453f
00000040: 6d1a c83d 3009 583e d08a 563f 0cc7 8a3e
00000050: ac29 3a3e 4876 da3e 3f02 b53e b84a 513f
00000060: 712f 913e 0bdf bd3e 9cb0 0b3e 896b 5c40
00000070: ce06 a73e dbff 853f b2d0 c33e

conv2.weight f4 [31, 1, 1, 31]
-0.13994113 -0.09039322 0.056623597 0.09771594 -0.030573322 -0.12308838 -0.14670172 0.014154839
0.10278595 0.11614288 0.08447535 -0.1505645 0.023531916 0.30518335 -0.18626958 0.0961375
0.0114987 -0.009150139 0.19486444 -0.18242498 -0.13396879 0.047999486 -0.11373152 0.0072558424
-0.13709831 0.025588218 0.05141037 -0.1819647 -0.07812653 -0.11886735 -0.07035274 0.030569512
-0.114674225 -0.08194518 0.056634903 -0.09887732 -0.064342864 -0.089703016 0.015327145 0.13500504
-0.16971005 -0.14897808 -0.05763849 0.12174364 -0.18465136 -0.14640757 0.20604484 -0.12042982
0.116595455 -0.021433841 0.077012464 -0.04840519 0.009167263 -0.2912872 -0.1950326 0.06337259
0.0680312 0.14634843 -0.23681416 0.085216776 -0.07517148 -0.19584626 -0.17151332 -0.22158818
0.16468254 0.14864814 -0.22431317 0.011427318 -0.066211775 0.058437437 -0.036364984 0.062708266
0.08249542 0.008250377 -0.08177005 0.14130282 0.006572135 0.002263055 0.14019616 0.09831282
0.13130552 -0.15919723 -0.108566836 -0.07859892 -0.16380794 -0.099542774 -0.060141355 0.023526926
0.075401075 0.110263176 0.04398555 0.04656623 0.08939707 0.001993894 0.18163723 0.19370311
0.07931872 -0.019539334 -0.027333908 0.17335328 -0.04568791 0.009298714 -0.08516145 -0.010795458
0.15481098 0.17290115 -0.028340017 -0.1947844 -0.037768524 0.12876503 -0.18923886 -0.05814619
0.027840514 -0.17304023 0.12782806 -0.2086412 -0.19467087 0.1950853 0.06354943 0.10647355
0.09671054 0.07347165 0.0997315 0.08278631 0.080415554 0.008054743 0.059671123 -0.094976
-0.07752847 -0.15530363 -0.15918851 -0.05230326 0.00863379 0.10322422 -0.1341189 0.06713651
-0.027220877 0.2625598 -0.10022166 0.035965446 -0.19111782 0.04465831 -0.03662658 -0.11420746
-0.027104693 -0.05555487 -0.3100756 0.0042371238 0.07168103 0.08238327 -0.12682186 -0.18530834
-0.098493695 0.092004135 -0.18620348 -0.19637688 0.21486077 -0.13115211 -0.0723943 -0.056803778
-0.15553288 -0.14736283 0.05682176 -0.11075026 -0.037222702 0.068552755 0.01988339 0.013683356
0.023458267 0.034979068 0.17897387 -0.07597045 0.10701249 0.023015123 -0.034656405 0.101745136
-0.06696379 0.07429362 -0.003068347 -0.031930048 0.00514386 -0.059574883 0.088429846 0.012324243
-0.031820197 -0.07010534 -0.0623667 0.13378027 -0.012958972 0.065785825 -0.0059245657 0.12031203
0.060409196 -0.048799578 -0.27919826 0.1970711 0.029889014 -0.10893912 -0.010795724 -0.09133084
-0.03439582 -0.056780726 -0.16320148 -0.12676296 -0.14458337 0.16916317 -0.07406951 0.07740364
-0.22263792 -0.17964055 0.1798538 -0.017334836 0.016517576 -0.012796291 -0.069431506 0.007857984
-0.008861735 0.022182249 -0.2683673 -0.17898935 0.16339026 0.09609421 0.03525046 0.029595092
-0.031124266 -0.05846609 -0.058941826 -0.05175755 -0.053341717 0.026705716 0.0070075123 -0.08963127
-0.0066712773 0.17685294 -0.13644391 0.06107053 -0.060340237 -0.086153 -0.18875325 0.012764948
-0.0014090018 0.1542787 0.13599588 -0.327727 0.12669462 -0.11778551 0.108974315 0.07697603
-0.06562038 -0.010980489 -0.07388809 0.014240728 0.1850223 -0.10875339 -0.019425903 -0.11007033
00000000: ba4c 0fbe 1520 b9bd 25ee 673d 4b1f c83d
00000010: e774 fabc c315 fcbd fa38 16be b3e9 673c
00000020: 7181 d23d 51dc ed3d 6a01 ad3d 952d 1abe
00000030: 01c6 c03c fe40 9c3e 74bd 3ebe bde3 c43d
00000040: 0b65 3c3c 77ea 15bc 8b8a 473e 9dcd 3abe
00000050: 1d2f 09be 1c9b 443d 12ec e8bd 6bc2 ed3b
00000060: 8063 0cbe 629e d13c ae93 523d f454 3abe
00000070: cd00 a0bd ba70 f3bd 1915 90bd ea6c fa3c
00000080: 52da eabd e0d2 a7bd 00fa 673d 3180 cabd
00000090: 31c6 83bd 37b6 b7bd b51e 7b3c c33e 0a3e
000000a0: 79c8 2dbe b68d 18be 5616 6cbd bb54 f93d
000000b0: 3f15 3dbe deeb 15be 6bfd 523e e9a3 f6bd
000000c0: 99c9 ee3d 0696 afbc b6b8 9d3d 8544 46bd
000000d0: 4a32 163c 9923 95be a0b6 47be 7dc9 813d
000000e0: f153 8b3d 5ddc 153e 697f 72be 2286 ae3d
000000f0: 81f3 99bd ec8b 48be 30a1 2fbe 03e8 62be
00000100: 8aa2 283e 3837 183e 5ab2 65be a539 3b3c
00000110: 0a9a 87bd 185c 6f3d 73f3 14bd 316d 803d
00000120: 5cf3 a83d 972c 073c 0e77 a7bd b0b1 103e
00000130: 105b d73b c34f 143b 958f 0f3e 3b58 c93d
00000140: f474 063e 9904 23be 4a58 debd 78f8 a0bd
00000150: 45bd 27be 15dd cbbd c856 76bd 8abb c03c
00000160: e16b 9a3d a9d1 e13d 312a 343d 3bbc 3e3d
00000170: d015 b73d feab 023b 1cff 393e 1c5a 463e
00000180: da71 a23d f410 a0bc 5ceb dfbc 8683 313e
00000190: 3f23 3bbd a259 183c 2069 aebd 6fdf 30bc
000001a0: c586 1e3e 000d 313e 5329 e8bc 9075 47be
000001b0: 2bb3 1abd fbda 033e d5c7 41be b32a 6ebd
000001c0: ca11 e43c 7531 31be 5ce5 023e 0aa6 55be
000001d0: cd57 47be 71c4 473e 3426 823d ce0e da3d
000001e0: 2d10 c63d 4e78 963d 0740 cc3d de8b a93d
000001f0: e9b0 a43d 0af8 033c b569 743d c782 c2bd
00000200: 3fc7 9ebd ea07 1fbe 5002 23be f13b 56bd
00000210: bd74 0d3c 3867 d33d 7756 09be de7e 893d
00000220: 51fe debc 3d6e 863e 0441 cdbd 8150 133d
00000230: 64b4 43be a2eb 363d c105 16bd 9ae5 e9bd
00000240: a90a debc 818d 63bd 3bc2 9ebe 92d7 8a3b
00000250: 81cd 923d 8fb8 a83d 97dd 01be 78c1 3dbe
00000260: 10b7 c9bd aa6c bc3d 20ac 3ebe 0517 49be
00000270: 7604 5c3e bd4c 06be 7643 94bd 14ab 68bd
00000280: 0344 1fbe 48e6 16be efbd 683d 08d1 e2bd
00000290: d576 18bd 6365 8c3d 7ee2 a23c 2830 603c
000002a0: 8d2b c03c 3646 0f3d ed44 373e 6596 9bbd
000002b0: 5d29 db3d 368a bc3c e0f3 0dbd c15f d03d
000002c0: 5024 89bd 4127 983d 5216 49bb 15c9 02bd
000002d0: d38d a83b cb04 74bd b51a b53d 9feb 493c
000002e0: e555 02bd 6393 8fbd 3a74 7fbd b2fd 083e
000002f0: de51 54bc b8ba 863d dc22 c2bb 2766 f63d
00000300: a26f 773d 11e2 47bd 13f3 8ebe 02cd 493e
00000310: ced9 f43c 791b dfbd 8ce0 30bc aa0b bbbd
00000320: a2e2 0cbd e892 68bd 4a1e 27be 26ce 01be
00000330: aa0d 14be 1c39 2d3e c1b1 97bd cd85 9e3d
00000340: 32fb 63be b1f3 37be 982b 383e c901 8ebc
00000350: de4f 873c 89a7 51bc 1b32 8ebd c6be 003c
00000360: d030 11bc 8cb7 b53c 7067 89be fc48 37be
00000370: c74f 273e 0bcd c43d c962 103d 6871 f23c
00000380: 51f8 febc 247a 6fbd fc6c 71bd baff 53bd
00000390: d87c 5abd f2c5 da3c 469f e53b 9990 b7bd
000003a0: bb9a dabb f018 353e f4b7 0bbe 1825 7a3d
000003b0: 5327 77bd fc70 b0bd 8848 41be 1324 513c
000003c0: 41ae b8ba 3cfb 1d3e 8142 0b3e d5cb a7be
000003d0: 3cbc 013e 8839 f1bd ed2d df3d 9ca5 9d3d
000003e0: fa63 86bd 82e7 33bc a452 97bd f151 693c
000003f0: 7c76 3d3e 19ba debd 1223 9fbc 8e6c e1bd

conv2.bias f4 [31]
-0.113081366 -0.04713294 -0.07885901 0.10830362 -0.0795354 -0.060774736 0.101756535 0.16734794
-0.02210211 -0.14278026 0.16221796 -0.09429367 -0.031367496 -0.13767649 -0.08661518 -0.13778584
-0.089801006 -0.16202106 -0.054212756 0.06910432 -0.15213984 -0.031872716 -0.0890062 0.13070817
0.13359267 -0.07229226 -0.101229645 -0.17479771 -0.11009595 0.04677748 0.014762219
00000000: 3497 e7bd 780e 41bd d580 a1bd 4ace dd3d
00000010: 75e3 a2bd eeee 78bd bb65 d03d 425d 2b3e
00000020: 7c0f b5bc fd34 12be 771c 263e 0a1d c1bd
00000030: 347b 00bd 11fb 0cbe 4d63 b1bd bb17 0dbe
00000040: 97e9 b7bd d9e8 25be 320e 5ebd 9186 8d3d
00000050: 8cca 1bbe f78c 02bd e248 b6bd 5dd8 053e
00000060: 84cc 083e f70d 94bd 7d51 cfbd 2cfe 32be
00000070: fc79 e1bd be99 3f3d 3cdd 713c

bn2.weight f4 [31]
1.1268009 1.3024372 1.2009249 1.0460685 1.1240333 0.97487944 1.1115817 1.0250477
1.0155735 1.2070702 0.94073397 1.1129179 0.96451515 1.2354467 1.0932355 1.1306139
0.8889742 1.4049587 1.0768026 1.085536 1.0429964 0.83663726 0.9674847 0.9999559
0.98431915 1.1841791 1.1585574 0.8641388 1.1712239 1.0600218 0.9410637
00000000: 033b 903f 43b6 a63f e8b7 993f 93e5 853f
00000010: 53e0 8f3f b391 793f 4f48 8e3f c334 833f
00000020: 50fe 813f 4781 9a3f f1d3 703f 1874 8e3f
00000030: 77ea 763f 1e23 9e3f 24ef 8b3f f5b7 903f
00000040: d093 633f b0d5 b33f abd4 893f d8f2 8a3f
00000050: e880 853f dc2d 563f 14ad 773f 1cfd 7f3f
00000060: 57fc 7b3f 2e93 973f 9c4b 943f 3338 5d3f
00000070: aaea 953f cbae 873f 8de9 703f

bn2.bias f4 [31]
0.042986363 0.13904786 0.013184947 -0.015409274 0.032309096 -0.08115123 0.044460233 0.02354719
-0.17432289 0.15222964 -0.105486386 -0.03494209 -0.15282372 0.09265746 -0.01013006 0.15762855
-0.027981112 -0.028104212 -0.01325938 0.08762945 0.04080806 -0.19660874 -0.12874232 -0.051229082
-0.018576914 -0.029497879 0.025304405 -0.20773628 -0.012785401 -0.051879354 -0.04180863
00000000: 7812 303d 9062 0e3e ad05 583c 2e77 7cbc
00000010: 8b56 043d 9e32 a6bd ef1b 363d 09e6 c03c
00000020: b381 32be 16e2 1b3e 3f09 d8bd 701f 0fbd
00000030: d27d 1cbe 32c3 bd3d 8df8 25bc 6169 213e
00000040: a538 e5bc ce3a e6bc df3d 59bc 1277 b33d
00000050: 5a26 273d cd53 49be 07d5 03be 96d5 51bd
00000060: 9d2e 98bc 89a5 f1bc 2f4b cf3c d2b8 54be
00000070: dc79 51bc 727f 54bd 873f 2bbd

bn2.running_mean f4 [31]
-0.28536412 -0.37415385 -0.040680315 0.37031224 -0.49730036 -0.24435246 -0.10574324 0.04708234
0.12257433 -0.29610103 0.26015165 0.14153858 0.012532707 -0.08705305 -0.1785986 -0.3986448
-0.20493329 -0.2724179 -0.02061168 0.15196514 -0.31684938 0.30999517 -0.031621642 0.012345012
0.3478119 0.049292 -0.3028295 -0.011396324 -0.18229158 0.3133782 0.08046724
00000000: 3f1b 92be 1891 bfbe 67a0 26bd 9199 bd3e
00000010: 279e febe 8837 7abe e98f d8bd 69d9 403d
00000020: 4008 fb3d 8e9a 97be 9932 853e 7def 103e
00000030: fc55 4d3c df48 b2bd 8de2 36be 2c1b ccbe
00000040: 08da 51be 5c7a 8bbe d3d9 a8bc c09c 1b3e
00000050: 153a a2be b0b7 9e3e b285 01bd bc42 4a3c
00000060: 6714 b23e 68e6 493d 780c 9bbe a6b7 3abc
00000070: a5aa 3abe 1c73 a03e 02cc a43d

bn2.running_var f4 [31]
0.056065883 0.064004935 0.04062335 0.09600988 0.0621599 0.07685057 0.07719752 0.1303174
0.10323284 0.08532237 0.1954735 0.09364384 0.06222238 0.066599466 0.06962668 0.2041724
0.20868862 0.04853023 0.05457258 0.076466136 0.09950893 0.112971164 0.0599624 0.078960866
0.14704585 0.0512481 0.05882387 0.10313625 0.058053393 0.072120786 0.15818422
00000000: 57a5 653d 0515 833d ab64 263d d4a0 c43d
00000010: 619b 7e3d d563 9d3d bc19 9e3d ed71 053e
00000020: bd6b d33d 7fbd ae3d 352a 483e 57c8 bf3d
00000030: e5dc 7e3d 4d65 883d 6f98 8e3d 9212 513e
00000040: 78b2 553e a2c7 463d 7f87 5f3d 479a 9c3d
00000050: 57cb cb3d 6d5d e73d 229b 753d 3cb6 a13d
00000060: 3093 163e 87e9 513d 4cf1 703d 1939 d33d
00000070: 65c9 6d3d 10b4 933d 0bfb 213e

fc1.weight f4 [128, 344]
0.050619602 -0.16237473 -0.071127914 0.003753476 0.033925783 -0.08663133 0.040643092 -0.037416995
-0.023155624 -0.00758094 -0.06390212 -0.023424536 0.00024900914 -0.0008608216 -0.09397012 -0.084911525
-0.106243245 -0.02647423 -0.0057721385 0.05444042 -0.0041969977 0.07428787 -0.0483633 -0.095043175
0.02258764 0.12411546 0.07061922 0.031965178 0.042775154 -0.08253041 0.037399594 0.108568795
-0.061328344 0.03779753 0.06789186 -0.061695468 0.023487907 0.06553531 -0.0358679 0.03669669
-0.19920897 0.06792915 0.040577084 0.027310474 0.08421903 -0.028416857 0.032776285 -0.08195647
-0.046803076 -0.006240202 -0.07560225 -0.042592842 -0.06850269 -0.0005429832 0.042683985 0.004475186
0.052573152 0.04525102 0.0664052 -0.05693747 0.098617755 -0.14056711 0.103342965 0.009001865
0.07080501 -0.021956837 -0.086999655 0.015120534 -0.0834823 0.05447549 0.069737345 -0.15978914
-0.070999265 0.02474522 -0.056311004 0.11787472 0.06352791 0.055718247 0.037523657 0.0028139376
0.052194122 -0.015500184 0.03998211 -0.04476809 0.0031335913 -0.014835518 -0.037866183 -0.046755232
0.02019807 -0.10143571 0.01035671 0.024971256 -0.09564433 -0.16790268 -0.060456414 -0.08138119
-0.025534447 -0.004596933 0.06916898 0.0037687353 -0.07155157 -0.053913765 0.05069478 -0.01092073
-0.020606657 0.026667824 -0.048906274 -0.04728453 -0.0070921094 0.0020878182 -0.041286517 0.08351887
0.03481865 0.0071469136 0.06616946 0.06946904 0.047253054 -0.05781209 0.0015048316 0.039014585
0.06459764 0.00010738835 -0.006307267 -0.022282109 0.10244885 -0.043015298 0.054599226 -0.023883605
-0.05421917 -0.087174 -0.06818953 0.022225395 0.052091345 -0.20175067 0.024359403 -0.039581515
0.042484373 -0.025605123 -0.004623009 0.09729488 -0.048484053 0.032554295 -0.07827243 0.025352322
-0.038176533 -0.057014316 0.06300884 0.05723957 -0.05935893 0.015695168 0.0598761 -0.008295731
0.07365714 -0.08232609 0.072940566 -0.18692331 -0.03362229 -0.06204334 0.05168342 -0.069162436
-0.046684965 -0.04355739 -0.093450285 0.06387788 0.02196506 0.005006523 0.030235227 0.0347947
-0.031174399 -0.0519758 -0.038789447 -0.048292927 0.06622689 -0.02432072 -0.040435918 -0.037115894
0.027539834 0.09214862 0.006592798 -0.07705117 -0.033072155 -0.015856976 -0.04045061 -0.026423931
0.0036752862 0.075680554 0.10818119 -0.029162366 -0.10679386 -0.045890503 -0.04839249 0.09285668
0.116639934 0.014859788 -0.006912196 -0.03754459 0.05110832 -0.004891338 -0.043385427 0.006691507
-0.0023473797 0.08804697 -0.07152959 0.008298425 0.05380261 -0.05878878 -0.07871718 -0.0025783845
-0.00784271 -0.07914162 0.05470019 0.027048763 -0.006307489 -0.029457191 0.05562963 -0.034615386
-0.081049636 0.03380756 -0.019671632 -0.038871713 -0.051821914 0.059811786 0.029700702 0.019344267
0.047818292 0.014693688 -0.045047615 0.0105837425 0.052114103 -0.02306762 -0.03917666 0.08452234
-0.0526804 0.08300511 -0.02017291 -0.05007927 -0.06175571 0.012797139 -0.025730023 -0.010994129
0.08711799 -0.04873563 -0.008674875 0.031555835 -0.019573977 0.024415633 -0.048290357 0.08107567
-0.04073402 -0.083991475 0.056648556 -0.011240937 0.021062952 -0.068360806 -0.038736053 -0.08171559
00000000: 8056 4f3d 9045 26be 83ab 91bd e1fc 753b
00000010: c3f5 0a3d c46b b1bd 5f79 263d 9042 19bd
00000020: ddb0 bdbc 8969 f8bb 1ddf 82bd d0e4 bfbc
00000030: 718d 8239 c2a8 61ba 6873 c0bd 18e6 adbd
00000040: 0f96 d9bd 7ce0 d8bc 3524 bdbb ebfc 5e3d
00000050: f886 89bb 3d24 983d 9818 46bd ffa5 c2bd
00000060: b709 b93c 3f30 fe3d cfa0 903d ebed 023d
00000070: 0035 2f3d b405 a9bd 5130 193d 5159 de3d
00000080: 6e33 7bbd 95d1 1a3d e30a 8b3d 63b4 7cbd
00000090: b669 c03c 6037 863d 38ea 12bd 454f 163d
000000a0: 70fd 4bbe 701e 8b3d 2834 263d 37ba df3c
000000b0: 077b ac3d 78ca e8bc 6d40 063d cbd8 a7bd
000000c0: 95b4 3fbd 9c7a ccbb 5ad5 9abd d575 2ebd
000000d0: 234b 8cbd fc56 0eba 67d5 2e3d 95a4 923b
000000e0: f256 573d 2259 393d 73ff 873d 4437 69bd
000000f0: 1bf8 c93d d3f0 0fbe 7aa5 d33d 8f7c 133c
00000100: 3802 913d d3de b3bc e02c b2bd 1ebc 773c
00000110: c5f8 aabd b121 5f3d 74d2 8e3d c49f 23be
00000120: 1068 91bd 7db6 ca3c 5ea6 66bd 4d68 f13d
00000130: ec1a 823d d138 643d 68b2 193d 0a6a 383b
00000140: 81c9 553d 7cf4 7dbc 48c4 233d bf5e 37bd
00000150: f05c 4d3b ac10 73bc 9219 1bbd 6a82 3fbd
00000160: 6c76 a53c 87bd cfbd 31af 293c 8590 cc3c
00000170: 2de1 c3bd aeee 2bbe 25a1 77bd 2eab a6bd
00000180: 9e2d d1bc dea1 96bb 77a8 8d3d e3fc 763b
00000190: a189 92bd aed4 5cbd 54a5 4f3d ddec 32bc
000001a0: 4bcf a8bc 7b76 da3c f251 48bd 6cad 41bd
000001b0: ed64 e8bb c7d3 083b 0d1c 29bd f10b ab3d
000001c0: 009e 0e3d a830 ea3b db83 873d c945 8e3d
000001d0: 6b8c 413d 5fcc 6cbd c53d c53a c2cd 1f3d
000001e0: c44b 843d ae35 e138 31ad cebb f888 b6bc
000001f0: b4d0 d13d cf30 30bd 70a3 5f3d 8da7 c3bc
00000200: ec14 5ebd 4888 b2bd f4a6 8bbd 0812 b63c
00000210: bc5d 553d ba97 4ebe 5f8d c73c 3a20 22bd
00000220: 1804 2e3d d6c1 d1bc 9c7c 97bb 8a42 c73d
00000230: 3797 46bd a757 053d 4c4d a0bd acaf cf3c
00000240: ff5e 1cbd d887 69bd c70a 813d 0a74 6a3d
00000250: 5922 73bd 2793 803c a440 753d d1ea 07bc
00000260: 8ed9 963d 959a a8bd dd61 953d d368 3fbe
00000270: 87b7 09bd 2821 7ebd feb1 533d 09a5 8dbd
00000280: bc38 3fbd 3c69 32bd dd62 bfbd 68d2 823d
00000290: 12f0 b33c c20d a43b deaf f73c e384 0e3d
000002a0: 7461 ffbc 94e4 54bd afe1 1ebd cece 45bd
000002b0: f7a1 873d 3f3c c7bc 22a0 25bd d606 18bd
000002c0: 389b e13c 6ab8 bc3d 6608 d83b 01cd 9dbd
000002d0: ab76 07bd 7de6 81bc 8aaf 25bd 0077 d8bc
000002e0: 12dd 703b 68fe 9a3d 1a8e dd3d eae5 eebc
000002f0: bdb6 dabd aef7 3bbd 3437 46bd a52b be3d
00000300: ebe0 ee3d 7876 733c b47f e2bb 5bc8 19bd
00000310: f556 513d 8447 a0bb ebb4 31bd 6e44 db3b
00000320: 7fd6 19bb f851 b43d 1b7e 92bd 1ef6 073c
00000330: 2060 5c3d 81cc 70bd 7936 a1bd 1dfa 28bb
00000340: b67e 00bc 0015 a2bd 4e0d 603d 5e95 dd3c
00000350: 0daf cebb 3550 f1bc e5db 633d ddc8 0dbd
00000360: 5afd a5bd cc79 0a3d 6726 a1bc f237 1fbd
00000370: 3743 54bd 34fd 743d e34e f33c de77 9e3c
00000380: 1ddd 433d cbbd 703c d983 38bd 6f67 2d3c
00000390: 9975 553d 4ef8 bcbc b577 20bd 0c1a ad3d
000003a0: 67c7 57bd 95fe a93d a941 a5bc ec1f 4dbd
000003b0: 8ef3 7cbd 17ab 513c c5c7 d2bc b820 34bc
000003c0: eb6a b23d 039f 47bd 1021 0ebc b140 013d
000003d0: 9b59 a0bc 4b03 c83c 1ccc 45bd 000b a63d
000003e0: b7d8 26bd b903 acbd 5108 683d e82b 38bc
000003f0: 368c ac3c c000 8cbd b2a9 1ebd 815a a7bd

fc1.bias f4 [128]
0.00035497022 -0.011158906 -0.008689924 -0.00094982755 0.005931454 0.02244497 0.012473351 0.045046978
-0.04337678 0.05867191 -0.003021482 0.013895529 -0.00055492 -0.004355876 -0.028198753 0.04441349
-0.019133888 -0.02538566 -0.0261673 0.011276124 -0.029771935 0.014566193 -0.0070075924 -0.013277707
0.03815708 0.0027712537 -0.058898915 0.027964009 0.048997875 -0.010947462 -0.019354235 0.03422086
-0.00020326459 -0.03571864 -0.046850536 -0.021800991 -0.018512549 -0.046853844 -0.04219906 -0.041318845
-0.015909974 0.016706007 -0.017470488 0.034290314 0.049018126 -0.024410568 -0.0037232393 0.011705116
0.031701103 -0.0021416377 -0.028964398 0.016148962 -0.016597036 0.049663767 -0.04381377 -0.028557476
0.018395366 -0.008344243 -0.029251566 0.017866442 -0.044264477 -0.015091824 0.047290377 0.034026705
0.03428336 0.029171307 -0.019599281 -0.008351011 0.013205712 -0.015938662 0.036992323 -0.024835065
0.049224798 -0.03467597 -0.01886444 -0.064639 0.020206904 0.014308311 0.027078507 0.041081037
-0.020728141 0.028668353 -0.033311915 0.0064881574 0.032634303 -0.026705116 0.0464521 0.041037038
-0.04325884 0.062102262 0.03680179 0.039908785 0.018423112 -0.04651829 -0.015789237 0.011104994
0.040997095 -0.013601293 0.040000133 0.040551566 -0.002838062 -0.053360578 0.033815965 0.03411341
0.05054597 -0.015782293 0.01913609 -0.047101006 -0.035355415 -0.024650667 0.052317407 -0.036284164
0.033902463 -0.0024119006 -0.041725945 -0.021029651 -0.037892997 -0.034436915 0.003893855 -0.046521388
0.029228682 0.04589746 0.033097375 -0.043517087 0.008107028 -0.017993463 -0.0060459306 -0.052594285
00000000: 4c1b ba39 d8d3 36bc 2f60 0ebc d9fd 78ba
00000010: a45c c23b 84de b73c 075d 4c3c 2e83 383d
00000020: daab 31bd f551 703d 0e04 46bb 13aa 633c
00000030: 0d78 11ba bcbb 8ebb 1201 e7bc ebea 353d
00000040: acbe 9cbc 96f5 cfbc ce5c d6bc 7ebf 383c
00000050: 46e4 f3bc 0ba7 6e3c f29f e5bb bd8a 59bc
00000060: 994a 1c3d ec9d 353b fd3f 71bd c714 e53c
00000070: ffb1 483d fc5c 33bc c68c 9ebc 2c2b 0c3d
00000080: 6c23 55b9 b54d 12bd 59e6 3fbd fe97 b2bc
00000090: a1a7 97bc d1e9 3fbd ecd8 2cbd f33d 29bd
000000a0: a255 82bc 09db 883c 451e 8fbc 0074 0c3d
000000b0: 3bc7 483d acf8 c7bc 9701 74bb d1c6 3f3c
000000c0: 04d9 013d b85a 0cbb bf46 edbc d44a 843c
000000d0: 82f6 87bc 3c6c 4b3d 1176 33bd 5ef1 e9bc
000000e0: e1b1 963c 4bb6 08bc fba0 efbc a55c 923c
000000f0: ab4e 35bd b343 77bc 8eb3 413d 965f 0b3d
00000100: b56c 0c3d aaf8 ee3c ac8e a0bc aed2 08bc
00000110: c55c 583c cc91 82bc 4385 173d e872 cbbc
00000120: f19f 493d 6408 0ebd 9989 9abc 7461 84bd
00000130: f388 a53c 686d 6a3c bfd3 dd3c 9744 283d
00000140: 10ce a9bc e5d9 ea3c 1372 08bd 9c9a d43b
00000150: 8cab 053d b0c4 dabc 8f44 3e3d 7416 283d
00000160: 2e30 31bd f15e 7e3d 79bd 163d 6577 233d
00000170: 11ec 963c f689 3ebd 6e58 81bc b9f1 353c
00000180: 92ec 273d f5d7 5ebc 2ed7 233d 6619 263d
00000190: c7fe 39bb 9f90 5abd 9c82 0a3d 81ba 0b3d
000001a0: 4b09 4f3d de49 81bc 4ac3 9c3c fcec 40bd
000001b0: d7d0 10bd 32f0 c9bc c74a 563d b49e 14bd
000001c0: 4fdd 0a3d fa10 1ebb d3e8 2abd 6046 acbc
000001d0: b035 1bbd b90d 0dbd 0c30 7f3b 368d 3ebd
000001e0: fd70 ef3c fafe 3b3d 1d91 073d f93e 32bd
000001f0: 57d3 043c 0767 93bc f11c c6bb 1b6d 57bd

fc2.weight f4 [1, 128]
-0.02024893 -0.04953957 -0.016116606 -0.010585219 -0.031344853 -0.0137616545 0.0076709366 -0.010674411
-0.018352965 -0.05307606 0.011695469 0.021121768 0.026812127 0.026356382 0.022125136 -0.011572422
0.04620388 -0.020803021 -0.02076249 -0.020615682 0.02928294 0.019173827 -0.05066565 -0.051236276
-0.020832866 -0.016386524 -0.06459771 0.024387468 0.06306855 0.024015775 -0.040414635 -0.096629374
-0.015969925 0.040206738 0.034729857 -0.015169029 -0.026387861 -0.06718045 -0.046265766 -0.016940266
-0.07198911 -0.033533044 0.013982551 0.02740865 0.03684516 -0.025201945 0.049369764 0.015735656
0.023462806 -0.013614394 0.037511982 -0.015322424 0.030256975 0.01962172 -0.042061113 -0.014825542
-0.013604915 0.020761374 -0.012848176 -0.02017997 0.027515613 -0.022096423 -0.015091452 0.0455945
0.027229631 -0.020832444 -0.019720877 -0.018939873 0.055372916 0.02609963 -0.0168874 0.057200998
-0.022164805 -0.06044793 0.022072375 -0.0102827875 -0.023292484 0.048458572 -0.045795415 -0.015290892
0.03510268 0.026723985 -0.019113934 -0.053763907 0.07324631 -0.045749545 -0.045309078 0.027473263
-0.034360617 -0.03741475 0.04182266 0.027868398 0.021634217 -0.0067148497 -0.017955875 -0.021509131
-0.0150636975 -0.008844979 -0.09713052 0.03072842 0.03729872 -0.073272966 -0.020292968 -0.02209498
-0.0124329515 0.041369505 0.05709741 -0.02264643 -0.044482067 -0.027202388 0.021266147 -0.015029155
0.005977051 0.027153676 -0.04267858 0.035349015 0.026512865 -0.018201606 -0.095056295 -0.012780949
-0.008521196 0.044915553 0.025041236 0.033820413 -0.023923758 -0.07939544 -0.036195245 -0.011978367
00000000: 16e1 a5bc 01ea 4abd f906 84bc a06d 2dbc
00000010: 7663 00bd 9078 61bc 7b5c fb3b bae3 2ebc
00000020: f558 96bc 4866 59bd 5a9e 3f3c 8f07 ad3c
00000030: 1ba5 db3c 57e9 d73c c63f b53c 429a 3dbc
00000040: 4840 3d3d 196b aabc 1916 aabc 38e2 a8bc
00000050: c7e2 ef3c 6e12 9d3c c986 4fbd 21dd 51bd
00000060: b0a9 aabc 083d 86bc ce4b 84bd 3ac8 c73c
00000070: 152a 813d bbbc c43c d189 25bd 9fe5 c5bd
00000080: 5cd3 82bc d2af 243d e540 0e3d 8587 78bc
00000090: 5b2b d8bc e795 89bd 2c81 3dbd 50c6 8abc
000000a0: 076f 93bd f259 09bd 1217 653c 1b88 e03c
000000b0: f3ea 163d 4f74 cebc f337 4a3d 10e8 803c
000000c0: 1235 c03c e80e 5fbc 2aa6 193d e70a 7bbc
000000d0: 7add f73c bbbd a03c 4648 2cbd d5e6 72bc
000000e0: 26e7 5ebc c213 aa3c 2881 52bc 7750 a5bc
000000f0: 6c68 e13c 8f03 b5bc 2342 77bc 4cc1 3a3d
00000100: ad10 df3c cda8 aabc ad8d a1bc cb27 9bbc
00000110: b6ce 623d e4ce d53c 7257 8abc 984b 6a3d
00000120: f792 b5bc 4098 77bd 20d1 b43c 2379 28bc
00000130: e1cf bebc 7f7c 463d f993 3bbd a686 7abc
00000140: d4c7 0f3d 42ec da3c d394 9cbc 8b37 5cbd
00000150: 2902 963d e063 3bbd 0396 39bd 9c0f e13c
00000160: b8bd 0cbd 3540 19bd 3d4e 2b3d 444c e43c
00000170: 3e3a b13c 3e08 dcbb 3318 93bc eb33 b0bc
00000180: bacd 76bc 88ea 10bc 5eec c6bd 2bba fb3c
00000190: 8bc6 183d 2310 96bd 703d a6bc 8800 b5bc
000001a0: 94b3 4bbc 1273 293d f9de 693d 0285 b9bc
000001b0: d432 36bd 8bd7 debc 5836 ae3c d83c 76bc
000001c0: 23db c33b 6371 de3c bccf 2ebd 21ca 103d
000001d0: 8231 d93c 891b 95bc e0ac c2bd 2f67 51bc
000001e0: 7d9c 0bbc 5ff9 373d 4723 cd3c 4687 0a3d
000001f0: c2fb c3bc 149a a2bd 7741 14bd ea40 44bc
