SMA_C4/model/mp_model.pth (torch, 191350 bytes, 15 tensors)

conv1.weight f4 [31, 1, 1, 31]
000000 12 5a 42 be 94 b2 0f 3c 6c b2 23 3e f3 55 93 bd
       -0.18979672 0.008770604 0.15986031 -0.07194128
000010 eb 20 da 3d d4 df ac bd a4 7b 59 bd 13 48 3a be
       0.1065081 -0.08441129 -0.05309643 -0.18191557
000020 7d 69 e7 3d 53 6c 99 bd ed cb 16 be 89 13 c5 bd
       0.11299417 -0.07491364 -0.14726229 -0.09622867
000030 cb f2 02 3e 29 52 18 3e 26 1a ed bd 4e 86 e0 3d
       0.1278793 0.14875092 -0.11577253 0.109631166
000040 d5 9e b1 3d 70 11 e9 3d 67 17 30 be 88 bd 0e bc
       0.08672873 0.11380279 -0.17196427 -0.00871218
000050 c7 67 18 bb 98 08 8e 3c a3 db ad bc 70 55 23 bc
       -0.0023255215 0.017338082 -0.021222895 -0.0099691
000060 cb 3e c5 3d 6f c0 30 be 4a 8a f9 bc fb f1 5c bc
       0.096311174 -0.17260908 -0.03046145 -0.013485427
000070 63 0d 2a be 8b 1c ce 3d 8a e6 43 bc 2b a0 d2 3d
       -0.16606669 0.10064038 -0.01195682 0.10284456
000080 26 44 44 3c 69 31 8e bc ad e8 8c bd e4 8e 17 be
       0.0119791385 -0.017357545 -0.06880317 -0.14800602
000090 7a 78 d3 3d ee a9 f4 bd d0 4a 53 3e ed 8f 35 3e
       0.103257135 -0.11946474 0.20634007 0.17730685
0000a0 44 43 9d 3d 5c 2b 1d 3e 5e 08 ad bd 11 14 29 3d
       0.076788455 0.15348572 -0.084488615 0.041278902
0000b0 f9 88 6a 3d c6 16 21 be 47 06 ba 3d 9c 9b db bd
       0.057259534 -0.15731344 0.090832286 -0.107230395
0000c0 51 41 67 3b 0a d7 0b 3e f2 d6 50 bd 03 59 b5 bc
       0.0035286734 0.1365625 -0.050986238 -0.02213717
0000d0 fc 20 3d bb 39 d1 d2 3d b1 b0 43 bd 33 73 01 3e
       -0.0028858772 0.10293812 -0.047775928 0.12641601
0000e0 8f e4 ff 3d 64 db 26 bd 1d 94 81 3d ab f7 26 3d
       0.12494766 -0.04073657 0.063270785 0.04076354
0000f0 66 64 40 be 65 4d 05 be 06 74 30 3e d1 d2 cd 3d
       -0.18788299 -0.13017805 0.1723176 0.10049976
000100 c1 83 3a bc d3 c7 ef bd 31 e8 bd bd 45 ac 1f 3e
       -0.011383952 -0.11708035 -0.092728026 0.1559306
000110 c0 67 d8 bd 48 d7 df 3d b9 1a c3 3d 6d f3 96 3d
       -0.10566664 0.109297335 0.09526581 0.073706485
000120 a4 dc 11 be eb de be bd 6f 21 28 bd cb 6d aa 3d
       -0.14244324 -0.09319862 -0.04104751 0.083217226
000130 db d9 2f be 0e 54 0a 3e 26 22 13 be a9 58 be 3c
       -0.17172949 0.13508627 -0.14368495 0.023235636
000140 ed c7 0a 3e 3b d4 28 be 97 73 f3 bd 94 d3 dd 3d
       0.13552828 -0.1648721 -0.118872814 0.10831371
000150 01 84 94 bb e3 09 f6 3d 0a 16 ee bc 3a 63 ba 3d
       -0.0045323377 0.120136045 -0.029063243 0.09100957
000160 72 0a 28 3d 55 30 46 3b c2 a6 2e be ea c9 d1 3c
       0.041025586 0.003024121 -0.170558 0.025608975
000170 4c ab 60 3d eb 8a 22 3e 69 86 e3 bd 8a 3e 0c 3d
       0.05485086 0.15873305 -0.11109621 0.03423933
000180 b0 6d 1c bc 37 07 45 3e 52 cf 12 3e 6f 7d 5a 3d
       -0.009547636 0.19241033 0.14336899 0.05334228
000190 c7 a5 a8 bd 9c a1 ef 3d 8b b9 2b 3e 99 32 c7 3d
       -0.082347445 0.117007464 0.16769998 0.097264476
0001a0 a6 f8 1d bd 0f 02 29 3e 66 a5 84 bd aa 29 d2 3d
       -0.038567208 0.16504692 -0.0647686 0.10261853
0001b0 4e 12 75 3d 44 36 07 3e 53 89 96 bb 32 eb e4 3d
       0.05983191 0.13204294 -0.004594007 0.111776724
0001c0 46 73 53 3d 49 f7 32 3e 76 4c 71 bc e5 94 a0 bc
       0.051623605 0.17477144 -0.014727702 -0.019602248
0001d0 9f 89 0e bd c1 8f 68 3d 9b a5 9f 3d 73 5e ed 3d
       -0.034799214 0.05677772 0.077952586 0.115902804
0001e0 17 24 e6 3d 54 83 94 bd f2 c8 1b 3e 0b 53 11 3d
       0.11237352 -0.07251611 0.15213373 0.035479587
0001f0 6d b1 75 3e b8 fe 29 be 65 f6 d7 3d 6e ad 1f be
       0.23993464 -0.16601074 0.10545043 -0.15593502
000200 da 28 3a 3e 14 f6 92 bd 20 16 22 3e b1 8b 24 3e
       0.18179646 -0.07175842 0.15828753 0.16068913
000210 f3 fa f3 3d 1c c7 57 3c 9d 30 83 3d 5f d0 10 bd
       0.11913099 0.01317003 0.064057566 -0.03535497
000220 84 97 70 3d 52 39 0b be 58 2a 94 bd 40 9b 28 3e
       0.058738247 -0.13596085 -0.07234639 0.16465473
000230 d3 9b 1f 3e d2 dd 2b be 52 99 8b bd 64 0b 2f be
       0.15586786 -0.16783836 -0.06816353 -0.17094189
000240 6d 4f 81 3c 74 3b d7 bd 20 03 fb bc 8f 42 24 be
       0.015784943 -0.10509387 -0.030641139 -0.16041015
000250 5d 0e e3 bc 7d e8 36 be 40 3b e0 bb b3 a5 ef 3d
       -0.02771681 -0.17862125 -0.0068430007 0.117015265
000260 e2 6a 88 3d cc bd e4 bd d8 52 fa bc 38 21 de 3d
       0.06661011 -0.111690134 -0.030557081 0.1084618
000270 44 39 d3 bd 37 a2 75 3b e4 d5 45 3d 3e 26 e2 3c
       -0.10313657 0.003748072 0.048299685 0.027606126
000280 3e 51 d4 bc 05 0c 4c be 82 1e 5d 3d e4 e2 f1 bc
       -0.025917646 -0.1992646 0.053984173 -0.029527135
000290 e5 91 e9 bd 35 2b 28 3e 89 78 93 bd e6 2d 0e 3c
       -0.1140478 0.16422732 -0.07200725 0.008677935
0002a0 23 73 f5 3d 1a a6 36 3c da ce 3e 3c 15 a7 82 3d
       0.11984851 0.011148 0.011645997 0.063795246
0002b0 76 44 a6 bc dc 46 9d 3c 57 e0 21 3e 91 c5 16 3e
       -0.020296317 0.019198827 0.15808235 0.14723803
0002c0 fc 24 5c bd 66 a5 00 3e 0b 06 92 bd 2b 7e 4a 3e
       -0.05374621 0.12563094 -0.07130059 0.19774692
0002d0 e4 78 04 be a5 b1 1c be 10 a8 11 3e b3 69 dc bb
       -0.12936741 -0.15302141 0.14224267 -0.0067264675
0002e0 0e 44 2a be 49 fe 60 bd 22 d6 f1 3d 63 56 4b bd
       -0.16627523 -0.054930005 0.11808421 -0.04964293
0002f0 c1 0c 05 3e f2 7d ca bc 65 f1 35 be f3 a9 f5 bd
       0.12993146 -0.024718259 -0.17767866 -0.11995306
000300 c8 1c fa 3c 6e f3 cc 3d 43 6b 15 be a0 52 e7 3d
       0.030531302 0.10007368 -0.14591698 0.11295056
000310 91 e3 d7 bd 1a e3 c6 bd 03 6d 8d bd 83 02 b3 bd
       -0.10541452 -0.09711285 -0.06905558 -0.087407134
000320 7e 9b 56 be 0e b1 44 bc 6a 89 6d 3c fe 72 59 be
       -0.20957753 -0.012005104 0.014498094 -0.21235272
000330 ca b3 13 be d1 69 77 3d 6b d5 15 3e 6f 36 81 bd
       -0.14424053 0.06040365 0.14632194 -0.063092105
000340 d0 55 b3 3d 02 47 c1 3a 64 20 1c 3e 48 5a 18 3e
       0.08756602 0.0014745893 0.15246731 0.1487819
000350 d8 14 e2 bd 62 4e 40 3d fa c2 23 3e c3 e1 1f be
       -0.11039132 0.04694975 0.15992346 -0.15613465
000360 31 fd b0 ba 72 76 41 be 62 f8 e3 bc 9d 93 ea bd
       -0.0013503191 -0.1889284 -0.0278284 -0.11453936
000370 d5 27 c9 3d d3 8a 27 3e 27 d0 ad bc 76 18 56 3d
       0.098220505 0.16361551 -0.021217419 0.05226942
000380 fd 86 99 bd 12 e9 1f be 6b 1a b4 bc 4a 3a 99 bb
       -0.0749645 -0.15616253 -0.021985253 -0.004676138
000390 bf 63 e2 bd 8b 17 97 3d b5 06 a4 38 f7 37 4c 3d
       -0.11054181 0.07377537 7.821379e-05 0.04985806
0003a0 8e 24 e0 bc a8 24 6f 3d 86 2a 0f be 67 6a 91 3c
       -0.02736118 0.058384567 -0.13981065 0.017750932
0003b0 61 f5 44 be bd 78 da 3c 75 ca 30 be e5 93 99 bd
       -0.1923423 0.0266689 -0.17264731 -0.07498912
0003c0 da e5 5d 3d fa b9 e1 3d af 7c 38 be 34 29 4b 3c
       0.05417428 0.110218 -0.18016313 0.01239996
0003d0 1d 01 ea 3d d4 e3 1d bd 74 dd d4 bd a4 87 f4 3d
       0.114259936 -0.038547352 -0.10393801 0.11939934
0003e0 de 23 40 be fe 14 af bd 2e e1 96 bd 50 04 1d 3e
       -0.18763682 -0.08548926 -0.07367168 0.15333676
0003f0 c7 b3 30 3d 5c 5e e5 bc 16 95 01 3d 4e d3 b7 bd
       0.0431402 -0.027999096 0.03163632 -0.0897585

conv1.bias f4 [31]
000000 6a e3 3d 3d 33 41 28 3e 1e 3d 1e be cb 9e 2f be
       0.046359457 0.16431122 -0.15453002 -0.17150418
000010 1b 87 42 3d b7 f5 15 3e 91 b1 b0 bd 47 7a 91 3d
       0.047492128 0.14644514 -0.08627618 0.07103401
000020 b5 b1 d6 3d cf 32 77 3d 6f d0 a3 3c 9a b8 3e 3e
       0.10483114 0.06035119 0.01999685 0.18625107
000030 96 f8 ac 3d ae 4d 00 be c8 d0 3c 3c b2 05 9b 3d
       0.084458515 -0.12529632 0.011524387 0.07569446
000040 69 52 d5 3d cb cc 45 be 7b 12 95 3d 33 f4 49 bd
       0.10416109 -0.19316404 0.072789155 -0.049305152
000050 43 66 23 be 39 ee 28 3d 80 65 d0 bd 1e b9 35 3b
       -0.15956978 0.04124281 -0.101756096 0.0027728747
000060 f9 3d 07 be a0 26 0a be 55 f3 c3 3c 06 57 83 bd
       -0.13207234 -0.13491297 0.02391974 -0.06413083
000070 10 58 e5 3d de 54 80 3c c6 c2 2e 3e
       0.11198437 0.015665468 0.17066488

bn1.weight f4 [31]
000000 d3 7b 6e 3f e0 0c 6e 3f 24 d4 75 3f ce 30 75 3f
       0.9315769 0.92988396 0.96026826 0.95777595
000010 a7 ce 8e 3f f3 10 66 3f d0 c3 6d 3f e8 b5 9d 3f
       1.1156815 0.8986961 0.9287691 1.2321138
000020 aa c7 7e 3f 36 b3 4b 3f 73 04 73 3f 15 13 5b 3f
       0.99523413 0.7957033 0.94928664 0.8557599
000030 76 f0 8d 3f e6 08 6d 3f ef 96 7c 3f 7c 44 66 3f
       1.1089008 0.925917 0.98667806 0.8994825
000040 fd 44 95 3f 57 fb 95 3f d5 f3 6d 3f d8 9b 80 3f
       1.1661679 1.1717328 0.92950183 1.004756
000050 bc 47 6f 3f c5 d2 5c 3f 13 69 84 3f a3 42 74 3f
       0.9346883 0.8625911 1.0344566 0.9541418
000060 44 77 89 3f 88 0c 72 3f 64 49 96 3f f8 00 73 3f
       1.0739522 0.9455037 1.1741147 0.94923353
000070 c8 74 70 3f 47 bc 73 3f 36 46 6c 3f
       0.93928194 0.95209163 0.92294633

bn1.bias f4 [31]
000000 74 b3 f8 bc 77 b9 d0 bd 76 86 a9 bc ef f1 68 bd
       -0.030359007 -0.101916246 -0.020693999 -0.05687135
000010 88 f4 fb 3b 6c 99 77 bd 5b cc 7d bd e3 c0 3d 3e
       0.0076890625 -0.06044905 -0.061962467 0.18530612
000020 fc b1 13 3c d8 cc c2 bd 62 de 07 bd 47 11 fe bd
       0.009014603 -0.09511727 -0.033171065 -0.12405639
000030 29 66 82 bc 12 77 36 bd f3 6e 36 3d f7 8e ca bd
       -0.015917854 -0.044547148 0.044539403 -0.0989055
000040 45 8f d5 3d 07 47 b7 3d 6d ef 9c 39 80 f9 14 3d
       0.10427717 0.08949094 0.00029933025 0.036370754
000050 2a 4a 1e bc b7 f1 ae bd 55 10 4c bd d6 2b ba bc
       -0.009661237 -0.08542197 -0.049820263 -0.02272598
000060 cd ff 36 3d c5 18 dd bc c1 7a 59 3d e3 5c 05 bd
       0.044677544 -0.02698935 0.053095583 -0.032559287
000070 0d be 45 3c b4 87 b2 bd 2f f7 95 bd
       0.012069237 -0.087172896 -0.07322537

bn1.running_mean f4 [31]
000000 f3 e8 41 3d de e5 27 3e 3f 2c 1f be ca 5c 30 be
       0.0473413 0.16396281 -0.15544222 -0.17222896
000010 c8 c3 3f 3d 2f a3 15 3e 18 c0 b1 bd a9 24 93 3d
       0.04681757 0.14613031 -0.08679217 0.07184727
000020 41 c4 d6 3d 7b 9e 78 3d 94 91 a0 3c b4 4f 3f 3e
       0.10486651 0.060698014 0.019600667 0.18682748
000030 28 99 af 3d 91 43 01 be 25 a2 54 3c 87 61 99 3d
       0.08574134 -0.12623431 0.012978111 0.07489305
000040 d4 fc d1 3d c8 cc 44 be 5e 84 96 3d fd 5a 4c bd
       0.10253301 -0.19218743 0.07349466 -0.04989146
000050 78 51 24 be 96 b8 29 3d 49 c8 d2 bd f6 56 46 3b
       -0.16046703 0.0414358 -0.102921076 0.0030264235
000060 9a ed 07 be c1 64 09 be e0 cb cd 3c 00 e6 83 bd
       -0.13274232 -0.13417341 0.02512163 -0.064403534
000070 1a 7d e5 3d c5 7d 86 3c e3 cf 2c 3e
       0.11205502 0.016417393 0.16876177

bn1.running_var f4 [31]
000000 f3 61 1e 3e 51 fc 6f 3e 13 f6 18 3f c0 56 fa 3e
       0.15467052 0.23436095 0.5975048 0.4889431
000010 94 9b 0d 3e 78 6c 35 3f 7e 5a 6a 3f 41 eb 98 3d
       0.1382888 0.70868635 0.9154433 0.07466746
000020 86 6e 80 3e 2e 5b bd 3e 98 ce 2a 3e d4 78 98 3f
       0.25084323 0.36983627 0.16680372 1.1911874
000030 82 0d 3d 3e 05 14 7b 3f 07 22 86 3e 5b eb e9 3e
       0.18462184 0.9807742 0.26197836 0.45687374
000040 3c 73 27 3e cb 0e 28 3e cc 00 10 3f ef c2 5b 3e
       0.16352552 0.16411893 0.56251216 0.2146108
000050 c0 58 aa 3e 29 76 cd 3e 16 b7 93 3e 2b 31 5d 3f
       0.33270836 0.40129212 0.2885062 0.8640315
000060 78 f1 3b 3e d0 a1 aa 3e f9 76 06 3e 25 88 21 40
       0.18353832 0.33326578 0.13131322 2.5239346
000070 0a 30 89 3f 1e 73 94 3f 32 a1 42 3e
       1.0717785 1.1597631 0.19006804

conv2.weight f4 [31, 1, 1, 31]
000000 58 c7 37 be ee 6e 21 be 0d 3f c1 3d ff 66 0a 3e
       -0.17947137 -0.15764973 0.09435854 0.13515852
000010 66 63 6a bd d9 99 72 bd 3f c8 22 be b6 22 ae 3a
       -0.0572237 -0.05922875 -0.158967 0.0013285491
000020 9f 9e b6 3d a1 75 21 3e 7d 4a a3 3d e4 14 4b be
       0.08916973 0.15767528 0.07973192 -0.19832188
000030 88 04 40 3d 6b ae 02 3e 6d d4 25 bd 98 58 ca 3d
       0.04687932 0.12761848 -0.040485788 0.09880179
000040 8a 1b b8 3d 72 b9 b7 3c fe c5 39 3e bf 56 e9 bd
       0.08989628 0.022427294 0.18141934 -0.11393499
000050 b5 16 c9 bd 4e d2 89 3d 7a 06 ea 3d bd dc 79 bc
       -0.09818784 0.067295656 0.114270166 -0.015250382
000060 0b 40 90 bd 47 6b 82 3d 80 ad a1 3d 0b 34 32 be
       -0.07043465 0.06368118 0.078944206 -0.17402665
000070 48 9f 05 be 42 25 09 be 29 d3 13 bd 1b f8 3e 3d
       -0.13049042 -0.13393119 -0.03609005 0.04662333
000080 79 42 33 be b5 07 67 bd 20 00 32 3d aa 05 43 be
       -0.17505826 -0.056403834 0.04345715 -0.1904513
000090 94 4b b5 bd ab 56 aa bd 20 a8 0e 3d 42 71 18 3d
       -0.08852306 -0.08317312 0.034828305 0.037217386
0000a0 5a 01 0e be e2 62 45 be 8a 2c df 3c 84 8b cb 3d
       -0.13867703 -0.19276002 0.027242918 0.0993872
0000b0 b7 34 5e bd 3e f8 3a be dc 9a 93 3e 1c 23 2a be
       -0.05424949 -0.1825876 0.28829086 -0.16614956
0000c0 d3 31 e7 3d b7 5a df bd c5 b3 5e 3d 2b ce bb bd
       0.112888 -0.10905974 0.05437066 -0.09170183
0000d0 93 3b fa bd 9b 50 d9 bd 1b b0 34 be a6 74 65 3d
       -0.12218394 -0.106110774 -0.17645304 0.056019448
0000e0 7b d7 9b 3d d6 77 10 3e bf 15 d0 bd 9a 23 fa 3d
       0.07609459 0.14108214 -0.10160398 0.12213822
0000f0 f0 b4 49 bd 25 97 01 be 03 db 3d be 7d c5 0f be
       -0.04924482 -0.12655313 -0.18540578 -0.1404018
000100 83 63 d0 3d 7b 2d e6 3d a8 29 0f be 16 10 3c bc
       0.1017523 0.112391435 -0.13980734 -0.011478445
000110 ba 91 27 3d 2a 47 a9 3d f3 e6 5a bd 52 ec 2d 3d
       0.04091046 0.082655266 -0.053442907 0.0424617
000120 d0 26 09 3d 06 d1 6d 3d 2d 7c c0 bd 4e 32 ab 3d
       0.03348428 0.05806067 -0.09398685 0.08359204
000130 d7 ab 16 3d 19 fe c8 bd d5 e4 b5 3d 4c 62 aa 3d
       0.036784973 -0.0981409 0.08881537 0.0831953
000140 38 1a 47 3e 45 f9 f4 bd 1e c1 12 bd 6f ba e1 bd
       0.19443595 -0.11961607 -0.035828702 -0.110218875
000150 25 77 26 be ac d9 34 be c3 30 14 bd d3 5f 56 3d
       -0.16256388 -0.1766116 -0.036179315 0.05233748
000160 92 4e f4 3d 84 80 0d 3e e8 0f a8 bc 78 bc 47 3d
       0.119290486 0.13818556 -0.020515397 0.048763722
000170 8b ad 72 3d 04 2a b6 bd 78 97 28 3e 20 02 3a 3e
       0.059247535 -0.088947326 0.1646403 0.18164873
000180 bf f9 59 3d 2d a0 9e 3c c8 b6 55 bd 62 ad 66 3e
       0.053216692 0.019363487 -0.052176267 0.22527078
000190 ae 21 3b bd e1 b6 97 bc 31 13 34 be 6f de ac 3d
       -0.045686416 -0.01851982 -0.17585446 0.08440863
0001a0 97 a4 ec 3d 44 4a ee 3d 34 28 5f bd 9f d2 28 be
       0.115548305 0.11635259 -0.0544817 -0.16486596
0001b0 a1 c0 1a bd 4f 0d 0b 3e 9e 1e 33 be 1d f6 95 be
       -0.03778136 0.13579296 -0.17492148 -0.29289332
0001c0 90 fd 1b bd 27 25 9f bd a7 35 35 3e 91 99 3c be
       -0.038083613 -0.07770758 0.17696248 -0.18417956
0001d0 20 c5 51 bd b4 5e 1c 3e d7 9e 8d bc 92 21 ee 3d
       -0.051213384 0.15270501 -0.017287655 0.11627497
0001e0 f8 fe e3 3d 69 5d a1 3c 25 b3 7f 3d dc 13 be 3d
       0.11132616 0.019697862 0.062426705 0.092811316
0001f0 d4 e0 f4 3d 2a 9d aa 3c 44 2c 55 3c e5 0b f8 bd
       0.11956945 0.020826895 0.013011042 -0.12111644
000200 43 a8 8a bd 6d d2 3a bd 36 03 12 be b6 04 97 bd
       -0.067703746 -0.045610834 -0.14259037 -0.073739454
000210 ad 09 a9 bd 14 02 97 3d 66 f4 5b be 8a aa 42 3e
       -0.08253799 0.07373443 -0.2147995 0.19010368
000220 50 e8 60 3d 0f 40 7b 3e d1 27 6a bd ef 4b e4 3d
       0.05490905 0.24536155 -0.057166878 0.11147296
000230 bb 16 28 be 26 1e 03 3e 68 90 34 3d b5 c1 c8 bd
       -0.16414921 0.1280447 0.04408303 -0.09802572
000240 63 54 15 bb 1f e3 84 bd 18 b2 1a be 4b 11 9d bc
       -0.0022785894 -0.064886324 -0.15107 -0.019173285
000250 f7 87 22 3e da fe 1b 3d 62 a1 c0 bd fa 9d 97 bd
       0.15872179 0.038084842 -0.09405781 -0.074031785
000260 f9 39 2d be aa 6e db 3c a4 fc 0c be c1 fd 0d be
       -0.16916646 0.026786167 -0.1376825 -0.1386633
000270 6f 4e 6f 3e 54 c4 cf bd a8 5b cf bc 00 e6 50 3d
       0.23369764 -0.101448685 -0.02531226 0.051000595
000280 30 67 6f ba 2c 26 8e be 63 e8 47 3d a6 93 10 be
       -0.00091325026 -0.27763498 0.048805606 -0.14118823
000290 34 9e d9 bc bb c8 33 3d a2 e2 2d 3d 45 f5 50 bc
       -0.026564695 0.043892603 0.042452462 -0.012753789
0002a0 42 6d 14 3d be 13 1c bc 55 8c 1d 3e ce 51 63 bc
       0.03623701 -0.009526191 0.15385564 -0.013874484
0002b0 9d 23 09 3e 3a 7b 96 3c 10 e6 56 bd bd 7f 1e 3e
       0.13392492 0.018369306 -0.0524655 0.15478416
0002c0 84 5d e6 bd 17 55 69 bd 39 ed 75 bc 6a 9e d9 3c
       -0.112483054 -0.056965914 -0.015010172 0.026564796
0002d0 43 67 4b bd e3 b6 f9 bb 10 a1 23 3d 7f 2c 8c 3c
       -0.049659025 -0.0076206787 0.039948523 0.017111061
0002e0 83 1e f4 3b 43 8f c4 bd 9c 76 ba bc 39 8d 7c 3c
       0.0074499263 -0.095976375 -0.022761635 0.0154145295
0002f0 fb 40 5f bc ab 42 29 3d 1c 4e 37 bd 7c ea d2 3d
       -0.013626332 0.041323345 -0.044752225 0.102986306
000300 20 ee d1 3d c3 8d 8a bd 75 d9 a4 be 07 7a 07 3e
       0.10250497 -0.0676532 -0.32197157 0.13230143
000310 a2 87 02 bc 35 6e d8 bd 8f 69 8d bc 27 d3 25 bc
       -0.007966908 -0.10567895 -0.017262248 -0.010121143
000320 6e 3e c4 bc 7e 5c 08 3d b8 b0 71 be 59 b5 d8 bc
       -0.02395555 0.033291332 -0.23602569 -0.02645366
000330 d6 9b 1c be 61 af 54 3e 90 60 b5 bd 56 e2 70 3d
       -0.15293822 0.20770027 -0.088563085 0.0588096
000340 74 b4 e1 bd 36 3a ef bd df 45 7a 3e 6f 88 31 bd
       -0.11020747 -0.11681025 0.24440716 -0.043343004
000350 07 b2 10 3c 7d f3 d1 3d 26 c7 9c bd fc 56 45 3a
       0.0088315075 0.1025152 -0.07655172 0.00075279153
000360 ba 7c 06 bd b3 94 84 3d 5a 26 dc bd 4d a3 d7 bd
       -0.032833792 0.064736746 -0.107495025 -0.10529194
000370 31 32 18 3e f5 ba 04 3e b3 ef 09 3e 66 dd a2 bd
       0.14862897 0.12961943 0.13470344 -0.07952385
000380 33 bc fe bb 93 38 ef bd 0b f7 f9 bb 98 dc b6 bd
       -0.0077739 -0.116807126 -0.007628327 -0.08928794
000390 e5 5f 6c bd 48 d1 db bd 23 ea b3 bd 73 af fa bd
       -0.05770864 -0.107332766 -0.087848924 -0.122404955
0003a0 3d 4a 8d bd 62 e8 5c 3e a9 52 dd bd fd 5c ce 3d
       -0.068989255 0.21573022 -0.10806782 0.1007633
0003b0 13 7a 9a bd ce 28 9a bd e7 d5 4f be b8 f4 76 3d
       -0.07542815 -0.07527314 -0.20296441 0.060291976
0003c0 6e d6 4b bd 5c a3 17 3d 55 7d 45 3e b9 81 6a be
       -0.049765043 0.037021026 0.19286092 -0.22901048
0003d0 ef 7c 2c 3d 6c a4 11 be c9 e3 ec 3d 96 58 97 3d
       0.042111333 -0.14222878 0.11566884 0.07389943
0003e0 6f b1 7d bd 2d 41 08 3e db 1b 5d bd c8 67 2c 3c
       -0.061936792 0.13306113 -0.053981643 0.01052279
0003f0 c1 2a 26 3e bf 18 4d bd be 8c 98 bd 14 60 da bd
       0.16227247 -0.050072428 -0.074487194 -0.10662857

conv2.bias f4 [31]
000000 0b 30 28 bd b5 9f 45 bd 80 1b df bd 77 84 09 3e
       -0.041061442 -0.04824801 -0.10893917 0.13429438
000010 8b 16 53 bd d8 7d 0c be 84 f9 10 3e 82 76 26 3e
       -0.05153517 -0.1371988 0.14157683 0.16256145
000020 47 8e 97 bc 10 1e e7 bd b4 e7 1e 3e 03 18 91 bd
       -0.01850046 -0.11285031 0.15518075 -0.07084658
000030 01 eb 4f bd 0d ad e8 bd 64 3c 99 bd 2c ad 1e be
       -0.050761227 -0.11361132 -0.07482222 -0.15495747
000040 03 3c c2 bd 89 21 2d be b6 95 0d bd 93 9d b9 3d
       -0.094841026 -0.16907324 -0.034566604 0.09063258
000050 72 ac 0c be 33 87 05 3c 92 cf 6d bd 63 91 c2 3d
       -0.13737658 0.00814991 -0.058059283 0.095003866
000060 29 98 2a 3e 56 0a 6c 3b 05 52 84 bd 70 c0 10 be
       0.16659607 0.0036016903 -0.064609565 -0.14135909
000070 db 23 ec bd ca 79 4a 3d 58 34 76 3d
       -0.115302764 0.049432553 0.060108513

bn2.weight f4 [31]
000000 1c 1e 86 3f 9b 0c 97 3f 15 0e 86 3f fc 7b 6d 3f
       1.0477939 1.1800722 1.0473047 0.9276731
000010 43 8d 8b 3f 32 31 86 3f f7 25 99 3f 54 c2 7d 3f
       1.0902485 1.0483763 1.1964711 0.99124646
000020 68 e7 78 3f 28 6d 94 3f 70 70 82 3f 6e 57 74 3f
       0.972281 1.1595812 1.0190563 0.9544591
000030 f9 55 61 3f cf c3 83 3f a7 1f 8b 3f ff 42 8e 3f
       0.8802181 1.0294131 1.0869035 1.1114196
000040 b8 a2 75 3f 4b 4f 93 3f 42 30 8c 3f 45 3a 8a 3f
       0.95951414 1.1508573 1.0952227 1.0799032
000050 93 7f 86 3f f5 ce 53 3f 84 dd 81 3f de c7 86 3f
       1.0507683 0.82737666 1.0145726 1.0529745
000060 aa c5 70 3f ec 48 72 3f a5 23 8a 3f e3 4f 57 3f
       0.9405161 0.9464252 1.0792128 0.8410627
000070 0b ac 85 3f 55 98 87 3f cd d2 88 3f
       1.0443128 1.0593363 1.0689331

bn2.bias f4 [31]
000000 bd 66 07 3b fc b2 0a 3e bc be 50 3c 39 eb ed bd
       0.0020660602 0.1354484 0.012740787 -0.11617131
000010 95 b2 ab bc 6c c7 99 3a d9 11 22 3c f7 6e ff 3c
       -0.020959178 0.0011732406 0.0098919505 0.031180842
000020 30 00 37 be c9 be 6b 3d 42 c5 f0 bc 9d 61 89 bc
       -0.17871165 0.057554994 -0.029390935 -0.016770178
000030 28 35 31 be 95 a4 e0 3c e7 7f 05 bd e2 fa f4 3d
       -0.17305434 0.027422229 -0.03259268 0.119619146
000040 4d 7d 06 be ae e8 10 bd 06 71 c7 bc 28 f5 03 bd
       -0.13133736 -0.03537815 -0.024345886 -0.03221622
000050 79 42 ad bc 0a ff fb bd 1f 5e 18 be b5 c6 52 bd
       -0.02114986 -0.12304504 -0.14879654 -0.051459033
000060 52 f9 54 bd 65 b6 0d be 16 fe 80 3c 56 bb 6a be
       -0.051995583 -0.13839109 0.015746158 -0.22923025
000070 bf 82 c2 bc ad a7 82 ba cb 5e b8 b7
       -0.023743985 -0.0009968184 -2.197865e-05

bn2.running_mean f4 [31]
000000 8d 2c 14 bd 69 83 be be 5b 65 7f be 3c 31 05 3e
       -0.0361753 -0.37209633 -0.24941008 0.13007063
000010 c8 41 8d be f5 c4 40 be 23 7d 91 bd 3c 59 80 3b
       -0.2758925 -0.18825133 -0.07103946 0.0039168876
000020 f1 3d 1a 3e 3a f8 87 3c ac 52 89 3e ea b6 e5 3d
       0.15062691 0.016597856 0.26820886 0.11216529
000030 25 44 36 be fd d6 0e be 5a bf 70 be 7f 96 33 be
       -0.17799433 -0.13949199 -0.23510495 -0.17537878
000040 3f 64 8a bd 97 84 b4 be ff b6 0e 3e 2c 68 c0 3d
       -0.06757402 -0.35257408 0.13936995 0.09394869
000050 27 56 07 bf 69 90 d2 3e e7 e0 03 be bf 4e fe bd
       -0.52865833 0.411258 -0.12878762 -0.124173634
000060 d3 ef a8 3e 76 2b 51 3e 01 9f 3d be eb 54 ad be
       0.3299547 0.20426735 -0.18517686 -0.3385385
000070 d6 4f 8e be 29 da 7a 3e c0 81 9c 3e
       -0.27795285 0.24497284 0.3056774

bn2.running_var f4 [31]
000000 67 f8 48 3d e1 8e 95 3d de 91 84 3d a9 12 8c 3e
       0.04906502 0.073026426 0.064731345 0.27357987
000010 8b 4c 3f 3d 7f a2 67 3d 2f 70 7b 3d 64 09 07 3e
       0.046703856 0.056551453 0.061386283 0.13187176
000020 63 82 00 3e 27 79 61 3d 4d 93 75 3e b0 ea 23 3e
       0.12549739 0.05504718 0.23981972 0.16007495
000030 37 58 94 3d 1a b4 99 3d 4b eb 89 3d 7d 80 aa 3d
       0.07243388 0.07505055 0.06734332 0.083252884
000040 c9 b1 0e 3e cd 54 65 3d b7 74 9d 3d 3a f2 4a 3d
       0.13935007 0.055989075 0.07688277 0.04954741
000050 8b 81 f8 3d e9 fc 50 3e 67 86 62 3d d1 14 44 3d
       0.12134083 0.20408978 0.055303957 0.047871415
000060 8f 85 28 3e e2 ee 6b 3d 78 62 79 3d 64 7b 58 3e
       0.16457199 0.057600863 0.060884923 0.2114082
000070 3a b4 c2 3d 86 17 9a 3d ca 82 18 3e
       0.09507032 0.07524018 0.14893642

fc1.weight f4 [128, 344]
000000 3e 83 13 bc bd 66 78 bd 95 2a 99 3d a2 53 54 3b
       -0.009003459 -0.060644854 0.07478825 0.0032398482
000010 8d 91 f7 39 fb 92 4a 3c f7 2d a6 3c 1a 66 02 bd
       0.00047219955 0.012364144 0.02028559 -0.031835653
000020 8c 33 8c bd b9 25 07 3d 35 d3 96 bd 61 80 c0 bc
       -0.06845769 0.03299496 -0.07364503 -0.023498716
000030 52 29 96 3d 51 a6 4e be 55 2f 58 bd b0 97 9a bb
       0.073321 -0.20180632 -0.052779514 -0.0047177896
000040 1e c5 19 3d 5e 04 09 3d c0 9b 93 bd 7f 7f 82 3d
       0.0375415 0.03345143 -0.07207441 0.06371974
000050 a7 12 07 bd 51 fd e7 bc a2 2d 94 bd 55 29 92 bd
       -0.032976773 -0.028319033 -0.07235266 -0.0713679
000060 49 ca fb bc 41 16 04 3e 76 5e 6b 3d 91 8b 72 3d
       -0.030736106 0.12899114 0.05746313 0.059215132
000070 05 55 a3 3d 41 f0 50 bc 70 65 c0 3d bc f1 3e 3e
       0.079752006 -0.0127525935 0.09394348 0.18646902
000080 7b f4 1d bd 87 2e 77 3d 6d 1a 95 3d 80 a5 6b bd
       -0.038563233 0.060347106 0.07280431 -0.05753088
000090 dd 2a 15 3d 3d 12 9a 3d e7 74 83 3b 2e 35 39 3d
       0.03641783 0.0752301 0.0040117386 0.04521673
0000a0 04 0c 16 be 4f 64 6f 3d 59 79 1a 3d 38 52 da 3c
       -0.14653021 0.05844527 0.037713382 0.026650533
0000b0 da 14 9e 3d 4a 14 94 bc c8 ea 48 3d 7d 8a a0 bd
       0.07718821 -0.01807608 0.04905203 -0.078389145
0000c0 cd 60 2f bd 75 e2 7f 3d 58 f8 80 bd a4 af 34 bc
       -0.042816926 0.062471826 -0.06297368 -0.011028204
0000d0 8b e2 a8 3c bb a3 b1 3c 1a b1 a5 3c 5d e3 84 3d
       0.020615837 0.021684518 0.02022605 0.064886786
0000e0 4a 85 bc 3d ef c7 8a 3d 67 c7 7f 3d b7 0c 71 bd
       0.0920511 0.067764156 0.062446024 -0.058850016
0000f0 3c d0 b1 3d ad ad 98 bd 33 f8 de 3d 42 83 5c 3d
       0.08682296 -0.07455001 0.10887184 0.053836115
000100 d6 f9 68 3d ef 04 e6 bc 63 9f fd bc 7d 39 11 3c
       0.056878887 -0.028078524 -0.03095979 0.008863804
000110 4c a4 c1 bd 3b f4 99 3d c0 50 5f 3d bc 29 18 be
       -0.09455165 0.075172864 0.05452037 -0.1485967
000120 1c 28 88 bd f2 4d 51 3d e9 10 37 be 3b 2e 88 3e
       -0.06648275 0.051099725 -0.17877544 0.2659777
000130 c2 d1 1d 3d 9b 23 67 3d d4 5c ab 3c 13 83 12 be
       0.03853012 0.05643044 0.020918287 -0.14307813
000140 9f c6 6a 3d 0a 55 3a bc 03 8f dc 3d a7 1b 4e bd
       0.057318326 -0.011372814 0.10769465 -0.05031934
000150 18 73 6f bd 4e 61 24 3b b7 73 8d ba ca 2e 4e bd
       -0.05845937 0.0025082412 -0.0010791932 -0.05033759
000160 3e 61 c8 3b dd d7 25 bd d7 f1 48 3b ba 77 1c 3d
       0.006115108 -0.040489066 0.0030661726 0.038200118
000170 55 95 c7 bd 89 a3 da bd 22 b9 7f bd f2 3b ab bd
       -0.0974528 -0.10675723 -0.062432416 -0.08361043
000180 58 8d 6f bd e5 1e 9c bb 75 12 88 3d 25 ca 95 3b
       -0.058484405 -0.004764425 0.066441454 0.0045712166
000190 58 5f c5 bc b3 af 07 bd 3a a7 a0 3d ee d3 41 bc
       -0.024093315 -0.033126544 0.07844396 -0.011830313
0001a0 f6 7c ff 3c c1 49 75 bc 40 d7 3f 3c 8f 59 e2 bc
       0.031187516 -0.014971198 0.011709034 -0.027630595
0001b0 d7 66 ed bd 75 d0 a6 3c cd 43 2a bd a6 55 84 3d
       -0.11591881 0.020363072 -0.041568566 0.06461649
0001c0 e6 07 ef 3c e7 58 25 3c d9 12 34 3d cc 4d c7 3d
       0.029178571 0.010091997 0.043963287 0.097316355
0001d0 f6 df f4 3c a5 b1 5b bd e2 88 4d 3b 81 0f 1b 3d
       0.02989195 -0.053636212 0.0031362106 0.037856583
0001e0 64 61 c6 bc a2 90 e6 39 37 40 35 be bd c5 91 bc
       -0.024216361 0.00043976778 -0.17700277 -0.017794484
0001f0 7a 8e a2 3d 6f 1c e1 bc 35 4e 8e 3d 88 a4 d5 bc
       0.079373315 -0.027479379 0.069485106 -0.026079431
000200 aa d4 4a bd e3 67 dd bd 97 93 70 bc aa b1 ad 3c
       -0.04951922 -0.108108304 -0.014683626 0.02120288
000210 75 4e 7e 3d f8 28 46 be 88 28 1a 3c fc 16 2c bd
       0.06208654 -0.19351566 0.009409077 -0.042014107
000220 f4 7d 2d 3d a5 cf bc bc 74 e5 70 bb 04 67 ba 3d
       0.042356446 -0.023048231 -0.0036757858 0.0910168
000230 ae c3 a5 bd 86 70 63 3d 1f 91 ab bd 20 42 a8 3c
       -0.080939636 0.055527233 -0.08377289 0.020539343
000240 ee 80 f0 bc 45 3d c5 bd 2c 37 5f 3d 39 53 e4 3b
       -0.029358353 -0.09630827 0.054495975 0.0069679287
000250 0b 55 1f bd 52 f3 d7 3c 9e 8a c2 3c 6f 41 83 3b
       -0.038899463 0.026361141 0.023747738 0.004005603
000260 4b 9c 9b 3d 1b 20 d5 bd a0 c3 9a 3d b6 c5 04 be
       0.0759817 -0.10406514 0.07556844 -0.12966046
000270 7c b2 c6 bd 60 c8 5a bd 69 b9 36 3d 43 52 46 bc
       -0.09702012 -0.05341375 0.044610415 -0.012104574
000280 a7 93 97 bd 3a 2a 45 bd ee d8 85 bd 69 89 fa 3d
       -0.07401209 -0.048135974 -0.06535517 0.1223324
000290 dd 4b 1d bd 18 1a f4 3a 59 cf 8f 3c c2 2a 98 3d
       -0.038402427 0.0018623499 0.017554926 0.074300304
0002a0 5e bc 89 bd cb 55 9f bd a2 a9 9c bd ed 78 e5 bd
       -0.06725381 -0.077800356 -0.076495424 -0.112047054
0002b0 9a 21 bc 3d ba 1e 13 bd 38 77 7e 3c f7 61 43 3d
       0.091860965 -0.035917975 0.015531354 0.04770085
0002c0 d5 9f a9 3c 5e 54 ba 3d ae bd 81 3b fc 9f e2 bc
       0.020706097 0.09098123 0.003959379 -0.027664177
0002d0 dd 8d 46 bd 13 91 0c bc a8 b2 db bc 56 95 3c bd
       -0.048475135 -0.00857951 -0.026818588 -0.046040855
0002e0 f3 71 88 be ef e0 75 3d 64 43 f3 3d 85 96 2a bd
       -0.26649436 0.060028967 0.11878088 -0.041647453
0002f0 bf ed a1 bd 79 81 2e be f9 09 7b bd 86 68 63 3d
       -0.079066746 -0.17041577 -0.061288808 0.055519603
000300 cc b9 62 3d f3 89 f8 3c f7 7a 0b 3d 9a 64 29 bd
       0.05535297 0.030339217 0.034052815 -0.041355707
000310 f1 a7 e3 3d 9d 8f 49 3c 37 43 45 bd 73 de 9f 3c
       0.11116017 0.0123023065 -0.048159804 0.019515252
000320 dc ff 99 bb 53 6b 1c 3e 26 66 15 be 72 9b 3a bc
       -0.0046996903 0.15275316 -0.14589748 -0.0113896
000330 db f2 8d 3d 17 0a de bd 79 cd 8f bd de 4a 0d 3e
       0.06931087 -0.10841768 -0.07021613 0.13798091
000340 16 7a 51 3c ef e6 a9 bd fd f2 67 3d df ee 6f 3c
       0.012785455 -0.08296 0.056628216 0.014644354
000350 67 4c 10 bb ed 27 6a bd 6f 59 03 3d 01 6c bf bc
       -0.0022018196 -0.057166982 0.032067712 -0.02336693
000360 a8 4c 60 bd 68 10 6a 3d d5 66 cf bc 01 06 16 bd
       -0.054760605 0.057144552 -0.025317589 -0.03662682
000370 b0 bf 4d bd 17 a8 27 3d dd dd e6 3b 5b 7e 2c 3d
       -0.050231636 0.040931787 0.007045491 0.04211269
000380 75 7d 65 3d 03 6e bd 3c 60 6e af bc 24 a4 48 3c
       0.05602785 0.023123747 -0.021414936 0.012246165
000390 ac d2 aa 3d 59 e1 39 bc 02 7c 8b bd e2 28 a6 3d
       0.08340964 -0.011345231 -0.06810762 0.081132665
0003a0 0a f4 53 bd c5 f4 c7 3d 86 54 99 bc 11 bb 84 bd
       -0.051746406 0.09763483 -0.018717062 -0.064809926
0003b0 ef 85 33 bd 4e cf 45 3c 0c 86 66 bd d9 f4 46 bd
       -0.0438289 0.012073351 -0.05628018 -0.04857335
0003c0 74 bc b4 3d 59 99 68 bd 2c 76 fe bb 23 5e 72 3d
       0.08825007 -0.05678687 -0.007765552 0.059171807
0003d0 03 9c f3 bb 93 72 b6 3c 50 09 7b bd 4a eb f0 3d
       -0.0074343695 0.02227143 -0.061288178 0.11763628
0003e0 68 9b e6 bd ab 96 b1 bd 6c f9 71 3d 88 11 7b bc
       -0.1126011 -0.08671316 0.059075758 -0.015324004
0003f0 17 a7 f6 3b a3 cc 98 bd af 1e a7 bc 3b 42 ce bd
       0.007527243 -0.07460906 -0.020400373 -0.10071226

fc1.bias f4 [128]
000000 6e 25 e5 b9 16 77 13 bc 05 46 62 bc 98 66 b9 bb
       -0.0004370617 -0.00900056 -0.013810639 -0.005657982
000010 33 e0 4a 3c b0 77 ee 3c 32 a3 aa 3c f3 a0 32 3d
       0.012382555 0.029109806 0.02082977 0.043610524
000020 a7 d6 23 bd 43 a9 77 3d be 28 5b bc 97 cd 7e 3c
       -0.03999963 0.060464155 -0.013376413 0.015551946
000030 35 ac 25 bb 16 b3 69 3b 58 86 cd bc 01 82 1d 3d
       -0.0025279645 0.0035659722 -0.025088474 0.03845406
000040 41 b4 a8 bc 7d 2f 00 bd b5 26 bc bc 86 82 f8 3b
       -0.020593764 -0.03129529 -0.022967676 0.007583919
000050 1f c5 fc bc 40 e6 b7 3c 7f d6 62 bb bd b8 1b bc
       -0.030855713 0.022448659 -0.0034612713 -0.009504494
000060 f1 39 03 3d a2 10 03 ba ff af 5b bd 2d 7c 04 3d
       0.03203768 -0.0004999732 -0.05363464 0.032344986
000070 77 d9 6a 3d d2 2b 30 bc b7 f0 60 bc 9d 88 18 3d
       0.057336297 -0.010752635 -0.013729266 0.03723966
000080 09 ba 2d bc 19 9a d9 bc 57 f7 38 bd 49 35 d5 bc
       -0.010603436 -0.026562737 -0.045157757 -0.026026385
000090 2c 8a 7b bc f8 7d 2d bd 97 28 47 bd 3f 4e 0c bd
       -0.015352767 -0.04235646 -0.048622694 -0.03425431
0000a0 9b c4 65 bc 73 66 9e 3b 82 12 62 bc 5f 03 25 3d
       -0.014023925 0.0048339902 -0.013798358 0.040286418
0000b0 a9 6e 5a 3d 51 e4 c3 bc a3 13 b7 3a 18 9b 86 3c
       0.05332819 -0.02391258 0.0013967644 0.016431376
0000c0 45 10 26 3d 6c bd ac 39 3c 92 b8 bc cb 22 46 3c
       0.04054286 0.00032947527 -0.022530667 0.012093256
0000d0 25 e0 5d bc f5 2f 5d 3d de 34 2c bd eb c4 82 bd
       -0.01354221 0.054000814 -0.042042606 -0.06385215
0000e0 3a 9f 94 3c 2f a5 39 bc a1 b5 c6 bc 41 0f ac 3c
       0.018142331 -0.011330887 -0.02425653 0.021003367
0000f0 8d 10 2e bd 2b 07 90 bc d3 33 28 3d e5 d9 16 3d
       -0.042496253 -0.017581543 0.04106505 0.036828894
000100 3a 44 28 3d 1a 07 0c 3d fb 5e cb bc ec bd c1 bb
       0.04108069 0.03418646 -0.024825564 -0.005912533
000110 18 97 8c 3c 5f eb b5 bc 9b 6d 14 3d f1 b6 bf bc
       0.01716189 -0.02220696 0.03623734 -0.023402663
000120 67 12 42 3d 53 71 ab bc 6f b0 0f bc 1f 14 7c bd
       0.04738083 -0.02092806 -0.008770092 -0.061542626
000130 1a 1b 6b 3c b1 ae 9a 3c c2 b9 05 3d cf c7 21 3d
       0.014349723 0.018882127 0.032647856 0.039497193
000140 10 e6 18 bc 49 3e 13 3d 4e cf 02 bd 06 f5 3c 3c
       -0.009332195 0.03594807 -0.031935982 0.0115330275
000150 83 4f 0c 3d 20 e1 d6 bc d3 24 4c 3d 5f 6f 36 3d
       0.034255516 -0.026230395 0.049839806 0.044539806
000160 37 a6 3d bd 48 25 5d 3d 55 1d 23 3d 5b 1d 42 3d
       -0.046301093 0.053990632 0.039822895 0.047391277
000170 15 7f b4 3c 14 cd 43 bd 81 da 50 bc 28 21 a6 3c
       0.022033254 -0.047803 -0.012747408 0.020279482
000180 dd 48 ab 3c 6a fb 22 bc 90 0f 23 3d f1 96 3b 3d
       0.020908767 -0.009947637 0.039809763 0.045798246
000190 aa c2 98 bb 06 db 46 bd 55 d8 49 3d 3e 65 ed 3c
       -0.0046618776 -0.04854872 0.049278576 0.02897894
0001a0 7c 78 4f 3d a0 b2 e3 bb 03 23 e5 3c c2 11 45 bd
       0.050652012 -0.006948784 0.027970796 -0.04811264
0001b0 6c 45 27 bd 21 aa b8 bc e3 f6 57 3d 07 c5 1a bd
       -0.04083769 -0.022542061 0.052725684 -0.037785556
0001c0 70 51 25 3d e0 14 99 3b 8e 2d 24 bd 5a c8 29 bc
       0.040360868 0.004671678 -0.040082507 -0.010362709
0001d0 6d 42 19 bd 6b c4 24 bd 70 4d 16 bb 0e 20 46 bd
       -0.037416864 -0.04022638 -0.002293434 -0.048370413
0001e0 77 56 fb 3c b2 de 48 3d eb fb 00 3d be d8 23 bd
       0.030680878 0.049040504 0.031490248 -0.040001623
0001f0 65 bf 2b 3c ea b9 af bc cc 2b de bb 3f 84 6a bd
       0.010482644 -0.021450955 -0.0067801233 -0.057255026

fc2.weight f4 [1, 128]
000000 86 ea aa bc 59 84 89 bc 2b cf 00 bd 7f 10 a9 bc
       -0.020863783 -0.016786741 -0.03144757 -0.020637749
000010 04 a7 0a bc d4 7e 18 bc e5 f0 bc 3c 1f 6c b4 3c
       -0.008462671 -0.009307582 0.023064086 0.022024212
000020 6f 7b 01 bc 59 c3 68 bc 05 6b 83 bc b2 e3 81 3c
       -0.007902964 -0.014206731 -0.016042242 0.015855644
000030 52 a4 92 3c f6 40 dd 3c 13 05 c6 3c ba 82 3e bc
       0.01790062 0.027008515 0.024172341 -0.011627847
000040 03 00 94 3b bb 7d dc bc a9 eb 6f bc 18 5a 40 bc
       0.004516603 -0.026915422 -0.014643588 -0.01174023
000050 ac dd 09 3d 33 97 c6 3c 75 fc 65 bc a6 d6 b4 3c
       0.03365867 0.02424202 -0.014037241 0.022075009
000060 ce c8 af bc 86 f1 17 bd 44 1b 3f bc 3f bb 3b bc
       -0.021458056 -0.03709557 -0.0116642155 -0.011458217
000070 c4 43 ae 3c f2 1b 07 bc 64 1a 96 bc da c0 a2 bc
       0.021272548 -0.008246409 -0.01832313 -0.01986735
000080 f3 a1 7e bc 53 d8 9b 3c 55 c1 a5 3c da c7 27 bc
       -0.015541541 0.01902405 0.02023379 -0.010240519
000090 44 eb 7b 3c 2d 2d f9 bb 88 c2 38 bc 38 d2 58 bc
       0.015375916 -0.0076042623 -0.011276849 -0.013233714
0000a0 6a 2b 6a bc 25 46 c3 bc 3a 97 be 3c de 5e e1 3c
       -0.014292577 -0.023837158 0.02326547 0.027511057
0000b0 94 96 ab 3c 5f 5f 5b bc 03 81 96 3c 06 ed 71 bc
       0.020945825 -0.013389437 0.018372064 -0.014765983
0000c0 a8 aa a3 3c ba f9 3b bc 25 04 e8 3c e4 5e 31 bc
       0.019978836 -0.011473114 0.028322289 -0.010825846
0000d0 a8 1f 78 3c 42 43 9b 3c 56 e7 d1 bc d1 60 c1 3b
       0.015144266 0.01895297 -0.025623005 0.005901434
0000e0 6f 29 a9 3c 54 ac a8 3c b5 13 b8 3c 8b c0 b4 3c
       0.02064964 0.020589985 0.022470335 0.022064468
0000f0 2d d4 95 3c d4 e9 01 bc 67 d5 d2 bc b7 70 65 3c
       0.01828965 -0.007929284 -0.025736524 0.014003924
000100 e1 b5 d1 3c a7 69 45 bc 2c da 9e bc 1b 3e 93 bc
       0.025599422 -0.012049115 -0.019391142 -0.01797395
000110 4e 26 11 3d 9c 9f dc 3c a0 1f 5a bc c2 e5 06 3d
       0.03543692 0.026931576 -0.013313204 0.032933958
000120 b4 61 9d bc fb 43 55 bc 46 f3 ac 3c 85 db e7 bc
       -0.019211628 -0.013016696 0.021112096 -0.028302917
000130 6c 07 d6 bc 23 09 d5 3c 49 87 d9 3c 64 cd d6 bc
       -0.026126586 0.026005333 0.026553767 -0.026220985
000140 57 31 8f 3c a4 0b 9e 3c 4e d9 e4 3c de 56 34 bc
       0.017479582 0.01929266 0.02793565 -0.011007039
000150 fc ac ba 3c 3c 96 c5 3c d1 a4 db 3c 11 3d cc 3c
       0.022787564 0.024119489 0.026811989 0.024931462
000160 3a 38 bc bc 84 b4 92 bc 8b df 71 3c d2 85 88 3c
       -0.02297603 -0.017908342 0.014762769 0.016665373
000170 0e e2 96 3c a0 ba 05 3d 85 40 84 bc ab 86 02 bc
       0.018418338 0.032648683 -0.016144047 -0.007966678
000180 36 d7 99 3c cc 98 4a bc e6 b2 fc 3c 4c e2 24 bd
       0.018779378 -0.012365531 0.030847024 -0.040254876
000190 f7 f1 cb 3c a8 f4 eb bc a8 33 81 3c 0a bd 65 bc
       0.024895651 -0.028803185 0.015771702 -0.014022121
0001a0 25 c6 9a bb 46 26 cf 3c aa ec 8c 3c 10 3a 6c bc
       -0.0047233277 0.025286805 0.017202694 -0.01441814
0001b0 93 8d cd bc 80 c7 8b 3c ca 74 b5 3c 21 cb 78 3c
       -0.025091922 0.017062902 0.022150416 0.015185148
0001c0 21 ee 82 3c 81 c2 04 3d 9d 25 1c bc 1e 59 99 3c
       0.01598269 0.032412056 -0.009530452 0.018719252
0001d0 17 0a f3 3c c9 68 4f bc 64 d1 11 bd c9 85 38 bc
       0.029667897 -0.01265926 -0.03560008 -0.011262366
0001e0 33 65 bb bc 84 00 a9 3c 29 b5 39 bd 09 b4 ad 3c
       -0.022875404 0.020630129 -0.045338783 0.021204012
0001f0 5b 35 43 bc 8a b0 c5 bc 1e 3d ab 3c 7d 42 47 bc
       -0.011914576 -0.024132032 0.020903166 -0.012161848
