TiAlloy_C4/model/vh_model.pth (torch, 193910 bytes, 15 tensors)

conv1.weight f4 [31, 1, 1, 31]
00000000: c540 183f 4b99 23be 20b7 9abd 5938 7cbd
00000010: 0fc8 113d 1514 f93d 59a5 1abd 7402 2fbd
00000020: 3532 11be e9c3 e7bc 48f3 573e 1984 5d3d
00000030: e1c1 023c 7a12 32bc 7c05 ee3d 09bf 0f3e
00000040: bd93 38bc 8380 f1bd 9e81 aebd 43eb b7bd
00000050: c618 1cbe dc94 133d 2f4b 983d 8197 debd
00000060: f604 e93d 90de e8bd 7fc2 0e3e 1eef 4d3d
00000070: d52d 90bc 4531 a93c 8f7b d33b 8951 403e
00000080: 2a47 b33d 1502 2c3e 8f99 a53d 374a 2e3e
00000090: b309 e53d e316 d2bd 9f40 6cbe 7588 213d
000000a0: eb52 a0bd fa85 8b3d ecaf 053e 2237 4ebd
000000b0: 116d e33d d65a 77bd 2f63 07be 8e01 98bd
000000c0: a4c5 2f3e 0b1e a3bc db10 113e 5762 533e
000000d0: ae0a 923d 8e1b 9e3d c038 ff3d 34d4 063e
000000e0: 1d8d ecbb 160f dbbc 16bf babd 79c6 b0bd
000000f0: ecee 293e 53e4 0bbe 347e e2be 1e1f 10be
00000100: d4cb 45be 62e1 c33d db65 193e f5d8 a23d
00000110: b617 e0bd 51e5 09be d4ad 3bbd 0893 76bc
00000120: 15de 17be 4192 803b 87fa 19be 0862 213e
00000130: f8d4 a7bd baab 80bd 04fe 263e 801b 1fbe
00000140: cdb8 0e3e 7cc5 85bd 5563 1a3e 240b 163e
00000150: e1a8 dd3d 8caa 1d3d fc31 e33d 4d58 b43d
00000160: 3961 26bd 9a2f ea3c b8b1 ab3d a7f9 f6bd
00000170: b5b8 59bd 5de3 073c 20ed 69be 899e 5cbe
00000180: a796 43be 6ff5 00be 6436 053e 87d4 08be
00000190: 526c 903d 051a d0bc b5a9 93bd 5df0 6dbd
000001a0: 7269 ec3b 41df 4c3b 956c 88bc 38e8 c0bd
000001b0: 9ffe 8cbe dba2 4e3e 53d7 17bd 4bb6 dc3d
000001c0: ff71 f13c 28fa 9abe 0f32 45bd de82 023d
000001d0: e04e adbd 26cb ed3c 712e 133e 3f58 153e
000001e0: 2b8d dd3c 839a 883d cb52 51be 4846 df3c
000001f0: 9c5f c2bd 568e 333e 33cd 123e e143 15be
00000200: 1073 d73d 568e da3d bc35 e0bd 193c 4dbe
00000210: 8e87 0e3c c6b5 5a3e b6f2 7bbe 621a d2bc
00000220: 22b6 1dbe 37d7 7dbe d09e 533d 06cd 55be
00000230: c42c fbbd d023 d63d b73c 9cbe 5644 a1bd
00000240: 0903 71bd 3f86 2dbe 75a6 9abd ba87 91bd
00000250: 1c28 45bd e550 2d3d e82f c9bd 4dc4 c93d
00000260: 53b0 fc3d 8c9e 93bd f9af 00bd 58c5 3a3e
00000270: ebcb c03d caf3 a33d 4b44 a7bc 79cf 443e
00000280: 7c67 fc3d d978 0c3e 8d5c 233d ef86 343e
00000290: 7f77 9f3c f231 5fbc d8bc 29be 6418 13bd
000002a0: 65e9 0bbe a148 233e a716 0a3e 5e20 29be
000002b0: 9cc5 033d bc03 863d 4a10 3b3d 75ee 5b3e
000002c0: 0e8f 83bd ff84 4f3e 59a8 aabc 5189 803d
000002d0: 4f1f 933d 0edd 403d 0b72 eb3d b2aa 123e
000002e0: 241a 363d d34a 3e3e 641a edbe e058 693c
000002f0: 974b a33d 43e2 d5bc 1c6c 453d 981e 09be
00000300: cf29 913d 01a6 723d dae3 c1bd 92b8 983d
00000310: af2e 6dbd fab8 823d 227b 853c 5c29 2ebd
00000320: f659 953d 7f7a 053e 392a 19bd 1801 fcbd
00000330: 208e 2a3b 0459 663e 3a05 13be 7419 e83d
00000340: 417a 34ba 0b7e 803d 38ae b03d ab97 13bd
00000350: 041b 0cbe 10e8 8c3c f2cb 91ba a2bf b6bd
00000360: a66c 293d 7f5c 12bf 6dbf 033e 191e 0d3e
00000370: 6b9e de3a e43a edba 989b 03be 3447 0dbe
00000380: bb70 20bd d37f 23bd f277 18be 49ad 513d
00000390: 245b 473b d0cc acbd 202f 2bbd eb8d 6dbd
000003a0: 8041 ef3d 052b 23be a8d0 20bc f17a 20be
000003b0: 060a ff3c ffa4 97bd 07fa 9a3d 1fca 20be
000003c0: 8b30 b03d be48 5a3b 00d9 de3d 4fbc 47be
000003d0: 7a2f 0fbe cba7 be3d a741 213e 8ece 7c3d
000003e0: 0d69 dcbe 133a 943d 7ff8 193e 7d1e 68be
000003f0: 7ad5 ddbd 7b40 fcbd bc9b ffbd 977c a2bd
0.5947383 -0.15976445 -0.075544596 -0.061577175 0.03559118 0.121620335 -0.037755344 -0.04272695
-0.14179309 -0.02829166 0.21088898 0.054081056 0.007980795 -0.010868663 0.1162214 0.14037718
-0.011265692 -0.1179209 -0.08520816 -0.089804195 -0.15243825 0.036030635 0.07436215 -0.10868741
0.11377899 -0.113705754 0.13941382 0.050276868 -0.01759998 0.020653376 0.0064539383 0.18781103
0.08753808 0.16797669 0.080859296 0.17020498 0.111834906 -0.102582715 -0.23071526 0.039436776
-0.07828315 0.068126634 0.1305539 -0.050345547 0.11104787 -0.060389362 -0.1322143 -0.074221715
0.17165238 -0.019911787 0.14166586 0.20642982 0.07130943 0.077200994 0.12461996 0.13166887
-0.0072189705 -0.026740592 -0.09118478 -0.08631606 0.16595048 -0.13661318 -0.4423691 -0.1407437
-0.19316036 0.09564473 0.14980261 0.079515375 -0.109420225 -0.13466384 -0.045820072 -0.015049703
-0.14830811 0.003923685 -0.15036975 0.15760052 -0.081949174 -0.06282754 0.16307837 -0.15537834
0.13937683 -0.06531808 0.15076955 0.14652687 0.10823227 0.038492724 0.11093518 0.088059045
-0.040620063 0.028587151 0.083835065 -0.12059336 -0.053154666 0.008293954 -0.22844362 -0.21544851
-0.19100438 -0.12593625 0.1300903 -0.13362323 0.070519105 -0.025403032 -0.072101034 -0.058090556
0.0072147185 0.0031261 -0.016653338 -0.09419292 -0.2753801 0.20179312 -0.037070584 0.10776957
0.029473303 -0.3026898 -0.048143443 0.031863086 -0.0846231 0.029027533 0.14373185 0.14584444
0.027044853 0.06670096 -0.2044174 0.027255192 -0.09490892 0.17534766 0.1433609 -0.14576675
0.10519993 0.1067168 -0.10947749 -0.20042457 0.008699311 0.21358404 -0.24604306 -0.025647346
-0.1540151 -0.24789129 0.051665127 -0.20878991 -0.12264398 0.104560494 -0.30515072 -0.07874362
-0.058840785 -0.16945742 -0.075512804 -0.07105966 -0.048133954 0.042313475 -0.098235905 0.098518945
0.12338319 -0.07207975 -0.03141782 0.18239343 0.09413894 0.080054834 -0.020418307 0.1921977
0.123244256 0.13717975 0.039883185 0.17629598 0.01946616 -0.013622748 -0.16575944 -0.035911933
-0.13663252 0.15945674 0.13485204 -0.16516253 0.032170877 0.06543681 0.04566983 0.21477683
-0.0642377 0.20265578 -0.020832228 0.06276191 0.07183706 0.047085814 0.11496361 0.14322928
0.044458523 0.1858323 -0.46309197 0.014242381 0.07973402 -0.026108867 0.048198804 -0.13390577
0.070880525 0.059240345 -0.09467287 0.07457079 -0.05790585 0.06382938 0.016294066 -0.042519912
0.07292549 0.1303501 -0.037393782 -0.12304896 0.0026024655 0.22494894 -0.14357463 0.1133298
-0.00068846723 0.06274041 0.086269796 -0.036033314 -0.1368218 0.0172005 -0.0011123403 -0.0892327
0.04136338 -0.5717239 0.12865992 0.13781013 0.0016984468 -0.0018099216 -0.12852323 -0.13796693
-0.03917001 -0.039916825 -0.14889506 0.05119065 0.0030419314 -0.084375024 -0.04179299 -0.05799667
0.11682415 -0.1593438 -0.0098153725 -0.15671898 0.03113271 -0.074045174 0.0756722 -0.15702103
0.08603009 0.0033307518 0.10881233 -0.19505428 -0.13982955 0.09309348 0.157477 0.061720423
-0.43048897 0.07237639 0.150362 -0.2266788 -0.10831733 -0.12316986 -0.12480876 -0.0793392

conv1.bias f4 [31]
00000000: 500f 063d 4fe9 353e 8f87 12be 2250 37be
00000010: 6e52 8c3c 7db0 1a3e 888f e9bd b40f 2b3d
00000020: a25c c93d 467a e93d 99c4 883d 5dfb 2f3e
00000030: fc29 163e 37df 00be 2e86 e6bc b835 903d
00000040: 17a9 f93d 8cc8 04be 3fd1 df3d 16a4 18bd
00000050: 7f30 81be ff27 0b3d d390 17be 2087 153c
00000060: a5b7 fdbd 603c 20be d87f e6bc ddf2 b3bd
00000070: 0308 0d3e 5e8d f239 236f 243e
0.032729447 0.17764781 -0.14309524 -0.17901662 0.01712915 0.15106387 -0.114043295 0.041763023
0.098321214 0.11400275 0.06678123 0.17185731 0.14664453 -0.1258515 -0.028140154 0.07041496
0.121904545 -0.12967128 0.109285824 -0.03726586 -0.25232312 0.03397369 -0.1480134 0.009126455
-0.12388543 -0.15648031 -0.028137133 -0.08786557 0.13772587 0.00046263164 0.1605802

bn1.weight f4 [31]
00000000: 5303 b63f be81 663f f161 943f e448 473f
00000010: fac5 613f fe74 673f bbda 893f 6108 823f
00000020: 35c3 6e3f 0690 943f f5bd 5f3f e5c0 503f
00000030: 610c 803f dde0 473f 47f4 893f d03a 533f
00000040: 31a8 743f 3992 853f fca6 5e3f 0a2d 563f
00000050: 1638 7b3f dd99 8b3f ddbe 9c3f 14ea 633f
00000060: ef82 803f 9976 543f d33e 653f 9020 533f
00000070: 87a9 953f 3030 783f b20c 493f
1.4219764 0.9004172 1.1592389 0.778456 0.88192713 0.9041289 1.0769876 1.0158807
0.9326661 1.1606452 0.87399226 0.81544334 1.0003778 0.7807749 1.0777673 0.82511616
0.9556914 1.0435249 0.8697355 0.83662474 0.98132455 1.090633 1.2245747 0.8902905
1.0039958 0.82993466 0.8954899 0.8247156 1.1692361 0.9694853 0.78534997

bn1.bias f4 [31]
00000000: 8a45 693d 4214 bfbd 5bb0 883d c816 4dbe
00000010: 5c51 9cbc b1d9 43bd 7145 59bd 60f4 29bd
00000020: b162 8dbd 628a 12bd 7031 30bd d98a 05be
00000030: ef54 0fbd 0b9a c6bd f13e 75bc 547b e6bd
00000040: 0427 48bd f0b1 24bd f89d dfbd ef02 babd
00000050: e7b2 98bd 4d7b e73d eac0 b83b 0e7a 0cbd
00000060: 4084 f33c 5849 043d d125 e2bd f0ab c6bd
00000070: cc56 1a3d 8040 39bd 5808 24be
0.056951083 -0.09330036 0.06674262 -0.20028222 -0.019081764 -0.04781503 -0.05304474 -0.04149282
-0.069035895 -0.035776503 -0.043015897 -0.13041247 -0.03499311 -0.0969735 -0.01496862 -0.11253992
-0.048865333 -0.040208757 -0.10918802 -0.09082591 -0.07455998 0.11302815 0.0056382315 -0.034296088
0.029726148 0.03229651 -0.11042369 -0.09700763 0.037680432 -0.045227528 -0.16018808

bn1.running_mean f4 [31]
00000000: ec53 003d 7c10 363e 4728 11be e05b 37be
00000010: 902b 8e3c c374 1a3e d366 e8bd 7b92 2e3d
00000020: 8823 cb3d 6d05 e73d 3d4b 8a3d bf5a 303e
00000030: b5d2 173e a3cc 00be 458a e1bc 46d7 8f3d
00000040: d596 f83d 7248 04be ac3d df3d 58a8 19bd
00000050: c20d 82be 7645 103d 4739 18be 34cc 113c
00000060: 75d6 fcbd a84e 20be 4dd2 e1bc 866e b4bd
00000070: b717 0e3e b6cc 2ab9 b031 253e
0.031330034 0.17779726 -0.14175521 -0.17906141 0.017354757 0.15083604 -0.11347737 0.042620163
0.099188864 0.11280332 0.06752632 0.17222117 0.14826472 -0.12578063 -0.027531752 0.07023482
0.12138144 -0.1291826 0.10900435 -0.03751406 -0.2540112 0.035222493 -0.148656 0.0088987835
-0.12345592 -0.15655005 -0.0275661 -0.08810143 0.13876234 -0.00016288724 0.16132236

bn1.running_var f4 [31]
00000000: 3496 dc3e fbb8 2f3f c41f 963e 50ec 743f
00000010: 3465 793f a83c 0240 f841 883e 3bca 0d3f
00000020: de44 df3e 7887 953e b23d 0f3f 3993 2240
00000030: 7a9e c63e d999 c83f 5173 023f 7a1c 943f
00000040: 139f 3a3f 24cc 773e 0424 853f 2d5f 283f
00000050: 7c33 d53e 2729 653e 5160 bf3e 1e34 543f
00000060: b5ed 063f 30b6 6f3f dbfc 3c3f 406b a03f
00000070: 7afa ba3e 3b53 213f e636 a83f
0.43083346 0.6864163 0.2932111 0.95673084 0.9742005 2.0349522 0.2661283 0.55386704
0.4360723 0.29204917 0.55953515 2.5402358 0.38792783 1.567195 0.5095721 1.157119
0.7289898 0.24198967 1.0401616 0.65770227 0.41640842 0.2237898 0.3737817 0.82892025
0.5270646 0.9363737 0.73823327 1.253273 0.36519223 0.63017625 1.3141754

conv2.weight f4 [31, 1, 1, 31]
00000000: b099 3ebd 03e8 00be fc57 443d f2a7 773d
00000010: b6ee 0c3e 0325 693e 8aed 343e fb58 453c
00000020: f078 b6bd 69e3 cb3d 1fb6 193d d922 5ebe
00000030: 86b0 0e3e cd34 0ebc f67f 2cbe b43d f03d
00000040: 9cee 193e f4a8 243e 88f1 63bd 6b60 073d
00000050: 5fde de3c 727f 0c3e 0183 203c 9edc 053d
00000060: a4eb 10bd 7b28 2f3c 263d 103e 6975 933d
00000070: 1654 4abe 8444 ac3d 2932 fd3c 94f2 d83d
00000080: c7d5 26be 8764 18be 6730 c83d a1b3 1c3d
00000090: 96a7 bf3d 3ad5 453e 272f 26bd 1250 ff3c
000000a0: 6cff 9abe 4bea bd3c 00fa a13d 3005 39be
000000b0: e925 c43c 81e3 183d fa51 aabd 6955 1fbe
000000c0: 876f 49be 6654 183d d590 143b 8dfe 71bc
000000d0: 50bb d0bb 0279 3f3e 0475 f0bd 6d62 47be
000000e0: bbea de3c 22c0 123e 8277 013e c0e3 d83c
000000f0: 812c db3c 5297 373b fe01 6cbe 420b 403b
00000100: ff19 5bbe 008f 553e f534 fabd 8c63 af3d
00000110: 31a6 b53c 9b3f 823e c496 cabc e0ef cdbd
00000120: 4447 05be 2e04 163e 58fd 853c 61d6 3bbd
00000130: 89eb 0a3d 49a2 7cbc 9b0d 83bd d66b c43d
00000140: 0f04 04be 9daa 553e 47f6 15bd 9b93 b23d
00000150: 4814 6dbe c823 833c 5c98 153e 0b2f e43b
00000160: 77ca 9bbd 892b a53d a909 eebd 677b e93d
00000170: 683e 83bd 0384 513c 50ce 3ebe 7867 e2bc
00000180: cae6 84bd aee7 df3d ca4f e33d e6ae 87bd
00000190: b15f 87bd 015d 2ebe 0bbb 08be 4236 c93c
000001a0: 74a1 073e 4b82 7abe 1652 463e a989 86bd
000001b0: 8321 40be d27f 953d d00c 563e 185e ecbd
000001c0: 83c2 6a3d fff8 a8bc 29cf 23bc 7dc0 0b3e
000001d0: f1d8 523c 15e2 793e f2a5 363e cca3 6a3c
000001e0: 6c75 37be b632 43be bb9c a43d 00da 6fbe
000001f0: 14ff 3b3e bbb5 343e 38fa ba3c 905e f93d
00000200: e118 b4bd 920f bcbd 45e7 973d fdec e4bb
00000210: ca21 a23d bab8 8ebe ef65 653d 7d98 853c
00000220: ffbb 863d 7018 dcbd 7cd6 2c3c e811 7d3d
00000230: c0bf e6bc 692e 05be d5c1 cb3d 4823 52bd
00000240: 5952 383e ab58 e5bd 9fea 12be 614a 6d3e
00000250: b789 d6bc 8b26 013e b17b f5bc 24a0 e93d
00000260: 0585 6d3e c16d bbbd e702 943c 6603 b23d
00000270: 420a 81be 6044 c6bb 4a88 db3d 74b9 de3d
00000280: 7728 eebd 86ae 183e f1d3 6cbe c70b 82bc
00000290: a1fd 9c3d b856 043e a5d0 f9bd 4d7c 353e
000002a0: eaf2 3e3d 8086 a6bc b5bb fd3d 8460 2d3e
000002b0: cc24 90bd aca8 833d 6e84 cb3d 74b0 dfbd
000002c0: c7c3 d63d 622b 88bd 8467 583d c12f 743e
000002d0: 473c 29be 7ab7 633e 555b d1bd 8dfe 1fbd
000002e0: 9fe0 15bc a22d 04b9 4b04 07be d693 1abe
000002f0: 9f87 26be 3105 423e a4d8 2c3e b044 4f3d
00000300: 8076 32bd 7d8d 0ebe 202b b93d 8aef 9bbd
00000310: e11d f2bd 3078 bb3c 37c8 4d3e 9d48 043e
00000320: 5986 e73d a716 84be 4eea 42be 0471 b5bc
00000330: ee26 003d b64c 7fbd 736b 0abe b9c0 2dbe
00000340: eb0e 55be f1cb 3e3d 1653 b83d 6377 8a3d
00000350: 93aa c73c 027b 32be 741a 5e3d 8294 733c
00000360: dd0a bc3d 49e6 823d 3cfc 15be 122f ad3d
00000370: 6b54 c53d 06af 28bd ae25 cdbd cdfa 45be
00000380: 4061 293e 0093 573d 6bd4 8ebc 9ce6 be3d
00000390: 4c92 43bd 0d5d 56be 0095 553d 4f03 25be
000003a0: 805b a03d 46fc 6d3e 03b0 5d3d e7c0 b5bb
000003b0: 6777 36be 6787 3fbd 7625 473e 8512 19be
000003c0: 4b73 f4bd b13c 1fbe ca4e 373e 3781 85bd
000003d0: 4f79 0a3d 668f bdbd 5a90 e6bd 3154 d4bd
000003e0: a7e3 3e3e 689c 31bd 47cf 973d 290a 1abe
000003f0: 7753 e9bd c2b7 01be e142 17be cad7 a3be
-0.046533287 -0.12588505 0.04793547 0.0604629 0.13762936 0.22768025 0.17668739 0.01204514
-0.08909786 0.099554844 0.0375272 -0.21692981 0.13934526 -0.008679581 -0.16845688 0.11730519
0.15032429 0.16080076 -0.055650264 0.033050936 0.027205644 0.13720492 0.009796859 0.0326811
-0.035380974 0.010690804 0.14085826 0.072001286 -0.19758639 0.08411506 0.030907707 0.10593143
-0.16292487 -0.14882098 0.09774857 0.038257245 0.09358136 0.1931962 -0.04057231 0.03116611
-0.30272996 0.023183009 0.07909012 -0.18068385 0.023943858 0.03732634 -0.08316417 -0.15559925
-0.1967145 0.037189864 0.0022669334 -0.014770162 -0.0063699856 0.18698505 -0.11741069 -0.1947114
0.027211538 0.14331105 0.12643245 0.026475787 0.02675462 0.0028013778 -0.23047635 0.0029303585
-0.21396635 0.20855331 -0.12217132 0.08563909 0.022173973 0.25439152 -0.024730094 -0.10055518
-0.13015467 0.14650032 0.016356155 -0.045858745 0.03391603 -0.015419551 -0.063990794 0.095908806
-0.12892173 0.20865865 -0.03661182 0.0871956 -0.23152268 0.016008273 0.14608902 0.006963616
-0.076069765 0.08064944 -0.11622936 0.1140049 -0.064083874 0.012787822 -0.1863339 -0.027637228
-0.06489332 0.10932861 0.11099203 -0.06625156 -0.066100486 -0.17027666 -0.13352601 0.024562005
0.13245183 -0.24463765 0.19367251 -0.06569225 -0.18762784 0.072997704 0.20903325 -0.115413845
0.057314407 -0.020626543 -0.009998121 0.13647647 0.012869106 0.2440265 0.1783674 0.014321279
-0.17915887 -0.19062313 0.080377065 -0.23423004 0.18359023 0.1764745 0.022824392 0.121762395
-0.08793808 -0.09182657 0.07417158 -0.006986259 0.07916601 -0.2787531 0.056005415 0.016308064
0.06578826 -0.107468486 0.010549184 0.061784655 -0.028167605 -0.13005985 0.0994908 -0.051303178
0.18000163 -0.11198553 -0.14347313 0.23172905 -0.026188714 0.12612359 -0.029966207 0.114074975
0.23195274 -0.09151793 0.01806779 0.086920545 -0.2520314 -0.0060506314 0.107193545 0.10875216
-0.11628812 0.14910325 -0.23127724 -0.015874757 0.076655634 0.12923706 -0.12197999 0.17723198
0.04661838 -0.020327806 0.12389318 0.16931349 -0.070382684 0.06428656 0.09937368 -0.10922328
0.1048656 -0.066488996 0.052833095 0.23846342 -0.165269 0.2223796 -0.10222498 -0.039061118
-0.009147792 -0.000126055 -0.13185231 -0.15095457 -0.16262673 0.18947293 0.16879517 0.050602615
-0.04357004 -0.13921161 0.090414286 -0.07614048 -0.11822105 0.022884458 0.20095907 0.12918325
0.11304922 -0.25798532 -0.19034693 -0.022148617 0.031287126 -0.062329017 -0.13517551 -0.16968049
-0.20806472 0.046581212 0.090002224 0.067610525 0.024373328 -0.17429736 0.054224446 0.01486695
0.091817595 0.0639158 -0.14647001 0.084562436 0.09635242 -0.04118254 -0.100169525 -0.19333954
0.16541004 0.052630424 -0.017435273 0.09321329 -0.04774694 -0.20933934 0.05214405 -0.16114543
0.07829952 0.23240766 0.054122936 -0.0055466774 -0.17818986 -0.04675999 0.19447884 -0.14948471
-0.11936053 -0.15550496 0.1790115 -0.065187864 0.033807095 -0.09255867 -0.112580016 -0.10367621
0.1864153 -0.04336205 0.07412582 -0.15042938 -0.11392873 -0.12667754 -0.14771606 -0.3200057

conv2.bias f4 [31]
00000000: 18d1 2bbd d916 cabd cb69 08be e652 fa3d
00000010: 09b4 27bc 7ed7 53bd 8980 b93d 1448 293e
00000020: 550a 08bd 1f1e f7bd c6f7 083e f32c 2bbd
00000030: a91c d6bd 4edd c0bd 3ede c5bd e34e 1ebe
00000040: 1cac 00be 5f1c d9bd 40da c7bd f861 ba3d
00000050: 3ae4 e9bd e8cc 0cbc 6bb0 61bc 3b53 a23d
00000060: 41bd 203e 4091 d4bc 3688 b9bd 524f a1bd
00000070: 3b16 abbd 39c6 833d 1eba cf3d
-0.041947454 -0.09867639 -0.13321607 0.12222843 -0.010235795 -0.05171918 0.09057719 0.16531402
-0.03321298 -0.12066292 0.13375768 -0.041790914 -0.10454685 -0.094172105 -0.0966153 -0.1545978
-0.12565655 -0.106011145 -0.09758425 0.09100717 -0.11420484 -0.008593775 -0.0137749715 0.07926031
0.15697195 -0.025948167 -0.09059183 -0.07876457 -0.083538495 0.06434292 0.10142921

bn2.weight f4 [31]
00000000: 8629 5f3f b9f5 8e3f 9f76 aa3f 8300 903f
00000010: f7a2 813f b123 8f3f f5e7 8c3f ae78 893f
00000020: 0b4d ad3f 8a7f 603f 4aad 4c3f 51ca 873f
00000030: 3f18 873f 7956 743f 33e3 583f 4620 833f
00000040: aac5 363f 0f0b af3f 35ce 903f 23cf 603f
00000050: 812b ac3f 012f 7c3f a7bf 923f 4263 a03f
00000060: 1f34 883f e0e8 803f 4410 6c3f c952 833f
00000070: 37b5 8b3f 2efb 4c3f 00a6 a33f
0.87172735 1.1168739 1.331745 1.1250156 1.0127858 1.1182767 1.1008288 1.0739954
1.3539137 0.8769461 0.7995192 1.0608617 1.0554274 0.95444447 0.8472168 1.0244224
0.7139536 1.367525 1.1312929 0.87816066 1.3450776 0.9850922 1.1464738 1.2530291
1.0640906 1.0071068 0.9221232 1.0259639 1.0914677 0.8007077 1.2785034

bn2.bias f4 [31]
00000000: 17cb d6bd 08b3 a03d 11c7 f7bc 511b a63d
00000010: d0f8 8fbd e27b 663d e4a6 ed3d c03a 72bc
00000020: bc28 bdbd afb7 64be 9f15 0dbf 57c6 8f3d
00000030: b3e8 cdbd 2c79 e2bd f9bc 96be bb3b e2bd
00000040: d7d5 e5be 9216 3bbe 9d5a 04bd 4928 5cbe
00000050: 93e6 2abe 5da8 eebd 99eb 8bbd 4f4b a23b
00000060: 9497 dc3c 2ec8 8a3d 32f1 cabe 4bda 97bc
00000070: eb8d 85bd 1c35 adbe 900a 543e
-0.10487955 0.078466475 -0.03024629 0.08110679 -0.07029879 0.056270488 0.116040975 -0.014784515
-0.09236285 -0.22335695 -0.55111116 0.07020252 -0.100541495 -0.11058268 -0.2944105 -0.11046549
-0.4488971 -0.18270329 -0.032312978 -0.21499743 -0.1668952 -0.116532065 -0.06832046 0.004952825
0.026927747 0.067764625 -0.39637142 -0.018536707 -0.06521209 -0.33829582 0.20707154

bn2.running_mean f4 [31]
00000000: b683 313e 987a 50be ed66 3d3c 1712 84bd
00000010: 82fd 713e 7117 bb3d f127 033d 599f a6bd
00000020: 88ef 5fbe a3e6 4a3e 3141 623d 1618 843e
00000030: 9225 833d 69a9 a8be 89e8 0fbd 4aeb b1be
00000040: 7f7f 16bd 2a59 5ebe 0888 8abe c389 82be
00000050: 0f32 bdbe 28ae 43be 66a7 74be 047a 18be
00000060: 23b6 a63c 3ddc f1bd 3e06 303e 07af cbbe
00000070: d780 c3be 4113 9f3e 5486 0d3e
0.173354 -0.20359266 0.011560184 -0.06448763 0.23631862 0.091353305 0.032020513 -0.08135862
-0.21868718 0.19814543 0.055237953 0.25799626 0.0640365 -0.3294175 -0.035133872 -0.34749824
-0.036742684 -0.21713701 -0.2705691 -0.2549573 -0.36952254 -0.19109404 -0.23891982 -0.14890295
0.020350521 -0.11809585 0.17189881 -0.39781973 -0.38184234 0.31069377 0.13820773

bn2.running_var f4 [31]
00000000: 633f 503e 8bbf b53d d387 ae3d 4d47 1a3e
00000010: 7903 053e f634 203e a717 373e 1986 4f3e
00000020: dedb 9c3d 70ef c93d 3e0f 9c3d 30ad 1e3e
00000030: 22b1 723d 39f3 023e b2aa b93d 305e 5d3e
00000040: 1a89 003e 74fd b13d 9d53 ce3d 7b79 0c3e
00000050: ccea b43d 96d5 023e 0332 da3d aca1 e13d
00000060: f756 073e 2183 013e fe9d f43d cc46 313e
00000070: 2a48 fe3d 20a2 c33d 548c 603e
0.2033668 0.088744245 0.08522 0.15066262 0.12989606 0.15645203 0.17880116 0.20265998
0.07659124 0.09860122 0.07620095 0.15495753 0.05925096 0.12788095 0.09065761 0.21617961
0.125523 0.086909205 0.10074542 0.13718216 0.088338464 0.12776789 0.1065407 0.110171646
0.13216768 0.12647678 0.11944197 0.17312163 0.12416108 0.09552407 0.21928531

fc1.weight f4 [128, 349]
00000000: f405 d9bd e03e b23d a6df a03c 49bd d83d
00000010: 37ba 72bd 2a2a 053d 2075 88bd 4110 3d3b
00000020: 3769 bbbc 5a7d 8ebb dac2 793d 1a06 b83d
00000030: 87b3 5b3d 9313 2abc 2ddf b0bb 97b3 c8bc
00000040: dea7 b7bd b423 bd3d 7f68 f93d 16b6 923a
00000050: 1ab9 c23d 237d d2bd 6a27 c3bb 0299 4dbd
00000060: 46d8 22bd 4be7 7bbc 3ecd 95bc c1ab c23d
00000070: e4d2 03bc 2a9b 29be f52f 093e 24eb 953d
00000080: d660 acbc 11cd 303c 79e8 db3b 78a7 033d
00000090: e003 9a3d 2365 91bc 9428 b13d 9d43 b2bd
000000a0: 9533 db3d eeec b03d c44c eabc ddf6 ddbc
000000b0: 5dca 6f3c c669 9b3c 1e8a 03bd 3b0a acbc
000000c0: d830 dc3d e70b 64be 4c4e 423d 22a8 d63d
000000d0: 7c17 81bc 3cec 603c 639d df3d 55ac 723c
000000e0: 42bc 4d3c b7ff 013e c15e 813d 5fea 8fbd
000000f0: 6439 d9bc 377e 213d 0458 0abd 5469 3bbd
00000100: 66c2 e8bd 183e ea3d 7a5a 37be 30b7 8bbd
00000110: 2393 4dbd 4b5a 9e3d c432 063e 17c7 083e
00000120: 9495 8e3d 20f4 9dbd f6be 4e3d b9de 313d
00000130: 31f4 7fbd 88ad 443d ec99 c03c 2a2e 793d
00000140: 1960 903d bf8e 3ebd 6034 3b3d 2f93 273c
00000150: 0479 0fbd e133 023e 70f0 efbc 407b abbd
00000160: 9d35 79bd b1ab bf3c c2c3 babd 02a0 8fbc
00000170: 0662 71bb 5e09 023e ef96 a8bb 3043 f63d
00000180: 18c4 03be b927 ba3c 373c f53d 3eb9 b4bd
00000190: 1d86 6e3d d531 5c3d c442 04bc 88b4 cd3b
000001a0: 5d37 99ba 9c59 4f3d 52da c03d a456 d3bc
000001b0: 7cc9 8cbc cde8 4ebd c25b 893d 4745 963b
000001c0: c45c 6bbd 806c c6bc 0faf dcbd a99d e6bd
000001d0: 411c 143d c6ea 5dbd 2b20 923d 99dc 86bc
000001e0: 89e7 213d 135d a2bd 7e94 71bb bd58 93bd
000001f0: 822e f9bd ccaa 8fbd 05d1 babb 601e 33bd
00000200: 2540 d1bd 0962 11bd 23b0 423e 7efa 93bd
00000210: cf99 dd3d f207 583d f4aa 08be d9fa c83d
00000220: dedf aa3d 7b41 113e eece 90bd 1642 dc3d
00000230: 0901 563d 6e3e 41be a8ac 053d 3f7b 57bd
00000240: 9e61 89bd 1393 c4bd 1ebf 86bc 326f 543e
00000250: 5773 db3c 413a 243d 157f 6bbe 92c9 d8bb
00000260: 6218 143c 69fa 773d d206 9fbd 9d3b 3fbc
00000270: 14a5 98bd a125 793d b03b 3b3d 4a24 adbc
00000280: 5962 923d b0ae b2bd c7c8 0dbd 632e 3b3d
00000290: 331e a4bd da0f f5bb 9da3 af3d d663 b8bd
000002a0: 7f0f 89bd 3174 d0bc d598 253d 1b72 8dbc
000002b0: 4cac ee3c df7b 2b3d a74f 74bc fed4 bfbd
000002c0: b179 d8bd eb08 dfbd 73e4 89bd 595f d5bd
000002d0: 0acf e6bd f243 b8bd 6874 ccbd 406b a1bd
000002e0: 2bbe 6d3d a506 82bd 8438 a7bd e580 96bc
000002f0: 8978 a63b bf94 9b3d b999 1ebc 40eb 00ba
00000300: 6267 18be 212f 30bd e230 3ebd 63d9 50bd
00000310: e4d0 843c 409c 793c d81e de3d c8ac 24be
00000320: 10be d1bd 2210 70bc c53b 8b3c d7b7 e9bc
00000330: bcdf e7bd 80d6 5db7 80f0 963d 96a4 713d
00000340: f114 7a3c 8f39 603c 5e78 bebd 6bcf e9bc
00000350: 584d b1bd 83e2 7dbd 6693 87bd bfde 283e
00000360: 6d92 fd3c 84ee 773d 5f90 26be 6328 f7bc
00000370: 23da d13d 2a7d a33d b859 803c a390 313e
00000380: 565c aebd 5ec5 103d 6d0b 0ebe 2895 94bd
00000390: 6318 123d 4508 113d 22d2 1e3d 3456 0fbe
000003a0: 585f 38bd 80cd 9cbd a4b4 c6bd df88 7ebd
000003b0: 486a 8fbc 87b9 3c3e 3c4d d7bc 2276 dfbd
000003c0: 73f2 9ebd 85cf d9bc 4dfa 113e 4683 87bd
000003d0: 8345 c5bc aa61 da3d df22 2d3e c4f4 2c3e
000003e0: 8037 bebc c389 2abc 5813 dfbd c514 b4bc
000003f0: e583 26bc 53c3 2bbb 878b d1bd 7276 e9bc
-0.105968386 0.08703399 0.019637894 0.10582978 -0.05925962 0.032510914 -0.06662965 0.00288488
-0.022877319 -0.004348439 0.06097684 0.08985539 0.053638007 -0.010380643 -0.0053976984 -0.024499698
-0.08967565 0.092353255 0.12178134 0.0011193182 0.095079616 -0.10277774 -0.0059556263 -0.050194748
-0.039757036 -0.015374969 -0.018286344 0.09505416 -0.008045886 -0.16563097 0.133972 0.0732024
-0.021042269 0.010791079 0.0067110625 0.032142133 0.0752027 -0.017748421 0.08650318 -0.087043025
0.10703198 0.08638941 -0.028601058 -0.027095253 0.0146356495 0.018971335 -0.03211414 -0.021000972
0.10751504 -0.22270165 0.04743795 0.104812875 -0.015758269 0.013728198 0.10918691 0.014811595
0.012557091 0.12695204 0.06316901 -0.070271246 -0.026516624 0.03942701 -0.033775344 -0.045754746
-0.113652036 0.11437625 -0.17905608 -0.068220496 -0.05018915 0.07732066 0.13105303 0.13357197
0.069621235 -0.07712579 0.050475083 0.043425296 -0.06248874 0.048017055 0.023510896 0.06083504
0.07049579 -0.046522852 0.045704246 0.010227962 -0.03502752 0.12715103 -0.029289454 -0.083731174
-0.060842145 0.023397299 -0.09119369 -0.017532352 -0.0036832108 0.12698886 -0.005144946 0.12024534
-0.12867773 0.02272402 0.11974376 -0.08824395 0.05823337 0.05375846 -0.008072559 0.0062776245
-0.0011689473 0.050622568 0.09416641 -0.02579815 -0.017185919 -0.050514985 0.067069545 0.004585895
-0.057461515 -0.024221659 -0.10775577 -0.1126054 0.036159758 -0.054178976 0.07135042 -0.016462611
0.03952745 -0.07927909 -0.003686219 -0.0719466 -0.12167074 -0.07014999 -0.0057011866 -0.04373014
-0.10217313 -0.035493884 0.19012503 -0.07225512 0.10820352 0.052741952 -0.13346463 0.098134704
0.083434805 0.14185135 -0.07070719 0.107547924 0.05224708 -0.18871471 0.03263536 -0.05260777
-0.06708072 -0.09598365 -0.016448554 0.20745543 0.026788397 0.040094618 -0.22997697 -0.006615826
0.009039016 0.060541544 -0.07764973 -0.011671928 -0.07453361 0.0608269 0.04571122 -0.021135468
0.071476646 -0.08724725 -0.034615304 0.045698535 -0.080135725 -0.0074786963 0.08576129 -0.09003417
-0.06692409 -0.02544603 0.040428955 -0.017266324 0.029134892 0.04186618 -0.014911569 -0.09366797
-0.10570086 -0.10890373 -0.06733026 -0.10418577 -0.11269958 -0.089973345 -0.0998314 -0.078817844
0.058042686 -0.063489236 -0.081650764 -0.018372009 0.005080287 0.075967304 -0.009680205 -0.00049178675
-0.14883187 -0.043013696 -0.046433337 -0.050988566 0.016212888 0.015235007 0.10845727 -0.16081536
-0.1024133 -0.014652284 0.016996274 -0.028530044 -0.11321971 -1.3222569e-05 0.073700905 0.058994852
0.015263782 0.013685598 -0.09300302 -0.028541287 -0.0865733 -0.061983597 -0.06619911 0.16491221
0.03095361 0.0605302 -0.1626601 -0.030170625 0.102466844 0.079828575 0.015667781 0.17340331
-0.085137054 0.035344474 -0.13871546 -0.07255012 0.03566779 0.035408277 0.038774617 -0.13997728
-0.045012802 -0.076563835 -0.09702423 -0.06214225 -0.017506734 0.18430148 -0.026281945 -0.10911204
-0.07761087 -0.02658821 0.14255638 -0.06616835 -0.024080997 0.10663159 0.16907834 0.16890246
-0.023219824 -0.0104088215 -0.108923614 -0.02198256 -0.010163282 -0.0026208952 -0.10231691 -0.028498862

fc1.bias f4 [128]
00000000: 25e3 c9bc 5795 2d3b be78 92bc dabb 273d
00000010: 01f1 30bd 9fd7 3fbc f19b f13c e90d dabc
00000020: 259c 75bd 6015 0c3c b87a 1f3d d753 f93c
00000030: 2cf8 033d e4a3 56bd 5c98 30bd 1e9b 8bbd
00000040: 7d88 c73b a480 0d3d 7581 993c e440 393d
00000050: 30ee 843c 3ff2 f03c a5ef 61bc 41e6 2b3d
00000060: 0e57 55bd 57ba 33bd 60a2 91bd a569 233d
00000070: eb9b 183b f777 5dbc d04a 973c b56e f2bb
00000080: 946c adb9 3ce3 92bc c1b8 4fbd fb0d 8e3c
00000090: 946b 843c 321f 353d d2a4 a4bc 952a 853c
000000a0: 7faf cabb 85f7 a3bc 5104 11bd 7013 f43c
000000b0: 1f26 39bd f203 d539 73f5 40bd fb17 33bd
000000c0: 039e 2bbd 44aa a03c cd65 ec3b c08f 13bd
000000d0: acf7 c1bc 6527 96bd 1a97 acbc 55bc cebc
000000e0: f109 1abc a3ca 72bd c0c0 cbbb 777a 183c
000000f0: da73 61bd 8a79 02bc 0083 49bd 5d3a 3b3d
00000100: 1d66 1b3b 06d4 19bd 2c80 0cbd 148f 3cbd
00000110: 542d 3ebd 9735 2f3d 231e f83c 60fd 1dbd
00000120: e836 a2bc 80ce 173d e0b0 df3c 8bdf c3bc
00000130: d4bf eb3c 0c62 533b 05d8 acbc 12e5 e63c
00000140: 9693 5bbd 520f f3bb 9660 a83c 665e c13a
00000150: c6e4 b4bc 19ae 2cbc 31a9 3abd 54cf 053c
00000160: 68df 41bd 86c3 4fbb 6725 4fbd 8da7 9dbc
00000170: 45b0 12bd f6f9 68bd 2571 6fbb 6556 c13c
00000180: dd7e 66bd b108 7dbd 0036 a7ba ac28 6fbc
00000190: 4aa2 86bb fc1d 2dbc 93c1 c73c c329 283d
000001a0: 50a6 eebc 09b2 2e3d 8a0f b53c a798 2d3d
000001b0: b726 043c c258 f33c 00ae 0ebd c7e6 2ebc
000001c0: d3c0 2ebc 2998 3b3d 6097 69bd e127 f33c
000001d0: fb31 c43c ec9c 5abc e996 53bd cb8a 9e3c
000001e0: f76f 8bbc de26 493d ec62 0d3d dc06 13bd
000001f0: 00cc 5b3c 8124 f7bc 6ec6 63bc bdc7 e2bc
-0.024644444 0.0026486719 -0.01787984 0.040950634 -0.04319859 -0.011709123 0.029493304 -0.026617961
-0.059963364 0.008550018 0.038935393 0.030435486 0.032219097 -0.052402392 -0.04311405 -0.06816696
0.0060892687 0.03454651 0.018738488 0.0452279 0.016226858 0.029412387 -0.013790046 0.041967634
-0.052084975 -0.04387888 -0.07111049 0.039895672 0.0023286294 -0.013517371 0.01846829 -0.007398451
-0.00033078028 -0.01793062 -0.050713304 0.01734065 0.016164578 0.044219203 -0.020098124 0.016255656
-0.0061854715 -0.020015487 -0.035404507 0.029794425 -0.04520237 0.00040629465 -0.04710908 -0.04372404
-0.04189874 0.019612439 0.007214284 -0.036025763 -0.02367767 -0.07331733 -0.021068145 -0.025236288
-0.009401784 -0.05927528 -0.006218046 0.009306542 -0.055042125 -0.0079635475 -0.049197197 0.045709956
0.0023711987 -0.037555717 -0.03430192 -0.046034887 -0.046429947 0.042775717 0.030287808 -0.038571715
-0.019801572 0.037062168 0.02730602 -0.023910305 0.028777994 0.0032254485 -0.0210991 0.028185401
-0.053607546 -0.007417598 0.020553868 0.0014752864 -0.022081744 -0.010539555 -0.04557151 0.008167107
-0.047332197 -0.0031702234 -0.05057278 -0.019244934 -0.035812635 -0.056879006 -0.0036535945 0.023600766
-0.05627333 -0.061775867 -0.0012757182 -0.014597099 -0.004108702 -0.010566231 0.024384296 0.041055452
-0.029132038 0.042650256 0.022102136 0.04238191 0.008065871 0.029705409 -0.034833908 -0.010675139
-0.01066609 0.045799408 -0.057029128 0.029682102 0.023949614 -0.013343077 -0.05165759 0.019353291
-0.017021162 0.049109332 0.034518167 -0.035895213 0.013415337 -0.030168774 -0.01390229 -0.027683133

fc2.weight f4 [1, 128]
00000000: 8229 bd3b 69d9 8e3d 3d52 cd3d 2b25 3ebc
00000010: 06fe 2b3d ce55 14bd d8d6 813c dec3 0dbd
00000020: 9dac a03d ea80 2d3d b839 d93c c5d7 19bd
00000030: b6bb 003d 6c3f ba3c 79da 243a 9a1e a8bc
00000040: 8e36 553d eb65 c43c c281 a63c dba6 8d3c
00000050: 08a9 3ebd 1769 cdbd d95b 9d3b d735 9fbc
00000060: 4246 53bd 30b4 233d 3135 c2bb 6699 24bd
00000070: 20e5 6e3d d60c 573c 1f48 d53c 3af6 e9bc
00000080: 10d2 97bc 5d51 cabc dadc 833d 577b ae3c
00000090: ee5f 9f3c 8fa8 d63c 9214 853d abcf f93c
000000a0: e029 cf3c 90af b63c 24fe d73c ab4b 213d
000000b0: 53bf a5bc 7a55 9fbc 81d6 cf3c 3307 f0bc
000000c0: b37e 8f3d 9eaf 13bd 6c58 1b3d 653d a8bc
000000d0: 8b08 b7bc a90e 6c3d 7ecb 423d 8548 f2bc
000000e0: 09d0 483d 5311 883c 62e2 ac3d 5464 853c
000000f0: d914 bfbc e585 493c 4a59 0fbd 8228 f53c
00000100: ea38 b53c 067f cb3c ea17 88bd 65c4 d93c
00000110: f9a4 cabc 48c1 9f3d 2d3c 713c e0a1 1abd
00000120: 0e4e 9b3d e06b d03c 5be4 d2bc 8e40 febd
00000130: cd68 99bc f944 803c 9e92 8f3d bd9f 04bd
00000140: 4165 02bd 99c9 8cbc 9786 f6bc 6d3c 3fbd
00000150: 27b8 a93c 4667 a0bd 7469 2bbd a795 f53c
00000160: 3224 11bd f7e5 00bd d905 fd3c 157d 4cbd
00000170: ebb8 2b3d babb 0abd f4fc 0cbe a087 12bd
00000180: 466c 143d 5739 e0bd 317c 333d a21c f03b
00000190: ec92 77bd 341b e0bc 25e8 693d e9fc 8a3c
000001a0: e86a 373c 693f 9ebc 911d ad3d 5448 203d
000001b0: f6eb b2bc 78d0 0dbd 100b 4e3c 85f0 803c
000001c0: 7b68 3bbd f659 a2bd 9b59 68bd f1b8 a63d
000001d0: 9d42 37bd 2dc8 92bd 70c1 0dbd fa19 cdbc
000001e0: 0ea9 553c a61c eebc 4cfd ca3c 8e43 693c
000001f0: fc71 8bbc d4c2 27bd ce5f f53c 2e71 953c
0.0057727704 0.069750614 0.10025451 -0.011605541 0.041990303 -0.036214642 0.015849516 -0.03461062
0.07845423 0.04235927 0.02651678 -0.03755929 0.031429015 0.02273532 0.00062886585 -0.020522404
0.05205398 0.02397438 0.020325545 0.017291477 -0.04654792 -0.1002981 0.004802209 -0.019434853
-0.051580675 0.039966762 -0.005926751 -0.040185355 0.05832398 0.013125619 0.026035367 -0.028559793
-0.018532783 -0.024697 0.064386085 0.021299047 0.019454923 0.026203422 0.06498064 0.030494532
0.025288522 0.022300512 0.0263663 0.039378803 -0.020232832 -0.019449938 0.025370838 -0.029300308
0.07006588 -0.036056153 0.037926123 -0.020537088 -0.02234294 0.05763117 0.047557347 -0.029575596
0.049026523 0.016609823 0.084416166 0.016283192 -0.02332537 0.012299989 -0.034997262 0.029926542
0.022121865 0.024840843 -0.06645186 0.026582906 -0.024736868 0.07800537 0.01472382 -0.037752032
0.07583247 0.025442064 -0.025743654 -0.124146566 -0.01872673 0.015657889 0.07010387 -0.0323789
-0.031834844 -0.017185973 -0.030093474 -0.046688486 0.020717693 -0.07832198 -0.041848615 0.029978586
-0.03543491 -0.03146931 0.030886577 -0.049923975 0.0419244 -0.033870436 -0.13768369 -0.035773873
0.03623607 -0.10948437 0.04381961 0.007327632 -0.06044285 -0.027356721 0.057106156 0.0169663
0.011194922 -0.019317346 0.08452905 0.039131477 -0.02184103 -0.03462264 0.01257588 0.015739689
-0.045753937 -0.07927315 -0.05672608 0.081407435 -0.04474126 -0.07167087 -0.034608305 -0.0250368
0.013040794 -0.029066395 0.024778984 0.014237298 -0.017022125 -0.040957287 0.02995291 0.018242445
