TiAlloy_C4/model/ys_model.pth (torch, 193932 bytes, 15 tensors)

conv1.weight f4 [31, 1, 1, 31]
0.17415528 -0.12574106 -0.045372777 -0.17827377 0.078631505 0.06590674 -0.053977754 -0.08979881
-0.15727125 -0.04860845 0.14986378 -0.07636491 0.09051061 0.11208323 0.12567337 0.14851259
-0.04089579 -0.16056444 -0.16051662 -0.35432193 -0.16642798 0.1470995 0.105162635 -0.11699058
0.21580629 -0.12260655 0.1283947 0.03893161 -0.07691048 -0.06339863 0.08140353 0.18433692
0.11945332 0.20997815 0.019455805 0.20126456 0.0687691 -0.14269768 -0.1789822 0.08524187
-0.121467926 0.10644418 0.14950821 0.010360864 0.20417646 0.06094015 -0.16459766 -0.069904275
0.2327094 0.02056419 0.12116533 0.20782216 0.11122441 0.089143775 0.12662993 0.12697366
0.0049560326 -0.017008388 0.00048080727 -0.14853424 0.09525686 -0.03301826 -0.02919884 -0.17072254
-0.1695368 0.08555288 0.10675579 0.14092538 -0.048627313 -0.11063399 -0.04241872 0.11493453
-0.1383197 0.023829646 -0.37156215 0.116653286 -0.3203866 -0.12577 0.14955772 -0.16785857
0.13554654 -0.08375945 0.13049565 0.1574872 0.17874368 0.12193886 0.20172626 0.17657578
0.0476295 0.054065693 0.1116511 -0.06465532 -0.11993741 -0.27472898 -0.15487856 -0.1967164
-0.104751475 -0.041189797 0.13201512 -0.105226144 0.04403243 -0.052876264 -0.044668302 -0.049063683
0.020586368 -0.00506521 -0.014035208 -0.104023956 -0.18541272 0.2068153 -0.01954149 0.14382465
0.073295526 -0.23080665 -0.068083264 0.01606394 -0.09135753 0.030449577 0.12853976 0.13264774
0.03526729 0.091540284 -0.14216171 0.092644714 -0.16261636 0.19407059 0.15066989 -0.113031015
0.12712005 0.15080272 -0.08191153 -0.18679775 -0.10431616 0.26626027 -0.1558933 -0.025473958
-0.2330133 -0.31826872 0.06523321 -0.18893652 -0.11683566 0.12925468 -0.16626476 -0.02923421
-0.030880474 -0.18565421 -0.07862253 -0.06436968 -0.081263244 0.041618653 -0.09861897 0.14802027
0.21539985 -0.015497597 -0.02095736 0.41765708 -0.08520096 -0.10225118 -0.009318874 0.010553916
0.11923217 0.14411528 -0.002552071 0.24089175 0.11234416 -0.085615315 -0.08723837 0.081964575
-0.17808552 0.005182953 0.11830124 -0.105806306 0.029284501 0.0014389138 0.03449135 0.122106254
-0.10264894 0.1450185 -0.06578189 0.03875421 0.03750799 0.013517508 0.049559526 0.10909148
0.033536337 0.08972912 -0.56536204 -0.00014634435 0.105426446 -0.045716677 0.025213366 -0.10868783
0.094599694 -0.010143667 -0.072106235 -0.007926626 -0.022106193 0.017883336 -0.10847721 -0.013810707
0.06369433 0.11040494 -0.04663684 -0.12307781 0.02719739 0.20850383 -0.15106249 0.13689984
0.033025194 0.07200591 0.1454697 -0.012893236 -0.11365087 0.02811856 -0.022909163 -0.12361335
0.020499706 -0.48796484 0.1168867 0.14841685 -0.009097606 -0.01802541 -0.10776005 -0.124851964
-0.050052114 0.07987341 -0.15193717 0.09698441 0.03528725 -0.055272564 -0.012554565 -0.009653294
0.03137168 -0.13245234 0.027681356 -0.12304397 0.05235218 -0.06481033 0.061005976 -0.17289239
0.06846757 -0.011119181 0.09533145 -0.20911962 -0.11799873 0.05572517 0.124409646 0.036872547
-0.4605226 0.086537376 0.1491417 -0.17020233 -0.09357882 -0.08640699 -0.08865975 -0.14364882
00000000: c355 323e 44c2 00be ced8 39bd 668d 36be
00000010: 8e09 a13d 1dfa 863d c717 5dbd 70e8 b7bd
00000020: b70b 21be a719 47bd e475 193e 3565 9cbd
00000030: a05d b93d e48b e53d 85b0 003e af13 183e
00000040: 5882 27bd 016b 24be 785e 24be af69 b5be
00000050: 196c 2abe 40a1 163e 825f d73d c298 efbd
00000060: 53fc 5c3e 2519 fbbd e679 033e c076 1f3d
00000070: 3e83 9dbd 24d7 81bd e5b6 a63d d1c2 3c3e
00000080: f1a3 f43d 8304 573e c861 9f3c 4c18 4e3e
00000090: d0d6 8c3d 571f 12be 1c47 37be 4a93 ae3d
000000a0: 2dc4 f8bd 68ff d93d ae18 193e 9dc0 293c
000000b0: a213 513e 619c 793d 4a8c 28be f929 8fbd
000000c0: 5f4b 6e3e 3b76 a83c 8725 f83d 55cf 543e
000000d0: a0c9 e33d 0391 b63d 47ab 013e 6205 023e
000000e0: 3766 a23b 2d55 8bbc dc14 fc39 5c19 18be
000000f0: 0716 c33d 283e 07bd 6832 efbc e4d1 2ebe
00000100: 0e9b 2dbe 5936 af3d c8a2 da3d be4e 103e
00000110: 6f2d 47bd 1394 e2bd 40bf 2dbd cb62 eb3d
00000120: aea3 0dbe 6436 c33c 653d bebe ebe7 ee3d
00000130: b609 a4be dac9 00be a925 193e 1ee3 2bbe
00000140: b6cc 0a3e 138a abbd a7a0 053e 5344 213e
00000150: 9508 373e 15bb f93d 5491 4e3e 48d0 343e
00000160: 2717 433d fd73 5d3d 55a9 e43d 026a 84bd
00000170: bfa1 f5bd 47a9 8cbe 7c98 1ebe 0670 49be
00000180: f187 d6bd a2b6 28bd f92e 073e ce80 d7bd
00000190: 595b 343d c894 58bd 1cf6 36bd 00f7 48bd
000001a0: bea4 a83c 10fa a5bb eef3 65bc 830a d5bd
000001b0: d5dc 3dbe 64c7 533e 7a15 a0bc c546 133e
000001c0: f71b 963d 9458 6cbe 3d6f 8bbd 8698 833c
000001d0: a819 bbbd 6471 f93c ed9f 033e cfd4 073e
000001e0: 6f74 103d 7979 bb3d d792 11be 83bc bd3d
000001f0: e784 26be 71ba 463e 3549 1a3e ce7c e7bd
00000200: c22b 023e 076c 1a3e 3bc1 a7bd e947 3fbe
00000210: b6a3 d5bd 4453 883e 7ea2 1fbe c3ae d0bc
00000220: 0a9b 6ebe 1ef4 a2be fd98 853d 9378 41be
00000230: 8947 efbd 575b 043e 4f41 2abe 957c efbc
00000240: 0cf9 fcbc 231c 3ebe d904 a1bd 40d4 83bd
00000250: 586d a6bd 5278 2a3d bef8 c9bd a092 173e
00000260: c791 5c3e a2e9 7dbc c5ae abbc 26d7 d53e
00000270: d77d aebd 1169 d1bd 31ae 18bc 55ea 2c3c
00000280: ff2f f43d f592 133e a540 27bb 54ac 763e
00000290: b214 e63d 1557 afbd 08aa b2bd 0bdd a73d
000002a0: 0d5c 36be c3d5 a93b ec47 f23d fab0 d8bd
000002b0: 0de6 ef3c ef99 bc3a cd46 0d3d d812 fa3d
000002c0: 9c39 d2bd bb7f 143e a8b8 86bd bcbc 1e3d
000002d0: faa1 193d 8a78 5d3c eefe 4a3d 5b6b df3d
000002e0: 665d 093d e7c3 b73d 91bb 10bf 0374 19b9
000002f0: d2e9 d73d 6941 3bbd 438c ce3c ba97 debd
00000300: 7cbd c13d a031 26bc 6fac 93bd aede 01bc
00000310: 0c18 b5bc 1380 923c 4d29 debd 4e46 62bc
00000320: 2c72 823d fc1b e23d 4506 3fbd 3810 fcbd
00000330: 10cd de3c 0782 553e 20b0 1abe 792f 0c3e
00000340: 6d45 073d d677 933d 02f6 143e 273e 53bc
00000350: cac1 e8bd e558 e63c ffab bbbc ff28 fdbd
00000360: 00ef a73c 87d6 f9be 4b62 ef3d 96fa 173e
00000370: 200e 15bc 06aa 93bc 4db1 dcbd 63b2 ffbd
00000380: 7203 4dbd ac94 a33d 6b95 1bbe c39f c63d
00000390: 5d89 103d 7c65 62bd aab1 4dbc da28 1ebc
000003a0: 977f 003d 96a1 07be 03c4 e23c 7afe fbbd
000003b0: 3d6f 563d 47bb 84bd 67e1 793d b40a 31be
000003c0: ba38 8c3d 3a2d 36bc 233d c33d 7423 56be
000003d0: 51a9 f1bd 1340 643d 7cca fe3d ab07 173d
000003e0: 9ec9 ebbe 823a b13d 9ab8 183e 8549 2ebe
000003f0: 41a6 bfbd 26f6 b0bd 3e93 b5bd ad18 13be

conv1.bias f4 [31]
0.03384747 0.16127975 -0.19155182 -0.183486 0.036569715 0.24211814 -0.14994308 0.08100083
0.08592221 0.119616844 0.052412346 0.19854413 0.155491 -0.06950381 0.0065702195 0.10025844
0.15936096 -0.16656335 0.09210893 -0.07740853 -0.17599906 -0.024126263 -0.10379069 0.04031204
-0.12407469 -0.13074903 -0.0010725745 -0.12789154 0.06314288 0.023896584 0.14051192
00000000: a5a3 0a3d 8526 253e 2926 44be c1e3 3bbe
00000010: 20ca 153d d1ed 773e ae8a 19be c3e3 a53d
00000020: fcf7 af3d adf9 f43d 54ae 563d 274f 4b3e
00000030: 0839 1f3e 0358 8ebd ff4a d73b 4c54 cd3d
00000040: 852f 233e 958f 2abe 9ba3 bc3d 5d88 9ebd
00000050: 1939 34be 71a4 c5bc 3790 d4bd 3d1e 253d
00000060: df1a febd 13e3 05be a195 8cba 00f6 02be
00000070: 0e51 813d c5c2 c33c 5be2 0f3e

bn1.weight f4 [31]
0.8529095 0.7939771 0.8517217 0.85935444 0.83667326 1.1541334 1.0071955 1.065274
1.164791 1.3341583 0.825017 0.7904054 1.0081785 0.89475673 0.8532562 0.80651826
0.89033014 1.3253069 0.821028 0.7372251 0.7652375 0.9411163 1.2167306 0.8659448
1.0222719 0.7718964 1.0100131 0.8155269 1.1810175 0.9274267 1.2587997
00000000: 4758 5a3f 1542 4b3f 6f0a 5a3f a7fe 5b3f
00000010: 3830 563f a5ba 933f c8eb 803f e65a 883f
00000020: df17 953f b3c5 aa3f 5034 533f 0258 4a3f
00000030: fe0b 813f c70e 653f 006f 5a3f fb77 4e3f
00000040: adec 633f a8a3 a93f e42e 523f c9ba 3c3f
00000050: 9be6 433f ffec 703f d4bd 9b3f 8fae 5d3f
00000060: ced9 823f 019b 453f 1c48 813f 5fc6 503f
00000070: 952b 973f d66b 6d3f 5920 a13f

bn1.bias f4 [31]
-0.021523971 -0.046114013 -0.08189704 -0.10495046 0.010845142 -0.06103171 -0.07862908 -0.09138615
0.018776627 0.07350926 -0.015038609 -0.14519517 -0.011005156 0.029738935 -0.0265247 -0.112769864
0.033027105 0.037829652 -0.15033069 -0.037085224 -0.076833166 -0.054889236 -0.059862193 -0.14179915
0.028585726 -0.10379875 -0.0077520907 -0.096535556 0.03122582 -0.15278272 -0.030527938
00000000: 0a53 b0bc 0ce2 3cbd a3b9 a7bd 44f0 d6bd
00000010: d3af 313c 63fc 79bd 4808 a1bd a928 bbbd
00000020: 71d1 993c 068c 963d 7f64 76bc 0bae 14be
00000030: f84e 34bc 119f f33c 544a d9bc e3f3 e6bd
00000040: 6e47 073d 44f3 1a3d 4af0 19be ade6 17bd
00000050: b55a 9dbd 89d3 60bd 0f32 75bd cc33 11be
00000060: 9d2c ea3c 7094 d4bd 4005 febb 6fb4 c5bd
00000070: 4acd ff3c 1373 1cbe ba15 fabc

bn1.running_mean f4 [31]
0.03204277 0.1598109 -0.19140734 -0.18074678 0.037732694 0.23899238 -0.1453832 0.08376573
0.089375295 0.11582321 0.055813644 0.19935022 0.15877269 -0.06985235 0.0074214796 0.100472055
0.1590419 -0.162985 0.093972586 -0.07898639 -0.17904936 -0.020257737 -0.10805388 0.038080238
-0.1201905 -0.13111696 0.002300752 -0.13085425 0.06745882 0.020544678 0.14697622
00000000: 483f 033d 78a5 233e 4900 44be af15 39be
00000010: 998d 1a3d 6bba 743e 55df 14be 5e8d ab3d
00000020: 650a b73d b834 ed3d d99c 643d 7722 4c3e
00000030: 4f95 223e c00e 8fbd e22f f33b 4bc4 cd3d
00000040: e1db 223e 8ae5 26be b374 c03d 9ec3 a1bd
00000050: b758 37be 8ef3 a5bc 5a4b ddbd 06fa 1b3d
00000060: 7026 f6bd 8643 06be 37c8 163b a8fe 05be
00000070: da27 8a3d 504d a83c ef80 163e

bn1.running_var f4 [31]
0.9680565 1.3304802 0.9255519 0.45643473 1.2784605 0.29957774 0.38019463 0.32305837
0.2729514 0.2294722 0.6769851 3.4564893 0.3479389 3.1078722 1.9005818 1.1752735
1.6820983 0.15565535 1.4520788 0.8268317 1.1725185 0.5415296 0.3323156 0.70155555
0.5268249 1.9832771 0.34323695 0.8571634 0.3859172 0.33171064 0.655661
00000000: 8dd2 773f 2d4d aa3f f8f0 6c3f d0b1 e93e
00000010: 98a4 a33f 4162 993e dfa8 c23e e867 a53e
00000020: 49c0 8b3e c3fa 6a3e e54e 2d3f 1f37 5d40
00000030: 0c25 b23e 61e7 4640 4446 f33f 5d6f 963f
00000040: ff4e d73f 1e64 1f3e b8dd b93f 3eab 533f
00000050: 1615 963f afa1 0a3f 4525 aa3e 2599 333f
00000060: ffdd 063f 06dc fd3f c1bc af3e 106f 5b3f
00000070: f096 c53e fad5 a93e 66d9 273f

conv2.weight f4 [31, 1, 1, 31]
-0.12744509 -0.31177053 -0.07676581 -0.06759301 0.1608187 0.1037023 0.0874279 -0.01367616
0.0066188066 -0.004120959 0.11422325 -0.4452828 -0.023017619 -0.07626889 -0.08717491 0.05014906
-0.07181669 0.074078694 0.11446792 0.069327146 0.040786188 0.2740455 0.03043462 0.085148156
-0.02438598 0.0007028899 0.10290138 0.2407357 -0.17090406 0.059401203 0.046521768 0.1829944
-0.15015763 -0.07274346 0.06275554 0.0019466517 0.06678958 0.28647673 -0.06946172 0.09552762
-0.29699826 0.050256066 0.087283105 -0.06750656 0.054125085 0.06625053 -0.02316894 -0.07000858
-0.16971381 0.09292857 -0.018665586 0.02223054 -0.09668876 -0.016669312 -0.13418289 -0.07444492
0.04059326 0.1236041 0.23366843 0.09077721 0.008115708 0.08108127 -0.4526982 -0.09131137
-0.07880573 0.13646354 -0.14014992 -0.11707126 -0.047969863 0.16718146 -0.061779454 -0.122631334
-0.21805131 0.0414706 0.02900104 -0.118526675 0.07242442 -0.048269454 0.00041242994 -0.09337457
-0.13124478 0.15976149 -0.026788635 0.22723454 -0.044464663 -0.113189325 0.18383475 0.08307092
-0.22494401 0.13995504 -0.14984627 0.2510135 -0.050221443 -0.07268625 -0.17556988 0.035991058
-0.14691642 0.05136172 0.2265761 0.0135990605 -0.076717064 -0.11315996 -0.13526541 0.02869068
0.12660989 -0.029365297 0.034959573 0.06667118 -0.15937224 0.11369881 0.06980971 0.0032215582
0.059908707 -0.075185105 0.051970854 0.31456414 -0.18364047 0.22613047 0.16741069 -0.12660837
-0.008368416 -0.25109693 0.13237147 -0.28094292 0.2184669 0.20618638 0.052449673 0.1184748
-0.1533174 -0.0075537413 -0.007348783 0.116483256 0.12683223 -0.24698503 -0.091237836 -0.019446062
0.14655854 -0.15711969 -0.0018905479 0.05305696 -0.038423873 0.023515169 0.16142765 -0.06809045
0.15125299 -0.01608003 -0.117755234 0.28804034 0.07281653 0.058948524 0.027729856 0.018426046
0.24387263 -0.02140764 -0.010227034 0.04283087 -0.088204645 -0.06263691 0.105268605 0.045695372
0.20706378 0.1298606 -0.3051789 -0.03601916 0.056434825 0.22209996 -0.10632368 0.14005987
0.07293233 0.0028472985 0.025058206 0.18518828 -0.08127926 0.10774792 0.11291482 -0.21248378
0.25443605 -0.17395115 0.20223694 0.16576733 0.030042727 0.11087276 -0.1937959 -0.22740705
-0.006277623 -0.09116251 -0.15011941 -0.14496535 -0.098657936 0.035723947 0.2375675 0.055274222
-0.060045566 -0.2064935 0.1298837 -0.13990836 -0.055858783 0.012010751 0.09441908 0.077229284
0.11408469 -0.3951796 -0.113389544 -0.16580153 0.036862392 -0.08805559 -0.08804182 -0.1729755
-0.13721748 0.04492426 0.05213898 0.1471545 -0.03741957 -0.12870888 0.00054538046 -0.029127121
0.25960317 0.041519925 -0.20685644 0.042155836 -0.1289314 -0.18055415 -0.023295315 -0.098813415
0.2924461 0.028839402 0.04046216 0.03512831 -0.089511074 -0.13734715 0.108946666 -0.057203945
0.037557665 0.13534492 0.091351375 0.021790776 -0.15272166 0.08863382 0.22171415 -0.18523814
0.0409006 -0.10307482 0.18396448 0.0016027348 -0.0011746603 -0.013469238 -0.12617263 -0.06713291
0.08955339 -0.11450806 0.07255503 -0.06305875 -0.26000965 0.04295575 0.01175975 -0.22770235
00000000: f780 02be 63a0 9fbe 6537 9dbd 346e 8abd
00000010: a8ad 243e df61 d43d 660d b33d f911 60bc
00000020: 93e2 d83b 1c09 87bb e1ed e93d 1bfc e3be
00000030: 728f bcbc dd32 9cbd c288 b2bd 1a69 4d3d
00000040: a114 93bd 92b6 973d 286e ea3d 64fb 8d3d
00000050: 6b0f 273d b14f 8c3e 0652 f93c 2862 ae3d
00000060: 1bc5 c7bc 2542 383a f5bd d23d 6b83 763e
00000070: 7901 2fbe ad4e 733d 9c8d 3e3d e262 3b3e
00000080: ecc2 19be 86fa 94bd fa85 803d cb26 ff3a
00000090: fac8 883d 14ad 923e f241 8ebd fca3 c33d
000000a0: 2810 98be 4ed9 4d3d 7cc1 b23d e140 8abd
000000b0: 44b2 5d3d 5cae 873d cacc bdbc a960 8fbd
000000c0: 75c9 2dbe 5651 be3d 92e8 98bc d21c b63c
000000d0: c204 c6bd 158e 88bc 3d67 09be 9476 98bd
000000e0: 1e45 263d 2524 fd3d c746 6f3e 67e9 b93d
000000f0: bff7 043c f00d a63d 0fc8 e7be 7501 bbbd
00000100: e664 a1bd 19bd 0b3e 7683 0fbe 0fc3 efbd
00000110: 0c7c 44bd 9e31 2b3e 740c 7dbd 2326 fbbd
00000120: d848 5fbe 13dd 293d 9793 ed3c 1dbe f2bd
00000130: 4153 943d 31b6 45bd 693b d839 2b3b bfbd
00000140: 0865 06be 8498 233e d773 dbbc 2cb0 683e
00000150: 9420 36bd cecf e7bd 2d3f 3c3e 1621 aa3d
00000160: b957 66be 6050 0f3e 4d71 19be d784 803e
00000170: 00b5 4dbd 87dc 94bd 97c8 33be 5c6b 133d
00000180: 4271 16be ab60 523d 9103 683e 98ce 5e3c
00000190: d61d 9dbd 69c0 e7bd 0483 0abe b808 eb3c
000001a0: 06a6 013e 7e8f f0bc c531 0f3d e68a 883d
000001b0: 7a32 23be ecda e83d 65f8 8e3d c720 533b
000001c0: d562 753d a6fa 99bd 64df 543d 8d0e a13e
000001d0: 3f0c 3cbe bf8e 673e b56d 2b3e a0a5 01be
000001e0: ae1b 09bc c78f 80be 638c 073e c0d7 8fbe
000001f0: c9b5 5f3e 8622 533e 78d5 563d eaa2 f23d
00000200: 3dff 1cbe 6085 f7bb 0fce f0bb c68e ee3d
00000210: 4fe0 013e a5e9 7cbe e7da babd 594d 9fbc
00000220: 7113 163e fce3 20be 43cc f7ba 4152 593d
00000230: 5a62 1dbd e2a2 c03c 4a4d 253e 0173 8bbd
00000240: 10e2 1a3e 44ba 83bc a829 f1bd 067a 933e
00000250: d520 953d 0274 713d b929 e33c 38f2 963c
00000260: bfb9 793e 135f afbc 4a8f 27bc 6c6f 2f3d
00000270: a3a4 b4bd c847 80bd 1197 d73d 122b 3b3d
00000280: 8708 543e 2dfa 043e 6940 9cbe d488 13bd
00000290: 3428 673d 2c6e 633e 3bc0 d9bd db6b 0f3e
000002a0: 8c5d 953d be99 3a3b de46 cd3c ffa1 3d3e
000002b0: be75 a6bd f1aa dc3d e33f e73d 5995 59be
000002c0: 7145 823e 4020 32be 3317 4f3e e9be 293e
000002d0: 2a1c f63c 4211 e33d 6f72 46be 65dd 68be
000002e0: 85b4 cdbb 69b3 babd e7b8 19be cc71 14be
000002f0: 2c0d cabd 4653 123d e544 733e 3967 623d
00000300: 57f2 75bd 0873 53be 3c00 053e 2344 0fbe
00000310: 2ecc 64bd bec8 443c ca5e c13d 632a 9e3d
00000320: 3ca5 e93d fb54 cabe c738 e8bd e0c7 29be
00000330: 05fd 163d 7d56 b4bd 454f b4bd 7d20 31be
00000340: bd82 0cbe 8002 383d af8f 553d abaf 163e
00000350: 4345 19bd 43cc 03be ddf7 0e3a 009c eebc
00000360: b5ea 843e cc10 2a3d 2dd2 53be 99ab 2c3d
00000370: 9806 04be 30e3 38be d1d5 bebc b05e cabd
00000380: 7fbb 953e 9c40 ec3c a6bb 253d b4e2 0f3d
00000390: 9551 b7bd bba4 0cbe 6e1f df3d af4e 6abd
000003a0: 11d6 193d dc97 0a3e 6e16 bb3d 9282 b23c
000003b0: 1163 1cbe a685 b53d 0909 633e 11af 3dbe
000003c0: 6387 273d e418 d3bd 2f61 3c3e db12 d23a
000003d0: 0ff7 99ba 14ae 5cbc 6633 01be fb7c 89bd
000003e0: c567 b73d 3483 eabd bb97 943d f224 81bd
000003f0: fc1f 85be 5ef2 2f3d f7ab 403c ce2a 69be

conv2.bias f4 [31]
-0.016866772 -0.078038014 -0.08729974 0.044768143 -0.014695485 -0.088882774 0.19776554 0.18136865
-0.015176577 -0.12411917 0.17490612 -0.06568472 -0.11614587 -0.08701914 -0.19742274 -0.11094955
-0.07647995 -0.20193793 -0.0023495608 0.03783465 -0.20979257 -0.008911044 -0.10260198 0.0926966
0.12144881 -0.01701157 -0.061092235 0.04005737 -0.20779586 0.03710067 0.05003092
00000000: 2f2c 8abc 65d2 9fbd 35ca b2bd cd5e 373d
00000010: 55c5 70bc 2c08 b6bd 0d83 4a3e b4b8 393e
00000020: 2da7 78bc 3132 febd 971a 333e b685 86bd
00000030: e3dd edbd 1737 b2bd 3029 4abe 8539 e3bd
00000040: 85a1 9cbd d1c8 4ebe 17fb 19bb 82f8 1a3d
00000050: ddd3 56be a1ff 11bc fd20 d2bd b7d7 bd3d
00000060: 27ba f83d d95b 8bbc da3b 7abd 3213 243d
00000070: 70c8 54be dff6 173d 39ed 4c3d

bn2.weight f4 [31]
0.93091327 1.0946095 1.3707892 1.2192338 1.1473569 1.0268987 1.2365972 1.2841443
1.0720869 0.9843899 0.9544508 1.26305 0.92143166 1.145463 0.9149648 1.1907314
0.720052 1.108813 1.1535625 1.0380273 1.1453685 0.91478217 1.024661 1.210484
1.2500358 0.9215424 1.0551605 1.2512298 1.2045958 0.7949097 1.2326334
00000000: 5550 6e3f 2a1c 8c3f 0576 af3f da0f 9c3f
00000010: 97dc 923f 6b71 833f d148 9e3f d75e a43f
00000020: 253a 893f fa00 7c3f e356 743f 9fab a13f
00000030: f2e2 6b3f 889e 923f 223b 6a3f e369 983f
00000040: 5455 383f 96ed 8d3f f0a7 933f 14de 843f
00000050: 6f9b 923f 2a2f 6a3f 1728 833f 24f1 9a3f
00000060: 2c01 a03f 34ea 6b3f 800f 873f 4c28 a03f
00000070: 3230 9a3f 347f 4b3f eec6 9d3f

bn2.bias f4 [31]
-0.08799727 0.06745711 0.013460368 0.07152452 0.04799877 -0.066753745 0.071950555 -0.035807215
-0.31595334 -0.14231592 -0.55825543 0.06709424 -0.12413041 -0.20324306 -0.19753912 -0.05950306
-0.42206833 -0.25539494 0.014350479 -0.1662393 -0.3020227 -0.08505617 -0.08561779 -0.060604967
0.07784163 0.05394794 -0.39942977 -0.06692367 -0.0740887 -0.30295026 0.13661508
00000000: ea37 b4bd f426 8a3d e088 5c3c 737b 923d
00000010: 5c9a 443d 30b6 88bd d05a 933d 96aa 12bd
00000020: a3c4 a1be 44bb 11be d4e9 0ebf b468 893d
00000030: 1638 febd f31e 50be b247 4abe 7bb9 73bd
00000040: 5719 d8be 20c3 82be 451e 6b3c a33a 2abe
00000050: b8a2 9abe ee31 aebd 6158 afbd ea3c 78bd
00000060: 6f6b 9f3d 84f8 5c3d 0f82 ccbe 470f 89bd
00000070: d1bb 97bd 4c1c 9bbe d3e4 0b3e

bn2.running_mean f4 [31]
-0.10559996 -0.013913137 -0.1474905 -0.027917322 0.3692286 0.17328928 0.17168336 -0.027882729
-0.1694545 0.005879705 -0.2682216 0.54324037 0.28725764 -0.43563852 0.2936336 -0.36469474
-0.0964113 -0.3294865 -0.36868787 -0.3666948 -0.29708892 -0.32726076 -0.34497705 -0.21286932
0.070944525 0.0022875806 0.2602618 -0.20222883 -0.48056027 0.08434237 0.21030289
00000000: cb44 d8bd edf3 63bc c007 17be deb2 e4bc
00000010: 880b bd3e bf72 313e c3cd 2f3e 526a e4bc
00000020: 7b85 2dbe 8aaa c03b 5754 89be cd11 0b3f
00000030: 6f13 933e 030c dfbe 2557 963e 45b9 babe
00000040: 4a73 c5bd 74b2 a8be a8c4 bcbe 6cbf bbbe
00000050: 0a1c 98be b98e a7be d5a0 b0be 6afa 59be
00000060: 5d4b 913d 3ceb 153b 0941 853e 1315 4fbe
00000070: ff0b f6be b1bb ac3d a459 573e

bn2.running_var f4 [31]
0.19268629 0.06515981 0.11061393 0.12547049 0.08069502 0.12318063 0.13371383 0.17147818
0.11337311 0.11345225 0.054167382 0.10923612 0.16347176 0.09215211 0.09220772 0.12643118
0.15135106 0.09136559 0.076219976 0.09851036 0.10482924 0.20526065 0.10097389 0.1485014
0.13874303 0.17015412 0.06242921 0.10736074 0.08799208 0.13364105 0.116713084
00000000: 8e4f 453e 8272 853d 8e89 e23d 567b 003e
00000010: 6e43 a53d 2046 fc3d 47ec 083e fa97 2f3e
00000020: 2930 e83d a759 e83d 9ede 5d3d 30b7 df3d
00000030: 2465 273e 3fba bc3d 67d7 bc3d 2d77 013e
00000040: c6fb 1a3e e21d bb3d 3819 9c3d cdbf c93d
00000050: b6b0 d63d d92f 523e 66cb ce3d c010 183e
00000060: a712 0e3e e23c 2e3e c5b5 7f3d f3df db3d
00000070: 3135 b43d 33d9 083e 4507 ef3d

fc1.weight f4 [128, 349]
-0.0056105256 -0.01828841 -0.08963787 0.053591285 -0.10480787 0.008259487 -0.055622533 0.0950199
-0.045631915 -0.018432455 -0.03173125 0.020107253 -0.069963165 -0.08145921 -0.07072455 0.08313915
-0.12641235 0.084041506 -0.03403525 -0.011957698 0.010033254 -0.064796194 0.100211024 -0.12055064
-0.20422724 0.031026488 -0.063784234 0.062070698 0.03303797 -0.026937034 0.074874066 0.0884749
-0.109352596 0.002721138 0.025833406 0.054799587 -0.002860067 -0.029200757 0.011109437 -0.12187153
0.09273163 0.054193728 -0.052455068 -0.057036966 0.07547274 0.029106664 -0.010242168 -0.02532577
0.10711065 -0.06997995 0.018241126 0.024965947 -0.06354887 -0.07982885 0.08834079 -0.060916357
0.04575718 0.028323025 -0.022630109 -0.038356524 -0.028239986 0.026533987 -0.10936809 -0.052614145
-0.09091037 0.054174464 0.03437352 -0.0733722 -0.034184188 -0.2676933 0.026557125 0.100640945
-0.04365112 -0.1135332 0.010269023 -0.088165075 -0.016574655 0.05270797 -0.013663395 0.09717175
0.061693218 -0.028740851 0.02836542 0.13444881 -0.023372265 0.06817695 -0.09263066 -0.070156306
-0.015337593 0.05393201 -0.044219326 0.17370555 -0.035226174 0.14811249 0.031007037 -0.015696755
-0.15450089 0.05312493 0.11056805 -0.08198154 0.08117308 0.050336927 -0.12484038 0.015680823
-0.018068438 0.029804857 0.077099144 -0.029619353 -0.029659815 -0.05767494 0.057339434 0.0034881108
-0.028758414 -0.034867276 -0.07828086 -0.07828146 0.08183499 -0.050557815 0.042323753 -0.04832386
0.05774357 0.08001791 -0.051654845 -0.054665327 -0.05031529 0.014499007 0.055168122 0.0039210767
-0.014731755 0.07807515 -0.033655424 -0.0895367 0.1099768 0.07166599 -0.10334787 0.0068201707
0.019866794 0.05656644 -0.0377213 0.07467246 0.08854715 -0.049279988 0.15234789 -0.0031617607
-0.05386153 -0.060777936 -0.22182341 0.0673434 -0.028484993 0.02970334 -0.19714484 -0.035882086
-0.18380262 -0.08081996 -0.08196557 -0.04831575 -0.046302494 0.07731767 -0.012323969 0.00053951517
0.010399864 0.026565824 0.015102102 -0.07464313 -0.026474005 -0.06798228 0.11504489 -0.039590307
-0.031190313 0.01350906 0.05664483 -0.038027998 0.05403131 0.039497513 -0.051055934 -0.070724
-0.06691806 -0.093959555 -0.031007532 -0.088987105 -0.09632156 -0.06741468 -0.10055633 0.022067288
0.10439439 -0.04110862 -0.18852806 0.07093163 -0.010629968 -0.06590459 -0.0006258102 -0.026992254
-0.06680445 0.006356987 -0.04138638 0.015459718 0.09849363 0.10674877 0.0067225206 -0.1762424
0.048315924 0.07705284 0.03775912 -0.057845216 -0.040465705 0.018261828 0.027588049 0.073051766
0.06715414 0.021262115 -0.04554661 -0.03724464 -0.029027063 -0.10350992 -0.03204374 0.11842873
0.038364172 0.082465574 0.054903474 -0.062130377 0.0061125616 0.055709 -0.051911723 0.019448316
-0.049746692 0.06743017 -0.10822816 -0.34235293 0.06894044 0.057820164 0.03463153 -0.0055000084
-0.020869166 -0.04801367 -0.061759785 -0.012002989 -0.027010191 0.07290857 -0.0063639153 -0.0021797738
0.07279428 0.009068117 0.06448494 0.053775482 -0.019152591 0.07950661 0.031043828 0.09229322
-0.11855576 -0.03531023 -0.11302547 0.05279073 -0.05429976 -0.01710845 -0.102280036 0.113296986
00000000: 80d8 b7bb 93d1 95bc 0f94 b7bd 8982 5b3d
00000010: 82a5 d6bd cd52 073c 74d4 63bd cb99 c23d
00000020: 88e8 3abd a9ff 96bc a1f8 01bd f7b7 a43c
00000030: d948 8fbd 16d4 a6bd 08d8 90bd dc44 aa3d
00000040: 3d72 01be f41d ac3d 8c68 0bbd 38ea 43bc
00000050: 8462 243c deb3 84bd 703b cd3d 41e3 f6bd
00000060: f220 51be 432b fe3c 4fa1 82bd d83d 7e3d
00000070: d352 073d 0eab dcbc 9357 993d 5432 b53d
00000080: 41f4 dfbd 1f55 323b 94a0 d33c 8875 603d
00000090: f66f 3bbb 6d36 efbc 5b04 363c c897 f9bd
000000a0: 15ea bd3d 3efa 5d3d 20db 56bd 989f 69bd
000000b0: 7491 9a3d 1971 ee3c c4ce 27bc fd77 cfbc
000000c0: d45c db3d a651 8fbd 6a6e 953c 6385 cc3c
000000d0: e925 82bd 4f7d a3bd 04ec b43d 6e83 79bd
000000e0: e16b 3b3d b005 e83c c762 b9bc bb1b 1dbd
000000f0: 8b57 e7bc ce5d d93c 61fc dfbd ee81 57bd
00000100: 372f babd 0be6 5d3d 40cb 0c3d 2a44 96bd
00000110: b804 0cbd 190f 89be 548e d93c d71c ce3d
00000120: 84cb 32bd 1884 e8bd 673f 283c e48f b4bd
00000130: 92c7 87bc 50e4 573d 6fdc 5fbc fc01 c73d
00000140: 07b2 7c3d ef71 ebbc 995e e83c f3ac 093e
00000150: 3177 bfbc 5ba0 8b3d 25b5 bdbd 1cae 8fbd
00000160: 874a 7bbc d0e7 5c3d 531f 35bd dedf 313e
00000170: 5249 10bd cdaa 173e 7802 fe3c 7b96 80bc
00000180: 7b35 1ebe 8799 593d 8071 e23d f0e5 a7bd
00000190: 123e a63d 182e 4e3d 50ac ffbd 1275 803c
000001a0: 4304 94bc 5129 f43c 28e6 9d3d 49a4 f2bc
000001b0: 24f9 f2bc 8f3c 6cbd c1dc 6a3d ca98 643b
000001c0: c496 ebbc fdd0 0ebd b751 a0bd 0852 a0bd
000001d0: 1a99 a73d b615 4fbd ac5b 2d3d 3def 45bd
000001e0: 8684 6c3d 6ee0 a33d 0894 53bd c0e8 5fbd
000001f0: 6817 4ebd 3e8d 6d3c f8f7 613d 607c 803b
00000200: 755d 71bc dde5 9f3d 45da 09bd 045f b7bd
00000210: 843b e13d 9ec5 923d 0ca8 d3bd bd7b df3b
00000220: b0bf a23c 36b2 673d a681 1abd e0ed 983d
00000230: 3558 b53d d0d9 49bd 1601 1c3e 8b35 4fbb
00000240: e89d 5cbd 49f2 78bd ad25 63be 56eb 893d
00000250: 5c59 e9bc 6b54 f33c 56e0 49be 18f9 12bd
00000260: c136 3cbe ef84 a5bd 91dd a7bd bce6 45bd
00000270: afa7 3dbd ba58 9e3d 79ea 49bc 406e 0d3a
00000280: 3164 2a3c 92a0 d93c cf6e 773c 7fde 98bd
00000290: 03e0 d8bc 4b3a 8bbd a89c eb3d 7229 22bd
000002a0: d482 ffbc 1b55 5d3c 6904 683d 3fc3 1bbd
000002b0: ef4f 5d3d 25c8 213d 0720 51bd bfd7 90bd
000002c0: 560c 89bd de6d c0bd 8203 febc df3e b6bd
000002d0: 3d44 c5bd b510 8abd 7af0 cdbd 75c6 b43c
000002e0: bacc d53d 8361 28bd 800d 41be 9a44 913d
000002f0: 5129 2ebc fcf8 86bd 690d 24ba dc1e ddbc
00000300: c5d0 88bd 464e d03b c484 29bd c24a 7d3c
00000310: 07b7 c93d 199f da3d 9748 dc3b e378 34be
00000320: ebe6 453d e1cd 9d3d 4fa9 1a3d 1bef 6cbd
00000330: 5ebf 25bd d499 953c 5500 e23c 2a9c 953d
00000340: 1c88 893d e32d ae3c 158f 3abd d68d 18bd
00000350: 2aca edbc 02fd d3bd 4c40 03bd c38a f23d
00000360: c023 1d3d b6e3 a83d 77e2 603d 6c7c 7ebd
00000370: e24b c83b 1f2f 643d 63a1 54bd 1352 9f3c
00000380: 30c3 4bbd d418 8a3d baa6 ddbd e248 afbe
00000390: a530 8d3d d6d4 6c3d cbd9 0d3d 6a39 b4bb
000003a0: d0f5 aabc fba9 44bd d4f7 7cbd 2fa8 44bc
000003b0: 7a44 ddbc 1751 953d 6488 d0bb 89da 0ebb
000003c0: 2b15 953d 7092 143c ae10 843d ae43 5c3d
000003d0: e5e5 9cbc 5dd4 a23d a04f fe3c 3a04 bd3d
000003e0: 5dcd f2bd 76a1 10bd e679 e7bd 183b 583d
000003f0: 6d69 5ebd 0527 8cbc 3278 d1bd 4008 e83d

fc1.bias f4 [128]
-0.003323237 0.0030114222 -0.006993741 0.04342088 -0.043657266 -0.010406103 0.025571033 -0.019261952
-0.05916846 0.0050606756 0.043582167 0.056833595 0.031571243 -0.05455111 -0.039069254 -0.05548562
-0.003044238 0.02340695 0.016616186 0.042746484 0.018654019 0.031993125 -0.0070724837 0.039722566
-0.05083977 -0.042066764 -0.05360931 0.02825787 0.0016319705 -0.009056285 0.016317388 -0.01583074
0.0008236349 -0.01563927 -0.041816287 0.010426889 0.0019928464 0.0276195 -0.02156188 0.01968459
-0.0057628937 -0.025455108 -0.045183074 0.020150516 -0.04138259 -0.004365327 -0.053308632 -0.04107694
-0.042228863 0.023145009 -0.0036423253 -0.038571384 -0.02518517 -0.05763878 -0.031633187 -0.0385725
-0.016196862 -0.054484762 -0.005608142 0.0001145408 -0.0486603 -0.004795253 -0.046159122 0.040411893
0.01323153 -0.03372631 -0.04072346 -0.05056511 -0.046267148 0.042652197 0.042495172 -0.038101055
-0.016692126 0.030296184 0.023057243 -0.040230375 0.028914178 -0.0015677342 -0.02056975 0.030636972
-0.037988227 -0.0024664598 0.02545267 -0.0036493551 -0.014829592 -0.016019376 -0.048252333 0.016074924
-0.052242264 -0.008190658 -0.053721692 -0.025184358 -0.031041348 -0.05924315 0.0036149297 0.03093551
-0.05381275 -0.059598513 -0.0029815612 -0.009760233 -0.0034567828 -0.002415287 0.023047708 0.040153876
-0.014458761 0.04164274 0.014238671 0.021557206 0.009885671 0.037939034 -0.039827388 -0.018934354
-0.015166665 0.04934888 -0.05890629 0.029996002 0.022315696 -0.0129945185 -0.035690274 0.014471333
-0.016573953 0.04793524 0.022429539 -0.041875497 0.012126201 -0.02705522 -0.013646804 -0.02861029
00000000: aaca 59bb 485b 453b c02b e5bb 18da 313d
00000010: f6d1 32bd 5c7e 2abc 587a d13c 3ecb 9dbc
00000020: a15a 72bd 06d4 a53b 3783 323d 58ca 683d
00000030: d950 013d fc70 5fbd 1507 20bd e444 63bd
00000040: d781 47bb efbf bf3c ab1e 883c f016 2f3d
00000050: 50d0 983c 390b 033d 4bc0 e7bb 21b4 223d
00000060: 5d3d 50bd 334e 2cbd 7095 5bbd 0c7d e73c
00000070: d8e7 d53a d060 14bc 0bac 853c 78af 81bc
00000080: 34e9 573a ed1d 80bc 8e47 2bbd 8bd5 2a3c
00000090: 6a9a 023b 4a42 e23c 8aa2 b0bc 9441 a13c
000000a0: a8d6 bcbb 3b87 d0bc e311 39bd b212 a53c
000000b0: ca80 29bd 040b 8fbb 275a 5abd 4b40 28bd
000000c0: 2cf8 2cbd 9a9a bd3c 14b4 6ebb 07fd 1dbd
000000d0: 2151 cebc a416 6cbd cd91 01bd 33fe 1dbd
000000e0: 48af 84bc 6a2b 5fbd 81c4 b7bb a035 f038
000000f0: 0650 47bd 7f21 9dbb 5911 3dbd f186 253d
00000100: 0fc9 583c 9924 0abd a5cd 26bd 5c1d 4fbd
00000110: 9f82 3dbd 12b4 2e3d 6b0f 2e3d da0f 1cbd
00000120: edbd 88bc b42f f83c 8be2 bc3c 9bc8 24bd
00000130: 6ddd ec3c 6e7c cdba e481 a8bc 63fa fa3c
00000140: 8b99 1bbd 54a4 21bb 1e82 d03c 052a 6fbb
00000150: d1f7 72bc 113b 83bc 3da4 45bd 8faf 833c
00000160: fcfb 55bd 1c32 06bc 470b 5cbd 6d4f cebc
00000170: 6d4a febc f2a8 72bd 75e8 6c3b 776c fd3c
00000180: c26a 5cbd 921d 74bd 4c66 43bb 62e9 1fbc
00000190: 318b 62bb cb49 1ebb 8cce bc3c 6478 243d
000001a0: 70e4 6cbc 9491 2a3d 5149 693c bd98 b03c
000001b0: 82f7 213c f665 1b3d 0b22 23bd 381c 9bbc
000001c0: 9b7d 78bc 0d22 4a3d b947 71bd 2dba f53c
000001d0: 68cf b63c f6e6 54bc f72f 12bd 2b19 6d3c
000001e0: 19c6 87bc be57 443d 27be b73c a485 2bbd
000001f0: f9ac 463c e9a2 ddbc d896 5fbc 2060 eabc

fc2.weight f4 [1, 128]
0.012086194 -0.02805531 -0.017795507 0.051496893 -0.008695807 -0.0256065 0.015671365 -0.013267894
0.03449753 0.027827322 0.042633172 -0.023413626 -0.020938033 0.01655036 0.013586947 -0.016325384
0.016246507 0.013021418 0.018443318 0.047663916 -0.017489044 -0.02530341 0.016991628 -0.05997007
0.011912513 0.02189426 -0.059005134 -0.07076045 -0.0641165 0.01977192 0.046440084 -0.02458147
-0.018168436 0.023058092 0.01833742 0.013389324 0.01183687 0.053368073 0.036542963 0.024694104
0.016811956 0.015324583 -0.026719263 0.01350169 -0.02318022 0.06389008 -0.03742561 -0.027069848
-0.066717505 -0.013738368 0.052256074 -0.019608947 -0.024609417 -0.024302635 0.023329591 0.045646377
0.015052177 0.033315264 0.057222616 0.04774551 -0.02993385 0.024083862 0.015710877 0.05423475
-0.020849083 -0.007411775 -0.03342161 -0.039055225 -0.056262266 0.044081096 0.018463533 -0.06494683
0.01388375 -0.027414808 -0.03202549 -0.061616916 0.018654948 0.010338344 0.04111961 -0.036499627
-0.027174342 -0.019008627 -0.025220552 -0.062358476 0.01580536 0.064144455 -0.06190889 -0.034275282
-0.04289086 -0.076815054 0.020232305 0.0031527586 -0.0138230305 -0.04921444 -0.01805028 -0.021895435
-0.076219685 0.018501053 0.012843845 0.013018806 -0.022342183 -0.016072692 0.019839503 0.013436018
0.058323193 -0.01740272 0.0070443205 0.04858711 -0.064034544 0.04218613 -0.027122958 0.014523687
-0.06104299 -0.015634436 0.014567191 -0.0171151 -0.024384756 -0.09337698 -0.01714016 0.012705378
-0.019176902 -0.030612754 -0.06852154 0.017425517 -0.021232277 -0.022812216 -0.04768345 0.013193331
00000000: 2c05 463c 40d4 e5bc e2c7 91bc 68ee 523d
00000010: dc78 0ebc b9c4 d1bc 3c61 803c 9561 59bc
00000020: 484d 0d3d 20f6 e33c 1fa0 2e3d efcd bfbc
00000030: 3d86 abbc 9f94 873c c99b 5e3c d0bc 85bc
00000040: 6517 853c c957 553c 7116 973c 3d3b 433d
00000050: 2f45 8fbc 1949 cfbc 0732 8b3c 2da3 75bd
00000060: b32c 433c 975b b33c 5eaf 71bd dbea 90bd
00000070: 834f 83bd b9f8 a13c f537 3e3d 145f c9bc
00000080: f9d5 94bc 53e4 bc3c 5b38 963c e55e 5b3c
00000090: 6eef 413c 7b98 5a3d 13ae 153d 4a4b ca3c
000000a0: 3ab9 893c f613 7b3c 5be2 dabc 3136 5d3c
000000b0: 72e4 bdbc cdd8 823d 994b 19bd 96c1 ddbc
000000c0: 30a3 88bd e416 61bc 770a 563d f1a2 a0bc
000000d0: b099 c9bc 5216 c7bc b31d bf3c b2f7 3a3d
000000e0: 689d 763c 9675 083d 4362 6a3d cc90 433d
000000f0: d537 f5bc 854b c53c 19b4 803c 4225 5e3d
00000100: b2cb aabc 7ade f2bb 19e5 08bd 5ff8 1fbd
00000110: 4373 66bd 618e 343d d640 973c d802 85bd
00000120: ab78 633c 0595 e0bc 292d 03bd 0562 7cbd
00000130: 43d2 983c 2862 293c 096d 283d a280 15bd
00000140: ba9c debc fbb7 9bbc 559b cebc 9a6b 7fbd
00000150: 3e7a 813c 2b5e 833d 2d94 7dbd 3d64 0cbd
00000160: 54ae 2fbd 3651 9dbd 38be a53c 839e 4e3b
00000170: fe79 62bc 1595 49bd 2ede 93bc 0e5e b3bc
00000180: 1119 9cbd 858f 973c fe6e 523c d54c 553c
00000190: f406 b7bc e1aa 83bc 7486 a23c be22 5c3c
000001a0: 4de4 6e3d 2690 8ebc 0bd4 e63b 4703 473d
000001b0: 8b24 83bd 5dcb 2c3d f730 debc c2f4 6d3c
000001c0: 3708 7abd ca13 80bc 3aab 6e3c f734 8cbc
000001d0: 8ac2 c7bc 6e3c bfbd 8569 8cbc 382a 503c
000001e0: e118 9dbc 99c7 fabc 0555 8cbd f5bf 8e3c
000001f0: 50ef adbc afe0 babc b94f 43bd d728 583c
