TiAlloy_C4_gradient inner argmax/model/uts_model.pth (torch, 193932 bytes, 15 tensors)

conv1.weight f4 [31, 1, 1, 31]
00000000: 42fb c13e c59e 03be 9b59 7ebd e1e4 debc
00000010: 358a 943d 32f4 c83d 9691 5dbd 530b 86ba
00000020: 8a21 46be 78c1 75bb 29b0 003e e0a1 c83b
00000030: e500 c53c 55a7 0bbd cb84 bd3d 712f 463e
00000040: 771b 9dbd fcc4 16be d0a6 44be b2b0 4abe
00000050: 6ce6 18be 16ac 883d d2f0 033e 359d 5bbd
00000060: 7e1b f33d 9fd0 80bd e0ae 423e 0fbc 7e3c
00000070: 6ecb 1f3b af57 7c3d 7f5a 453d 6bb0 203e
00000080: 7244 083e 7129 773e d65c 9e3d a85d 533e
00000090: 9fd8 df3d 46d2 edbd 11d3 34be 93cc e93d
000000a0: ff2e edbd 29a6 bf3d d989 423e 326e 0abb
000000b0: 412e d63d f9bb 4d3d aaf3 91be 26e8 9fbd
000000c0: d67d 713e b82a fa3c 99d0 443e e683 863e
000000d0: ccb8 973d c0ab b73d b763 133e 0962 e73d
000000e0: b06a 663c f2c8 dcbb e1c4 babc 672c 03be
000000f0: e14c f23d 5f98 d3bd 16c4 aebe dd73 0ebe
00000100: ac3f 2ebe 33c2 273e 008f 123e cae9 0f3e
00000110: 3eb3 4abd c8b4 2cbe fded a3bd 3f07 083e
00000120: a287 1bbe 4fa0 8d3d e2a3 81be 78af 833d
00000130: 5cf4 73be 7d64 8fbd ad93 2c3e 5b22 2ebe
00000140: 518b 033e 8202 a3bc bb50 2d3e d39a 013e
00000150: 7c1c 093e cf0f be3d b599 033e 25e4 0b3e
00000160: 6de6 243c f05a 893c 95e1 1b3e 1994 75bc
00000170: 9917 babd dd9b eabd b96b afbe 3ec7 a2be
00000180: 0904 ccbd 5a47 70be 0b48 183e 9df4 f4bd
00000190: e19b 2b3d d8b4 a8bd 1a48 12bd c002 1abe
000001a0: 7083 a73c 5107 dfbc 8c77 acbd b5a4 0bbe
000001b0: 5037 64be a852 6d3e 908f b5bd 9878 6e3d
000001c0: e8f7 733d 9050 afbe dbe7 48be 9d4c 94bd
000001d0: d4a0 3fbe bc64 fcbd 40a8 df3c 48ca e63c
000001e0: bb14 a0bd 1539 f03d 7dc0 eebd 735e 67bc
000001f0: 5c86 e7bd bf2b 2c3e 8608 ee3d be45 b1bd
00000200: 7ca1 d13d ba02 ab3d 6845 21be eafa 64be
00000210: 7d08 e5bc ed47 ad3e b351 38be ce25 873d
00000220: 6605 f2bd 5d37 8bbe a0e2 b53c d1ca 13be
00000230: 41b0 34bd e6f7 443e da3a 54be b9e9 b6bc
00000240: 0db9 61bd fea4 6fbe c2c7 0dbe b38a f1bd
00000250: 4a63 4dbe 7671 34bc e2c2 1bbe 12eb d13d
00000260: 4983 063e be86 31bd c8ad 01bd ddda d73e
00000270: 1f8a 58bd 187f 1cbe 5993 853c 5765 793d
00000280: 3826 d03d 3a84 f43d e8b4 e13c 688b 023e
00000290: 0245 d8bc b3fd d0bc b249 15be dc8f a9bb
000002a0: d453 19be a106 633d b90c 373e adb9 09be
000002b0: 6ddb c13c 5208 c63c 8560 ed3c 3e1c 0f3e
000002c0: a655 efbd aaff 0d3e 4ef9 c2bd b6e2 58bc
000002d0: 3574 7dbb bd83 efbc 9835 9a3d deda 293e
000002e0: ab40 8f3d 316a 073e 95a0 08bf 0660 2d3d
000002f0: 668a ee3d 00d9 433d 6644 8e3d 002c a6bd
00000300: 99ff eb3d 7391 5d3d 23b2 d2bd 0ff1 22bc
00000310: 1c6d 4fbd ac1a 933d 38f0 d2bd 5c3f 67bd
00000320: c5e5 7f3c 993d 203e 9fc4 d7bd 97d3 04be
00000330: a645 77bc d9f2 533e 0f0a ebbd 48b3 d83d
00000340: 4832 513d 32aa d33d 358c b63d 1249 193c
00000350: d61b bdbd 2ee8 863c 5b23 033d 19b2 a7bc
00000360: 3492 f53c 5de6 59bf 2e03 013e 27d1 4b3e
00000370: 9d15 243b 16c3 acbc 5be4 cbbd 828d d7bd
00000380: 39fa 3fbd dde8 a83d 3796 a7bd 18ef 983d
00000390: 6867 233d 9b31 dabd 5742 8ebd 1359 c8bd
000003a0: e487 b63c cde9 12be cf03 fdbb 0f7b edbd
000003b0: 964f 5f3d 9bf2 64bd 4c18 b23d 1d7b 02be
000003c0: 6f4f 093e 53f3 a63d 4b99 243e f2e2 0fbe
000003d0: 9fcb bebd a31d ad3d d8f5 263e 692c 8f3c
000003e0: c7b0 e1be 7d43 b03d 99e6 1f3e f264 50be
000003f0: 5d46 bfbd f232 f5bd 92c1 d1bd 8696 febd
0.37887007 -0.12853535 -0.062097173 -0.027208747 0.072529234 0.098122016 -0.05409392 -0.0010226764
-0.19348732 -0.003749935 0.125672 0.0061228126 0.024048278 -0.034095127 0.09253844 0.19354035
-0.07671254 -0.14723581 -0.19204259 -0.19793966 -0.14931649 0.06673448 0.12884834 -0.05361672
0.11870478 -0.06289791 0.19012022 0.015547766 0.0024382728 0.06160706 0.048182007 0.15692298
0.1330736 0.24136902 0.07732551 0.20641196 0.10929989 -0.11612372 -0.1765864 0.114159726
-0.115812294 0.093578644 0.18997897 -0.002112281 0.10458041 0.050228093 -0.28506213 -0.07807951
0.23583159 0.030537948 0.19220199 0.26272506 0.07408294 0.089683056 0.14393507 0.112979956
0.014063522 -0.0067378217 -0.022798957 -0.12809907 0.1183107 -0.10331797 -0.34133977 -0.13911386
-0.17016476 0.16382675 0.14312363 0.14054027 -0.049487345 -0.16865838 -0.08004377 0.13284014
-0.15188459 0.06915342 -0.25320345 0.064299524 -0.23823684 -0.070015885 0.16853209 -0.17005293
0.12846114 -0.019898657 0.16925327 0.12656717 0.13389772 0.09280359 0.12851603 0.13661249
0.010064703 0.016766995 0.15222771 -0.0149889225 -0.09086532 -0.1145551 -0.34261873 -0.31792635
-0.09961707 -0.23464718 0.14871232 -0.11960719 0.041896705 -0.08237618 -0.035713293 -0.15040112
0.020448416 -0.027225168 -0.08421239 -0.1363705 -0.22286725 0.23176062 -0.08865273 0.058220476
0.059562594 -0.34241152 -0.19619696 -0.07241175 -0.18713695 -0.12323901 0.027301908 0.028172627
-0.07816454 0.117296375 -0.11657808 -0.01412164 -0.11304924 0.16813563 0.116227195 -0.086558804
0.10235879 0.083501294 -0.15749133 -0.22361341 -0.02795815 0.33843938 -0.17999916 0.065990075
-0.11817436 -0.27190676 0.02220279 -0.14432837 -0.0441134 0.19235191 -0.20725575 -0.022328245
-0.05510812 -0.23402783 -0.13845733 -0.11794033 -0.20057407 -0.011013379 -0.1521106 0.10249914
0.13136019 -0.04334139 -0.03165987 0.42159167 -0.052866098 -0.15282857 0.016305612 0.06088766
0.1016354 0.11939283 0.027552083 0.12748492 -0.026400093 -0.025511598 -0.14578894 -0.00517462
-0.14973384 0.055426244 0.17875947 -0.13449736 0.0236642 0.02417389 0.028976688 0.13975617
-0.11686258 0.1386706 -0.09520207 -0.013237646 -0.0038674 -0.029237622 0.075297534 0.16587397
0.06994756 0.13224103 -0.5337003 0.042327903 0.11647491 0.04781437 0.0694664 -0.08113861
0.11523361 0.05409379 -0.10287883 -0.009945168 -0.050641164 0.07182822 -0.10299724 -0.05645691
0.015618746 0.15648498 -0.10535549 -0.1297134 -0.015092289 0.20698108 -0.11476528 0.1058107
0.051073343 0.103351966 0.08913461 0.0093558 -0.09233825 0.016468134 0.03201614 -0.020470666
0.029976942 -0.8511713 0.12598869 0.19904004 0.0025037297 -0.021089118 -0.09955665 -0.10525037
-0.04686949 0.0824754 -0.08182948 0.074674785 0.039893538 -0.10653993 -0.06946247 -0.097826146
0.022281595 -0.14347 -0.0077214013 -0.11595737 0.05451926 -0.05589543 0.086960405 -0.12742276
0.13409208 0.08151879 0.16074102 -0.14051417 -0.093161814 0.084529184 0.1630472 0.017477231
-0.44080183 0.08606622 0.1561531 -0.20351008 -0.093395926 -0.11972608 -0.10241999 -0.12431054

conv1.bias f4 [31]
00000000: 6684 463d cf8b 0d3e 0a51 44be 1a03 25be
00000010: 1943 e23b 24c6 303e 1b69 58bb 6516 ea3d
00000020: 1a8b 233e 113d 8d3d 4fbb 1f3b 12cb 4d3e
00000030: e07e d83d f8e1 5cbd a291 343d 74ec ed3d
00000040: a9cb 253e 8c98 5abe f013 713d b375 39bd
00000050: 2517 30be 4792 db3d 4b60 88bd 4b33 203d
00000060: bfa5 ecbd b699 3cbe d2ad bbbd e5fd 0f3d
00000070: c7cb 423e e949 e93c 0b10 283e
0.04846611 0.13822864 -0.19171539 -0.16114464 0.0069049713 0.17263085 -0.0033021632 0.11430053
0.15971032 0.06896413 0.002437312 0.20096996 0.105710745 -0.053926438 0.0440842 0.116173655
0.16190971 -0.21347255 0.058856905 -0.045278262 -0.17196329 0.107212596 -0.066589914 0.039111417
-0.11555051 -0.18418011 -0.09164013 0.035154242 0.19023047 0.028477626 0.1641237

bn1.weight f4 [31]
00000000: c7ed 6c3f a136 483f 2583 673f 4333 643f
00000010: 990a 563f 0432 763f ebe2 803f ff7b a83f
00000020: 4e8e 853f 694e 8a3f 3bb7 6d3f db88 503f
00000030: 496d 423f a591 573f b957 473f 6c9e 6a3f
00000040: d614 633f 2f27 913f 312f 5d3f f84a 5f3f
00000050: dc12 4f3f 927a 523f b18d 773f 4673 6d3f
00000060: e599 903f cb2c 5e3f 1e65 e03f 1f25 813f
00000070: 1372 a73f fdf0 523f 2ede 853f
0.9255032 0.7820836 0.90434486 0.8914072 0.8360992 0.9617007 1.006925 1.3162841
1.0434053 1.0805179 0.9285771 0.81458825 0.75948006 0.8420661 0.7786823 0.9164798
0.8870367 1.1340083 0.86400133 0.8722377 0.8088815 0.8221828 0.9670058 0.9275402
1.1296965 0.867871 1.7530859 1.0089453 1.3081688 0.8239897 1.0458429

bn1.bias f4 [31]
00000000: 3f91 3fbe a08e 14bd 382d d7bc 8321 a2bd
00000010: 33b5 36bd 3269 84bc 8953 adbd 2a87 c73b
00000020: 2ff3 c93c 538e b4bd e98e aebc 920f 2abe
00000030: aa5d aabd b3a5 65bd 0cbb 51bd 9e0e 853d
00000040: 6f59 1fbd 8af8 afbd faca abbd 2115 42bd
00000050: 690e aebd 9b5e bcbc b7ad 373d f29b a63a
00000060: baad dabc bfba ea3c fd7c 1d3d 0f89 b8bd
00000070: f63d 043e 3bf9 80bd b699 57bc
-0.1870775 -0.03626883 -0.02626668 -0.07916548 -0.0446064 -0.016163442 -0.08463199 0.006089111
0.024652092 -0.08816209 -0.02130838 -0.16607502 -0.08318646 -0.056066226 -0.051203772 0.06496929
-0.03890365 -0.08592327 -0.08388324 -0.04738343 -0.08498842 -0.02299433 0.0448434 0.001271127
-0.026694167 0.0286535 0.038449276 -0.09010517 0.12914261 -0.06297537 -0.013159206

bn1.running_mean f4 [31]
00000000: 18cc 5e3d 07c3 0f3e 3181 49be 63e1 26be
00000010: 47f1 a03b bccf 373e ad7e 46bc 9c7d cd3d
00000020: 8a09 1d3e 8a9b 993d eabe 88bb 9757 493e
00000030: f3be d63d 6bf4 5bbd 1b89 273d 27eb ed3d
00000040: 401f 263e 8bb0 62be f5df 7c3d bd8d 2ebd
00000050: fd5a 2abe 41e2 ce3d d159 70bd 3b7c 3a3d
00000060: d849 ffbd dbce 3abe 5d71 ccbd c20a 333d
00000070: c407 3b3e 8e62 0f3d f94b 1e3e
0.054393858 0.14039241 -0.19678189 -0.16296916 0.004911575 0.17950338 -0.012115163 0.10033724
0.1533567 0.0750037 -0.0041731494 0.19662319 0.104856394 -0.053699892 0.04090224 0.116171174
0.16222858 -0.22137658 0.06173702 -0.04261564 -0.16636272 0.10101748 -0.058679406 0.04552863
-0.124652565 -0.18242972 -0.0998256 0.04371143 0.18264681 0.0350061 0.15458669

bn1.running_var f4 [31]
00000000: 0ed3 043f 65cd b73f 5c87 2d3f 7688 5340
00000010: 54f6 7a3f 4f70 073f 6821 1f3f 7a36 7c3f
00000020: ccdd b73e 4233 ba3e ce2b 203f 028c 1040
00000030: aa52 a63f 48c5 2b40 50a6 1c40 eb3b 0c40
00000040: fbfa 4e40 f6b4 a43e d5bf 3540 669b af3f
00000050: b8b3 913f 55d0 883f 0fcd c43e 487e d93e
00000060: 44bc ed3e 9876 2c40 adfc ad3e c1c3 1b3f
00000070: 55cd e53e 00e6 b23f 9fbc 0b3f
0.51884544 1.4359556 0.67784667 3.305204 0.98032117 0.52905744 0.6216035 0.98520625
0.35911405 0.36367232 0.6256684 2.2585454 1.2993977 2.683916 2.447651 2.191157
3.2340686 0.32169312 2.8398335 1.3719299 1.1382971 1.0688578 0.38437697 0.42479157
0.46432698 2.6947384 0.3398184 0.6084557 0.44883218 1.397644 0.5458469

conv2.weight f4 [31, 1, 1, 31]
00000000: 20f7 a8be 8570 1ebe d3e3 223d 77a0 45bd
00000010: a9bb 973e b8b0 163d 3085 5c3d c920 87bb
00000020: 84e2 02be aac5 62bb 8cec ba3d f23d 58be
00000030: 1b1e 19bd 6de1 febd e590 a5bd 26e9 0b3e
00000040: d1bf e23d b9ac eb3c 0e8e 573d f7e1 603c
00000050: 1c22 4e3d 39f1 933e 60b8 713d 5b49 ae3d
00000060: e3c0 8b3b 6d38 303d 4b3c ef3d fec1 3e3e
00000070: 7ced 07ba 7ebf ce3d da19 c1bc 1966 483e
00000080: 247f d5bd 190b c3bd c73a 503d ac90 6f3d
00000090: 26d8 64bd db6b 713e cc19 d33c bfaf 9b3d
000000a0: 4cf6 abbe 8fa2 4dbd 122c c53d 5a87 b53c
000000b0: 0206 293e fc7e 023e f663 573b 6301 5fbd
000000c0: ef19 e6bd c3ac 083d 795c 133d df19 2fbd
000000d0: 9c35 023e 4e90 d43d 0f5f 29be f69b 2abe
000000e0: fd44 aa3d b1a4 083c 8849 233d 76e7 483e
000000f0: 2c11 e03c 02e8 9d3d 4c94 09bd 878a 98bd
00000100: c8ce 0cbe 4709 de3d 2e90 79be 8838 10be
00000110: 030d 1fbd d645 6e3e 6bef 9d3d 00d9 22be
00000120: 8a19 bbbe 75f9 783d 95a1 383e 5a12 e93c
00000130: cf96 093d 20b3 663c 0b5c 65bd 964f d2bc
00000140: a535 07be 8119 5e3e f131 763d acff 983d
00000150: 2d99 d53b be45 e3bc 8c84 523e 7a05 0e3e
00000160: 0fe4 96bd 4dfa 953e 0175 d0bd 1585 3e3e
00000170: 732b 1fbe 72c6 10bc fb46 10be e12a d8bc
00000180: 27bd 29be bb11 bb3d b35b 973e f9e5 b5bd
00000190: 53af e1bc 985b 583d e062 eabd b4a4 8e3d
000001a0: b6e2 253e 7e14 46bd 8204 453e e437 df3c
000001b0: 1892 7abd 20fd 2e3e 590f f33d 8822 6c3c
000001c0: 24c1 1e3d 13cf 5fbc 8dc4 843d 0b39 a73d
000001d0: 5153 3ebe c60b 703e 68f1 6b3e bb1f 933d
000001e0: 6951 c93d 0e8c 5ebe 543f 1e3e 48ac acbe
000001f0: dda2 b33d a249 113e 7147 8b3d 92ee 813e
00000200: 82cc 57be 0d03 63bd 5896 b13d 86d2 953d
00000210: 73b0 c73d 33cb 77be 1341 ffbd 31f1 9fbc
00000220: 8a70 b53e 31ed 1dbe 89bc 00bc ecee 703d
00000230: 077b a4bd 9198 60bd 885e 043e 3f4e 00bd
00000240: c6fc d03d 4aaa 213d 4eb7 4ebd 0e3d 653e
00000250: f830 0cbe b2a6 0c3e cf02 843c 4bf3 283d
00000260: 1221 6f3e 90a6 abbd f98b cfbc edc7 d53d
00000270: 550c 76bd 0c39 6f3d f448 ba3d 8fe2 773d
00000280: b784 8e3c 6e82 d23c 6f07 3ebe 92b8 0b3d
00000290: 7b25 a23d abfe a93e f913 59bd 6fa0 db3d
000002a0: bf57 2a3d 2025 c43b 41de 803d bea3 173e
000002b0: dbd0 24be 712a 193e 6408 5b3d ff8c 85bd
000002c0: 6c2c 743e af3f 66bd 4f98 9a3d 62ce 383e
000002d0: 40fa d3be bf7a 8f3c 42dc 82bc 11c3 94be
000002e0: 4451 8cbd 6f59 7e3d 75ad 0ebd 5c8b 8bbe
000002f0: 3de7 c1bd ce33 0abd 35c6 483e 6d2d 4f3d
00000300: 1df7 36bd 2a63 94be 62ce b33d ef09 16bd
00000310: 8e48 66bd bd79 473c 4813 263e dab9 103e
00000320: 8c26 4d3d 4309 fdbd b536 6cbd 78f9 7cbd
00000330: 2768 c33d 2fca 81bd 9984 9bbe af1c f7bd
00000340: e940 a5bd f70c 7e3c 423f 2c3d ebd1 a13d
00000350: 0b98 91bd 809a 90bd f0c5 143e 7935 4e3b
00000360: a87d 433e 6a2b 79ba 2a99 09be 05a7 fdbc
00000370: f598 a63d 9535 bebd eb47 31be 0c06 babd
00000380: ca63 593e 7a46 323d c877 edbc 3266 573d
00000390: 251c 24be 4351 21be d727 fc3e 1bef cd3d
000003a0: aa78 f93d 08ef c1bd d77e 3d3d 80dc 363d
000003b0: 0bb9 31be 25a6 36bd 0c41 1a3e 70a9 7cbe
000003c0: 743d 043d c15c 01bd 16b9 a13e 2bd4 353d
000003d0: ade7 b7ba 11cd 80bc a61d 0dbe 32de 84bd
000003e0: 753a 4c3e 5e08 6abc a4e2 973d e7a1 58bd
000003f0: f690 24be 505f c6bd 1de2 813d 2262 35be
-0.3300104 -0.1547261 0.03976805 -0.048248734 0.2963536 0.036789626 0.053837955 -0.0041237813
-0.12781721 -0.003460268 0.09127149 -0.2111738 -0.037382226 -0.1244534 -0.08084277 0.13663158
0.11071742 0.028768884 0.05262571 0.013725749 0.050325498 0.28894976 0.059013724 0.08510085
0.0042649372 0.04302256 0.11681422 0.1862869 -0.0005185229 0.10095118 -0.023571897 0.19570197
-0.10424641 -0.09523601 0.050837304 0.05848758 -0.055870198 0.235763 0.025769137 0.0760188
-0.33586347 -0.050203856 0.09627546 0.022159267 0.16506198 0.12743753 0.0032865978 -0.05444468
-0.11235415 0.033367883 0.03597686 -0.042749282 0.12715763 0.103790864 -0.16540168 -0.16661057
0.0831394 0.008340047 0.039865047 0.19619545 0.027351938 0.077102676 -0.033588693 -0.07448297
-0.13750756 0.10841613 -0.24371406 -0.14084065 -0.03883077 0.23268828 0.07711681 -0.15903091
-0.36542922 0.060784776 0.18030389 0.028451134 0.033591088 0.014080793 -0.055995982 -0.025672715
-0.13204058 0.21689416 0.06010622 0.074706405 0.006518504 -0.027743217 0.20558375 0.13869277
-0.073677175 0.29292527 -0.10178567 0.18605454 -0.15543918 -0.008836376 -0.14089577 -0.026387634
-0.16576062 0.09134241 0.29562148 -0.088817544 -0.027549421 0.052821726 -0.1144464 0.069650084
0.16199765 -0.048359387 0.19240001 0.02724833 -0.061174482 0.17088747 0.11868162 0.01441253
0.038758412 -0.01366021 0.064828016 0.08165177 -0.1858647 0.23441991 0.23041308 0.071837865
0.09829981 -0.21733114 0.15453845 -0.3372519 0.08771298 0.14188245 0.06800736 0.25377327
-0.21074107 -0.05542283 0.08671254 0.07315545 0.09750452 -0.24198608 -0.12463584 -0.019524189
0.35437423 -0.15422513 -0.00785745 0.058821604 -0.08031278 -0.054833 0.12926686 -0.03132462
0.10204463 0.03946904 -0.05046778 0.22386572 -0.13690555 0.13735464 0.01611462 0.041247647
0.23352459 -0.08381379 -0.025335299 0.104385234 -0.060070354 0.058404014 0.09095946 0.060518797
0.017397268 0.02569696 -0.18557523 0.034111567 0.07917305 0.3320211 -0.052997563 0.1072396
0.041587587 0.005985871 0.062923916 0.14808556 -0.16095297 0.14957596 0.0534748 -0.065210335
0.2384507 -0.056213077 0.07548582 0.18047479 -0.41401863 0.017514585 -0.015974168 -0.29055074
-0.06851438 0.06209701 -0.03483339 -0.2725476 -0.09467933 -0.03374081 0.1960686 0.05058043
-0.04466926 -0.28981906 0.08779599 -0.036630567 -0.056221537 0.012175021 0.16218293 0.14133397
0.05008559 -0.12355282 -0.05766936 -0.06176135 0.0954135 -0.063373916 -0.303746 -0.12066018
-0.08069021 0.015506021 0.042052515 0.07901367 -0.07109078 -0.070607185 0.14528632 0.0031464978
0.19090903 -0.00095050654 -0.13437334 -0.03096343 0.08134643 -0.09287564 -0.17312591 -0.090831846
0.21229473 0.043524243 -0.02898778 0.052587695 -0.16026361 -0.15753655 0.49249145 0.100553714
0.12181218 -0.0946942 0.046263542 0.04464388 -0.17355745 -0.04459204 0.15063876 -0.2467401
0.03228517 -0.031582598 0.31586522 0.044391792 -0.0014030837 -0.015722783 -0.13780841 -0.06487693
0.19944175 -0.014284221 0.07416275 -0.052888777 -0.16070923 -0.09686148 0.06341956 -0.17713216

conv2.bias f4 [31]
00000000: 5a41 03bc 9fc6 8fbd e866 10be e2e7 e53d
00000010: e0d9 84bd 5141 b4bd cef4 333e 1227 073e
00000020: 5bf0 a13d e4e3 46be 46d0 383e 6026 55bd
00000030: c6f9 dabc a777 e83c 3126 0fbe ac8c e9bd
00000040: b1b7 10bd c395 1dbe 2082 01bd d314 c43d
00000050: 673f c0bd 1be1 6abc 03ea b03d bdef 9a3d
00000060: 0ec3 353e c05f d4bd 04ca 9dbd e8d1 40be
00000070: c99e ebbd 5317 6f3d 2eed 6abd
-0.0080111865 -0.07020306 -0.14101756 0.11225869 -0.06486869 -0.088015206 0.17573854 0.13198498
0.07907172 -0.19422871 0.180482 -0.05203855 -0.02673043 0.028377367 -0.13979413 -0.11403784
-0.03533143 -0.15389161 -0.031618237 0.095742844 -0.09387093 -0.014335896 0.08638384 0.07565258
0.17750189 -0.10369825 -0.07704547 -0.18830073 -0.11504895 0.058371853 -0.0573551

bn2.weight f4 [31]
00000000: 59a7 8b3f 729c 993f 40fb 853f 2046 bb3f
00000010: d52d a23f f8c5 b93f 0162 923f 723c aa3f
00000020: 3bc4 aa3f 42e4 703f 9d1d 563f 1e56 773f
00000030: 51a0 883f 5641 ab3f 3b4d 8b3f bb68 713f
00000040: 477b 663f 0ae2 853f 604a 7c3f c198 883f
00000050: 708c 963f 4c38 743f 9bf9 8f3f 03d4 853f
00000060: bba8 863f 3994 a23f 5ebb 8a3f a922 ab3f
00000070: e138 803f 75be 883f 2851 bc3f
1.0910445 1.2000868 1.04673 1.4630775 1.2670237 1.451354 1.1436158 1.3299696
1.3341135 0.94098294 0.83638936 0.9661578 1.0673925 1.3379314 1.0882944 0.9430043
0.90031856 1.0459607 0.9855099 1.0671617 1.1761608 0.953984 1.1248049 1.0455326
1.0520242 1.2701484 1.083843 1.3369952 1.0017358 1.0683123 1.4712267

bn2.bias f4 [31]
00000000: e04b f3bd eafc 973d 2a6f ee3c 3ed5 e63c
00000010: 3e63 053e a62d 4abd 2362 023e 538d b23d
00000020: a677 c6bd d0e0 a8be 6aed febe b868 f13b
00000030: 22d3 b1bd 8c2e 95bd 662b 16be 49a8 90bd
00000040: 250c f6be 92aa 61be f20d 1dbe 498d d4be
00000050: 998d 81be 1d84 01be 0ff6 91bd 7f3f 16be
00000060: 92b1 f03d 30a8 e83d 5054 03bf d91d d7bc
00000070: f8fe 0bbe 497c 6ebe 2a2c 7f3e
-0.118797064 0.074212864 0.029105742 0.028177854 0.13026139 -0.04935994 0.12732749 0.08718362
-0.0969079 -0.32984018 -0.49790508 0.00736722 -0.086828485 -0.07284269 -0.14664993 -0.07063348
-0.4805614 -0.22037724 -0.15337351 -0.41514042 -0.25303343 -0.12648053 -0.0712701 -0.1467266
0.11752619 0.11360204 -0.51300526 -0.02625935 -0.13671482 -0.23289599 0.24919191

bn2.running_mean f4 [31]
00000000: e5e8 8a3e 76be 4abd 4d9f 9bbe 56e4 1c3e
00000010: 3289 5c3e e2e0 393e 8467 90bd e907 193d
00000020: 4ce9 92bc dca0 00be 8a3f 8ebe 8558 9c3e
00000030: 66ed 2bbe 7be2 64be 56e3 bd3c c63d 2abe
00000040: f70b 0bbe 6e1e a0be db7a d9be e633 8abe
00000050: 4deb 00bf d86e 75be 04ec af3a df25 2fbd
00000060: b83f 643d 9673 f6bd 140d a5bc 249b 3cbf
00000070: 49dd f5be 2c1a 64be 77b8 77be
0.2713081 -0.049498044 -0.30394974 0.15321478 0.21536711 0.18152192 -0.07050994 0.03736106
-0.01793351 -0.12561363 -0.2778285 0.30536285 -0.16789779 -0.2235202 0.023179691 -0.16625127
-0.13578783 -0.31273216 -0.42476544 -0.2699272 -0.5035904 -0.23968065 0.0013421779 -0.042760726
0.05572483 -0.12033765 -0.020147838 -0.73674226 -0.4802039 -0.22275609 -0.24191462

bn2.running_var f4 [31]
00000000: 78a7 333e cd96 833d 9f33 473e 3edc fb3d
00000010: d3f8 aa3d 1948 a43d c4c6 223e 80e8 ec3d
00000020: ac8b b83d 76f8 f03d c6d3 7c3d cdbe 423e
00000030: 8f0b c93d da33 ba3d f714 bf3d b376 ef3d
00000040: 0d32 b53d fbc8 cd3d d9cc 013e ff75 8f3d
00000050: 3346 d63d b141 173e 9ddb c33d 6040 3a3e
00000060: c5ab 1e3e 95ac 6e3d 1c3e b13d a9c6 b03d
00000070: 6b9f 033e e4a5 2a3e f544 ef3d
0.17544353 0.06425247 0.19453286 0.12297867 0.08348241 0.08021564 0.15896136 0.11567783
0.09011015 0.1176614 0.0617254 0.19018097 0.09816658 0.09091921 0.093301706 0.11692562
0.08847437 0.100480996 0.126758 0.07004928 0.10462608 0.14771153 0.09563372 0.1818862
0.15495212 0.058270056 0.086544245 0.086316414 0.12853782 0.16664845 0.116830744

fc1.weight f4 [128, 349]
00000000: e610 afbd 4e9d f5bb 5c23 e1bd beee 1c3d
00000010: 6ab9 b0bd 7a5f 80bc 359c 56bd 58bd a43d
00000020: bf06 78bd 184e 543d 28a9 aebd 6e7b ad3d
00000030: f27a 47bd e9c7 ebbd d282 d6bd 08db bd3d
00000040: 893b babd c4a1 d33c aa11 0dbe 18f4 94bc
00000050: 1af0 f9bd f02c b9bd 88c8 bf3d baab edbd
00000060: 49ee adbd f9ea debc 7990 6cbd 8ced 5e3d
00000070: fe00 3c3d fa8b cfbd 3b51 a93d 1497 3a3e
00000080: 964d 9ebd 3b9c fd3c 76ae d43c 7361 353d
00000090: da35 c7bc ae34 343d 57f9 513c 921b 91bd
000000a0: a68d d53d 2cce 21bc be13 1cbd 20fc b2bd
000000b0: a295 92bb 8aef 863c f5b2 bdbb 0e82 13bc
000000c0: 6f8d 623d 17fd 37bd 6196 c9bc f973 7fbd
000000d0: c5a2 84bd 4e15 f3bd 3e2a 853d 055a 4fbd
000000e0: 4255 0a3d 03a7 19bc 7f29 eabc 7e11 05bd
000000f0: 9edf c4bc 306a d53d fba2 73be e092 cfbc
00000100: d227 7bbe c77e 2e3d 83a7 33bd be3a 34bd
00000110: 6210 d2bc 30b7 eb3d 09a3 eb3c 0198 fa3d
00000120: 7ab3 f23c 63ac c4bd ae23 a93d 1e32 81bd
00000130: 4cbf 3ebd 1381 45bd 197e 7e3c 2aac 423b
00000140: 9168 383d 1830 2f3d f87c d03d 5998 933d
00000150: 39a0 c3bc d646 fe3d 1acc 01be d621 0bbd
00000160: b062 72bd 8a13 dc3d f4a7 6ebd 158f 0dbd
00000170: a0aa 01bc 0752 fd3d 395a 5a3d bd0a d33c
00000180: 5fb1 e4be 99f3 473d 4d82 5b3d c918 71bc
00000190: 7caf cb3d 91fe 913d 0844 c2bd ce42 a83c
000001a0: 4a61 adbc 67ab 523c a625 4e3d 8c73 b8bc
000001b0: 92ae 79bd 20f7 bd3c 5eb5 803d 8a6d c53c
000001c0: 7399 82bd 3926 ddbc 982c 8abd 1714 96bd
000001d0: a702 ba3d 111e 0fbd 0c75 8c3d 9b8b f33b
000001e0: ca54 853d e11f a73c c87b 6abd 01fe 6bbd
000001f0: 7123 b83c 074c 7fbd 895d 5b3d 455e 7cbd
00000200: a71a c73c 91d3 413b 46e5 973d da41 b5bd
00000210: 5a54 65bd 1f67 7b3d fbcb 92bd b428 73bb
00000220: 1287 e83c da72 483c 0680 61bd 16e4 9d3d
00000230: 2efd 863d b93e 45bc b5b2 9e3d 7191 8ebd
00000240: e484 97bc a389 2dbd dd15 88be 6f1c ab3b
00000250: 01cf 43bd 8742 9fbd 2dc5 0ebd ae2b 6dbc
00000260: a2d5 9c3b 7c5f 84bd 8180 22be f668 9dbd
00000270: 195f 40bd 62eb 8f3d 01d3 b139 e9c4 ce3b
00000280: 4192 27bd eabb f6bb b896 bb3b 7f92 4bbd
00000290: af9c 43bc 4552 f6bd a264 ca3d 9839 3fbd
000002a0: 6bd5 54bd c49f 173c 8069 6f3d 0e94 3fbd
000002b0: d950 a4bc c061 593d c9cc 93bd b18a 65bd
000002c0: 55ec 6bbd 590c adbd 06bd 24bd c71c a8bd
000002d0: e4e3 b1bd 85db 6fbd 9c53 c3bd 2603 4c3c
000002e0: f0c1 2bbc 4c94 47bd 8668 8ebd 45fb c43d
000002f0: d01d 50bc 9eb2 843c e124 01bc 537a 58bb
00000300: 2115 92bd 79df 55bd bcef d23a cbff 71bd
00000310: ce0c 293e 8cf5 6fbd 1fac c93c 95f5 e8bd
00000320: fafc 0ebd 4acc a43d 2345 e4bb 1433 06be
00000330: 4baa 23bd 684b 2fbc 7f4f 98bc dd18 8c3d
00000340: 0cae 9c3d da1c 573c cf52 a5bd ff38 8abc
00000350: b142 61bc 6760 acbd 4fa1 88bb 53b2 003e
00000360: a77e 34bc 54a6 c83d 8e78 c93d 5427 953a
00000370: ad9e ad3d 9750 633d 7fba dc3c d5cb 05be
00000380: 6a8d 4bbd 69a3 813d 4234 b9bd d3b7 d4bd
00000390: 8d56 06bc 8192 803d e5e6 983d 977e 54bd
000003a0: 8107 8bbc f270 21bd 0e45 78bd f5e8 06bc
000003b0: a7c1 ea3b a90d 7d3d 2990 5cbd 2f5f cdbd
000003c0: 07b4 be3d 6a80 ee3c 5761 6d3c 19fd 4dbd
000003d0: fd82 e9bc 5892 953d ece7 893c 4631 8a3d
000003e0: 3cdb 65bd 85c8 b6bc 7d7c e1bd 01ee a23d
000003f0: e512 66bd a1bb 023d c20e 48bd 1c17 093e
-0.08548145 -0.007495559 -0.109930724 0.03831362 -0.08629115 -0.015670527 -0.052395064 0.08043927
-0.06055331 0.05183229 -0.08528358 0.08470808 -0.048701234 -0.11512739 -0.10474171 0.092702925
-0.09093387 0.025833972 -0.1377627 -0.0181828 -0.12203999 -0.09041774 0.0936442 -0.1160502
-0.08492715 -0.027211653 -0.057754967 0.05442576 0.045899384 -0.1013412 0.082674466 0.18221694
-0.07729642 0.030958286 0.025962096 0.044282388 -0.02431767 0.04399555 0.012815795 -0.07085337
0.10427408 -0.009875815 -0.038104765 -0.08739495 -0.004473404 0.016471643 -0.0057891556 -0.009003175
0.055310663 -0.0449191 -0.024607839 -0.06236646 -0.06476358 -0.11869298 0.06502198 -0.05062296
0.033772714 -0.009378198 -0.02858424 -0.032487385 -0.02403241 0.10420644 -0.23792641 -0.02533859
-0.24526909 0.042601373 -0.043860923 -0.044001333 -0.025642578 0.115095496 0.028764265 0.12236024
0.029626597 -0.09603193 0.082587585 -0.06308387 -0.046569154 -0.048218798 0.015532994 0.0029704669
0.045021597 0.042770475 0.10180086 0.072067924 -0.023880111 0.12415855 -0.12675515 -0.033967815
-0.059176147 0.10745914 -0.05826564 -0.03456028 -0.007914215 0.12369161 0.0533087 0.025761956
-0.44666573 0.048816297 0.05359106 -0.014715382 0.0994558 0.07128633 -0.09485632 0.020539667
-0.021164555 0.012858248 0.050328873 -0.022516035 -0.0609575 0.023189127 0.06284593 0.024100084
-0.06376924 -0.026995765 -0.06746787 -0.073280506 0.09082537 -0.034940783 0.068582624 0.0074324138
0.06510313 0.020400943 -0.057246953 -0.057615284 0.022477837 -0.062328365 0.053556 -0.06161334
0.024304701 0.0029575566 0.07416777 -0.08850451 -0.055988647 0.06137764 -0.071678124 -0.0037103118
0.028384719 0.012234414 -0.055053733 0.077095196 0.06591259 -0.01203888 0.077489294 -0.069613345
-0.018495984 -0.04236759 -0.2657918 0.0052218954 -0.047804836 -0.07776361 -0.03485601 -0.014475746
0.004786209 -0.06463525 -0.15869333 -0.07686035 -0.046965692 0.070273176 0.0003391728 0.0063100946
-0.040910963 -0.0075297253 0.005724754 -0.049700256 -0.011939212 -0.120274104 0.098824754 -0.046685785
-0.051961344 0.0092544 0.058450222 -0.046772055 -0.020058082 0.053071737 -0.07216794 -0.05604047
-0.05759843 -0.08449621 -0.04021933 -0.08208614 -0.08686045 -0.05855896 -0.095374316 0.0124519225
-0.01048325 -0.04872541 -0.0695353 0.09618238 -0.01270242 0.016198453 -0.007882328 -0.0033031895
-0.07132936 -0.052215073 0.0016093175 -0.059081834 0.16508791 -0.05858378 0.024618207 -0.11374966
-0.034909226 0.080467775 -0.0069662496 -0.13105422 -0.039957326 -0.010699131 -0.018592594 0.0684068
0.07650384 0.013129437 -0.08072435 -0.016872881 -0.013748811 -0.08416825 -0.00416962 0.12568025
-0.011016524 0.097973496 0.09837447 0.0011379519 0.08477531 0.05549678 0.026944397 -0.13066037
-0.04969541 0.06329996 -0.090431705 -0.10386624 -0.008199346 0.062779434 0.07465915 -0.051878538
-0.016971352 -0.039414354 -0.06061273 -0.008234252 0.0071641984 0.061780605 -0.05384842 -0.100279205
0.09311681 0.029113967 0.01448854 -0.0502902 -0.028504843 0.073033035 0.016834222 0.067476794
-0.05611728 -0.022312412 -0.110100724 0.07955552 -0.056170363 0.031917218 -0.0488422 0.13387722

fc1.bias f4 [128]
00000000: ceaa 3a3b 7abb fbbb 5c58 b1bc d282 373d
00000010: 25c0 35bd b0be 99bc 3982 003d 90ec 1bbd
00000020: 9d6b 78bd efaf 1e3b 3791 083d 83ca 413d
00000030: 796e 893c f23f 3abd 9b4d 65bd e065 85bd
00000040: ecd6 c1bc 611b a63c cc4b 953c a2f5 3f3d
00000050: 6171 6ebc cb77 f63c c72c 4fbc 0479 0b3d
00000060: cf08 75bd 427f 61bd 8673 5cbd b739 e53c
00000070: d7c4 8dba b9f1 4ebc 4cb9 153c 62d8 6fbc
00000080: 84ed 5abb 319e 9dbc eb01 78bd d97f f8bc
00000090: 5f06 463c ef92 a43c fa87 04bd b7bc b43c
000000a0: 86e7 cf3b 5c5d 9abd bf59 57bd 5e41 ba3c
000000b0: 6f3a 63bd bb1d 39ba 4f99 62bd 817a 43bd
000000c0: 31c9 6cbd ea3e 493c 4e5a 3b3b f44e 1ebd
000000d0: 2d2b f7bc d59a 7bbd 0f00 10bd f4a8 0abd
000000e0: 6cab a3bc d4f9 77bd 63ce ffbb a3c7 8d3b
000000f0: da1e 67bd efd4 26bc ef2e 76bd 8a44 2c3d
00000100: 3518 783c af48 10bd 8374 31bd cd80 5dbd
00000110: da4a 48bd 56f7 353d e8fe c03c d4ee 0cbd
00000120: c314 7fbb 7fa2 f83c f396 cf3c f8ac 09bd
00000130: 9367 a33c 888d 083b 1be3 85bc 116c 6ebc
00000140: 92ad 70bd 58e7 98bc 883c 6e3c 7659 18bc
00000150: 642f e0bc 6500 09bc b72a 64bd 3f52 d93b
00000160: 4407 57bd d5de 733b 7fb1 4cbd 8812 90bc
00000170: 0f5e 23bd 2c6f a4bd f64a 36bc 83d9 39bc
00000180: 9dcf 36bd c993 74bd 198c 033a 0844 c6bc
00000190: 5620 8dbc 9690 81bc 4fd4 dc3c 8017 293d
000001a0: e8bc ccbc ff28 38bc 96a8 b93c 3268 ca3c
000001b0: 4ae4 3b3a 9be4 f93c 4ecb 39bd 7948 ebbb
000001c0: 2475 8bbc a64e 1d3d eec9 3bbd 421d 863c
000001d0: 7741 6e3c a105 89bc 4b14 8fbd 13f4 dd3b
000001e0: dc2b 63bd 35aa 3b3d 6e16 c03c 05a8 50bd
000001f0: 4233 0e3c ae28 15bd f690 d0bc d4d3 e6bc
0.0028483155 -0.007682261 -0.021648578 0.044802494 -0.044372696 -0.018767685 0.03137419 -0.0380674
-0.060649503 0.0024213751 0.033341613 0.04731227 0.01677631 -0.04547114 -0.055982213 -0.06513572
-0.023662053 0.020276727 0.01822462 0.046865113 -0.014553399 0.030086419 -0.012644953 0.034050956
-0.059822854 -0.055053003 -0.05382111 0.027981622 -0.0010816109 -0.012630873 0.0091384165 -0.014638992
-0.003340573 -0.01924047 -0.060548704 -0.0303344 0.01208648 0.020089595 -0.03235624 0.022062642
0.0063447384 -0.07537338 -0.052575823 0.022736248 -0.05547565 -0.000706162 -0.055321988 -0.04772425
-0.05780906 0.012283066 0.0028587761 -0.038649514 -0.030171955 -0.061426956 -0.035156306 -0.033852533
-0.019979201 -0.06054099 -0.0078065856 0.004326777 -0.056425907 -0.010182603 -0.060103353 0.04205755
0.01514249 -0.035225566 -0.043324005 -0.054077912 -0.04889951 0.04442533 0.023559049 -0.03440745
-0.0038922287 0.030350922 0.025340533 -0.03361222 0.019946849 0.0020836312 -0.016343644 -0.014552132
-0.05875928 -0.018665 0.014540799 -0.009298673 -0.027366348 -0.0083619105 -0.0557048 0.006632119
-0.052497163 0.0037211676 -0.04997396 -0.017586961 -0.039884623 -0.08029017 -0.0111262705 -0.011343363
-0.04463159 -0.05971125 0.00050181296 -0.024202362 -0.017227333 -0.015816014 0.026956705 0.041282177
-0.024992421 -0.011240243 0.022663396 0.024707887 0.00071675016 0.030504515 -0.045359902 -0.0071802703
-0.01702363 0.038405083 -0.045846872 0.016371373 0.014541975 -0.016726317 -0.069862925 0.0067734807
-0.05546175 0.04581662 0.023448195 -0.050941486 0.008679213 -0.03641575 -0.025459748 -0.02817718

fc2.weight f4 [1, 128]
00000000: 6d6d 4e3c 6c27 2f3d 2d86 0a3d f6ec 063c
00000010: f784 da3c 2f76 00bd 1fea fb3c 05dc 19bd
00000020: df05 bc3c 46d2 0e3d 4dc5 253d 1133 10bd
00000030: fb43 1ebd ab91 ad3b ca5d fa3c bc4b e2bc
00000040: 04ef ae3c afc7 c23c 7c52 ac3c 7604 ca3c
00000050: dab9 7e3b 3a3f 65bc 15f0 dcbc 5787 e03c
00000060: e87f 4b3c f547 1f3c 4d19 743d 3212 a4bc
00000070: ccbd b4bc 140b 8a3c e5b9 0c3d 395c 1bbd
00000080: 1802 cbbc 7efe 5bbc 507d debc 55f2 65bc
00000090: a250 5a3c 5f36 eabc 1150 323d 1a5f 063d
000000a0: 2f5b 903c 026b bf3c 19d8 5bbd 3b5a 023d
000000b0: b058 03bd f4cc a23c 5be4 253c 7e8f 943c
000000c0: 78b1 bdbc 4b87 a3bc 174e e53c 8cd1 e0bb
000000d0: 89f1 a6bc b0a6 c3bc 5bbd 2d3d 1a13 18bd
000000e0: 505c 973c 9914 193c 7852 0d3d 7d0a 253d
000000f0: be2c 8cbc b9ae 9b3c 936c 8a3c 9fc2 b53c
00000100: ced6 c33c ee33 273d 7b06 0dbd 6954 ddbc
00000110: e9fe 0dbc 13af 3c3c 0f51 a7bc ea32 a8bc
00000120: 2f98 df3c f903 0dbd 2e44 de3c dc6a bebc
00000130: 6782 163d f26d e63c 5e0f 1f3c e565 183c
00000140: 1c42 9d3b 8c73 3fbd 4519 9ebc c380 00bd
00000150: 3585 0f3d 8230 d33c 00f7 24bd cb98 2ebb
00000160: 6189 043c 563b 2a3c 6c6a 9b3c 89d3 76bd
00000170: ca2e f33c e0e4 723b 4c4d 99bc ec8e 6dbc
00000180: b1e0 603c a8e7 d639 4c21 7d3c 5475 11bd
00000190: 7ffb 07bd d5b6 12bd f498 f23b 8dea 2b3d
000001a0: b349 cc3c c4af 6ebc 4053 f33c 5a71 1a3d
000001b0: a6b2 113d d277 6a3c 9a8e 003d c7ee 063c
000001c0: 3556 983c 1891 ecbc 4615 ab3c b67a d9bc
000001d0: e55b 9b3c 8c00 6ebd 7f82 8d3b 723a 123c
000001e0: eac3 243c cb5f efbc a331 b3bd 503f 8d3c
000001f0: 2f0e 34bc 00b5 e9bc c198 123d 4c80 e53c
0.012599331 0.042762205 0.033819366 0.008235207 0.02667473 -0.03136271 0.030751286 -0.037563343
0.022952018 0.0348685 0.040471364 -0.03520495 -0.03863905 0.005296906 0.0305623 -0.027624004
0.021354206 0.023776857 0.021035425 0.02466033 0.00388681 -0.013992125 -0.026969949 0.027408285
0.012420632 0.009721746 0.05959444 -0.020028207 -0.022063158 0.016850986 0.03435697 -0.037929747
-0.024781272 -0.013427375 -0.027159363 -0.014034827 0.013324888 -0.02859038 0.04353339 0.03280554
0.017621605 0.023366455 -0.053672884 0.03182433 -0.032067 0.01987312 0.010125245 0.018134829
-0.023155913 -0.019961974 0.027991338 -0.0068609174 -0.020378845 -0.023883194 0.04241691 -0.03712759
0.018476635 0.00934329 0.034502476 0.040293206 -0.017111178 0.019004213 0.016897475 0.02218753
0.023906138 0.04082101 -0.03443001 -0.027017789 -0.008666732 0.01151635 -0.020424394 -0.02053209
0.027294246 -0.034427617 0.02713212 -0.023244314 0.036745455 0.028128598 0.009708254 0.009301637
0.0047991406 -0.046741053 -0.019299159 -0.031372797 0.035039145 0.025779966 -0.04027462 -0.0026641365
0.008089394 0.010390123 0.018971644 -0.06026033 0.029685397 0.003706269 -0.018713616 -0.014499407
0.013725446 0.00040989858 0.015449833 -0.035512283 -0.03319883 -0.035818893 0.0074034873 0.041971732
0.024937486 -0.014568273 0.029702783 0.037705757 0.035570763 0.014310794 0.031385995 0.00823564
0.018595794 -0.02887778 0.020884167 -0.026547771 0.018964717 -0.05810599 0.004318535 0.008925067
0.010056475 -0.029220482 -0.08749702 0.017242104 -0.01098971 -0.02852869 0.03579021 0.028015278
