SMA_C4_gradient inner argmax_FelemFunctional_ray/model/ap_model.pth (torch, 191350 bytes, 15 tensors)

conv1.weight f4 [31, 1, 1, 31]
00000000: 0274 25be ed7f aa3b 8db0 203e cda4 a0bd
00000010: 6707 d33d fea6 acbd 254a 58bd 06dc 17be
00000020: a31a da3d 53a5 a7bd 6a6e 10be 304b bebd
00000030: b987 093e 529b 1c3e 451e d0bd b9b5 c83d
00000040: d853 9f3d 6d8f ef3d 5b47 36be c766 77bc
00000050: 6a0c cfbb 66d6 5f3c 0aa9 edbc 80cc b7bc
00000060: 1eb3 a13d 6cdb 39be e2a0 22bd 70a2 8ebc
00000070: 637f 30be c7de c13d 6cf2 a0bc f40d b33d
00000080: 762d 6e3c 7246 acbc ae17 9fbd 217c 10be
00000090: 7abd c13d 4cc1 01be a1be 4f3e 7e78 2c3e
000000a0: 94c2 d43d 87d4 133e af56 bfbd 9e37 eb3c
000000b0: ea6e 473d 80bf 2ebe 72f5 c83d d9ac c7bd
000000c0: c520 42bb c049 0a3e ae14 73bd ca79 b3bc
000000d0: 1bfb 203b 3167 d53d 2331 3abd b1db f03d
000000e0: 3d31 f93d 548c 35bd 2e22 a03d c4ee f73c
000000f0: 138c 49be 64ee f6bd 8627 303e 3e85 d33d
00000100: 5a0a cfbb d800 e9bd 0ddc b9bd ac65 233e
00000110: 3c9a d0bd 4648 d43d b4e1 c93d abeb 8a3d
00000120: ec29 10be afd6 cbbd 7d7e 64bd 9660 933d
00000130: 27af 34be 46db 053e 6b0e 13be 8f01 c33c
00000140: 55b0 0f3e aacf 1fbe b3eb edbd 5d39 dd3d
00000150: dca4 983b 0562 0e3e 085e 06ba 5ef7 e83d
00000160: a5de 853d 6bac d6ba b414 2cbe 3979 f83c
00000170: 8da4 483d 82bf 1e3e e8f9 f1bd 0efc ef3c
00000180: 2e4c 5ebb 0cac 3d3e cf6c 0e3e 3eb7 473d
00000190: 92ca c8bd 9f3c fc3d 1d4c 2e3e 3224 cb3d
000001a0: 2654 1bbd b5ac 263e e651 86bd 49e7 b53d
000001b0: 67cc 733d cd7c 0e3e f7fb 5d3b 6787 f53d
000001c0: 09f7 703d e29b 2b3e f528 8bbc 7706 aabc
000001d0: bd4a 01bd 4ec6 933d d14a a73d 8d55 f63d
000001e0: fecf fd3d 84f6 bbbd 0c70 063e 8b36 c53c
000001f0: e647 8e3e cece 20be 9ce8 e63d e201 1fbe
00000200: 5820 433e a6cd 83bd 1490 283e b220 003e
00000210: 8451 f53d ca4d e339 b96e 5d3d b489 01bd
00000220: 1f90 533d 4472 14be 1de3 9ebd d1eb 293e
00000230: d6cf 1c3e 03f3 37be 2694 a8bd 7245 30be
00000240: f48c c83c df3e dcbd 18fc cdbc 5aa3 21be
00000250: 1943 e4bc 8aaa 33be 6905 79bb 9167 c63d
00000260: 3e9d af3d 5a29 bfbd 4cfb a4bc 8eab e73c
00000270: 35cb 03be 6490 8dbc 4983 483d 50ac 483b
00000280: dc1b 33bd f273 5ebe 3f61 433d 0688 ecbc
00000290: 5364 e5bd 0e4d 383e 836d 8cbd 5434 ab3c
000002a0: 61d1 073e fde8 de3b 170f d23b 3904 933d
000002b0: 7b17 03bc e87d cb3c e5d6 203e e80a 003e
000002c0: 37c8 adbd c3c7 a23d 77df f0bd 8d48 313e
000002d0: 921e 3abe 4b0f 52be 3f8e 173e d748 f0bb
000002e0: 06bb 2ebe 006c aebd 9b65 233e 716d 27bd
000002f0: f6dc 113e 489e 573c 2a52 2ebe 9f15 07be
00000300: a905 863c 95fd e43d 4a43 ddbd 8cf1 093e
00000310: 3247 a0bd 557f febd 8574 8fbd 135a b8bd
00000320: 633a 3bbe 764e 2c3d f876 183d e058 36be
00000330: a4b5 e2bd 3b91 c93d faa9 233e 3a7d 7abd
00000340: 9785 b73d 23de 4b3c 4756 173e ecc3 243e
00000350: a791 c9bd 97d1 8d3d 41a7 783e 2529 b5bd
00000360: bfa2 563c 7228 34be 9376 cdbc 20f3 e8bd
00000370: fcfb c33d 18b2 2a3e a17d c1bc 375f 4b3d
00000380: 32c2 95bd 547f 22be b124 c5bc c8ff 06bc
00000390: 8f5f debd 4f55 a23d 5894 b93b bc63 663d
000003a0: 83f7 a7bc d4ec 623d 9a09 0cbe 4ef6 3b3c
000003b0: ef7e 45be 5d1e ea3c 0509 29be 1471 97bd
000003c0: 8dc6 573d e874 e73d d9bf 37be c862 5e3c
000003d0: e622 ea3d 2c2c 10bd 471a cfbd 5d4e 003e
000003e0: 514f 44be f745 c1bd fb83 adbd 3000 173e
000003f0: 5e99 143d 2bf0 0cbd edd1 dd3c 5ba9 28bd
-0.16157535 0.005203238 0.15692349 -0.07843933 0.10304146 -0.08430289 -0.052805085 -0.14830026
0.10649612 -0.0818583 -0.1410462 -0.09291685 0.1343068 0.15293625 -0.101620235 0.09800286
0.07779664 0.11697278 -0.17800657 -0.015100188 -0.0063186185 0.013661956 -0.029011268 -0.02243638
0.07895492 -0.18150109 -0.03970421 -0.01741144 -0.17236094 0.094663195 -0.019646846 0.08742896
0.014537206 -0.021029685 -0.077681884 -0.14109851 0.09459968 -0.12671393 0.20287563 0.16842839
0.10388675 0.14436541 -0.093427055 0.028713044 0.04868976 -0.17065239 0.0981244 -0.09749765
-0.0029621583 0.13504696 -0.059345894 -0.02190866 0.0024563733 0.10420073 -0.045457017 0.11760653
0.121675946 -0.04432328 0.07819019 0.03026522 -0.1968234 -0.12057188 0.17202577 0.10328148
-0.0063183727 -0.11377114 -0.090751745 0.15956753 -0.10185668 0.103653476 0.098575026 0.06783231
-0.14078492 -0.09953057 -0.05578469 0.07196157 -0.1764494 0.13071927 -0.14360969 0.023804454
0.14032109 -0.15606561 -0.11617222 0.10801957 0.0046583246 0.13904579 -0.0005125706 0.113753065
0.06536607 -0.0016378289 -0.16804773 0.030331241 0.048985053 0.15502742 -0.11815244 0.029294994
-0.0033919918 0.18522662 0.13908695 0.048758738 -0.09804262 0.1231625 0.17021222 0.09919013
-0.037922047 0.1627682 -0.0655859 0.08882005 0.059521105 0.13914795 0.0033872107 0.119887166
0.05882934 0.16758683 -0.016987303 -0.020755036 -0.031565417 0.07215558 0.08168567 0.12028036
0.12393187 -0.091778785 0.1312868 0.02407386 0.2778923 -0.1570389 0.112748355 -0.15528062
0.19055307 -0.06435709 0.16461211 0.12512472 0.119784385 0.0004335477 0.05406067 -0.031625465
0.051651116 -0.14496714 -0.07758162 0.16593863 0.15313658 -0.17963795 -0.08231382 -0.17213991
0.024481274 -0.10754179 -0.025144622 -0.1578497 -0.027864026 -0.17545524 -0.003799761 0.096877225
0.085749134 -0.09334059 -0.020139359 0.028280046 -0.12870486 -0.017280765 0.04895333 0.0030620284
-0.04372774 -0.21723917 0.047700163 -0.028873455 -0.11200776 0.17998144 -0.06856825 0.020898975
0.13263465 0.0068026767 0.0064104903 0.0717854 -0.008001204 0.02484031 0.15706976 0.1250416
-0.084854536 0.07948258 -0.117613725 0.17312832 -0.18175724 -0.20513646 0.14800356 -0.007332902
-0.17063531 -0.08516693 0.15956728 -0.040875856 0.14244446 0.013160296 -0.1702353 -0.13191842
0.01636012 0.111811794 -0.1080385 0.13471049 -0.078260794 -0.124266304 -0.07004646 -0.09001555
-0.18283992 0.042067014 0.037222832 -0.1780734 -0.110698014 0.09842154 0.1598281 -0.06115458
0.08961027 0.012443098 0.14779006 0.16090363 -0.09842234 0.06924742 0.24282552 -0.08845738
0.013100325 -0.17593554 -0.025080955 -0.113744974 0.095695466 0.166695 -0.023619475 0.04965135
-0.073124304 -0.15868884 -0.024065347 -0.008239694 -0.1085807 0.079264276 0.005663436 0.056247458
-0.020503765 0.05540164 -0.13675538 0.011472298 -0.19286703 0.028578931 -0.16507347 -0.07394615
0.052679587 0.11301595 -0.17944278 0.013573356 0.114324376 -0.035198376 -0.10112434 0.12529893
-0.19170882 -0.09437173 -0.08472439 0.14746165 0.036279075 -0.03440873 0.02707764 -0.041177135

conv1.bias f4 [31]
00000000: c42d 313d ff0c 173e f81d 36be 6c88 44be
00000010: 59d4 6dbb 81cc 1a3e 7196 f8bd 7a9e 6a3c
00000020: 3561 043e 8828 7d3d ffab b83c 9732 353e
00000030: 0b0d da3d fa7c c7bd c12f 373c 9cae c03d
00000040: b043 1f3e 1a0b 33be e0f9 8b3d 1dd6 5dbd
00000050: 5173 3dbe 5e54 bb3c 8c6d b7bd dc46 483c
00000060: f04b dfbd 54e5 0fbe ea48 093c 531e 74bd
00000070: d26c d73d cb9f 293c 1fca 133e
0.043256536 0.14751051 -0.1778487 -0.19192666 -0.00362899 0.15117075 -0.121380694 0.01432001
0.12927707 0.06180623 0.022542952 0.1769508 0.10647019 -0.09740634 0.011180819 0.09408304
0.15553164 -0.17484704 0.06834769 -0.054159272 -0.18501021 0.022867378 -0.08956441 0.012223925
-0.10903156 -0.14052325 0.0083792005 -0.059599232 0.10518803 0.010353039 0.14432572

bn1.weight f4 [31]
00000000: d94f 6f3f f7eb 6f3f d46d 783f 9ee9 733f
00000010: c468 903f 2136 653f 85d1 663f 82e8 923f
00000020: cd86 823f 8d1b 623f b75e 783f e5a7 533f
00000030: 8d69 873f 3243 6c3f d4a8 833f f589 6f3f
00000040: e777 943f feb6 9e3f 65ce 683f cd3a 7d3f
00000050: 6921 723f 8a1b 663f c066 843f 31bd 773f
00000060: 0079 833f f915 713f 6d1c 933f 9e63 773f
00000070: ea72 763f fc32 723f c7e6 693f
0.9348121 0.9371943 0.97042584 0.95278347 1.1281972 0.8953572 0.9016345 1.1477206
1.0197388 0.8832329 0.97019523 0.8267806 1.0579087 0.9229003 1.0285897 0.9356988
1.1599091 1.2399595 0.90939933 0.9891785 0.9458223 0.8988577 1.0343857 0.9677306
1.0271301 0.9417415 1.149305 0.9663638 0.96269095 0.94609046 0.91367763

bn1.bias f4 [31]
00000000: 2564 2bbc fb2f dcbd b6ff 8e3a 2556 e6bc
00000010: 267e b63c 6171 83bd 3e2d fbbd 4dc4 173e
00000020: 4e1f 273d 11c3 7cbd c95e 92bd 3a96 05be
00000030: 05c9 0cbd 52c5 53bd 3bdb 993d b75e 87bd
00000040: 3287 ba3c 4395 0d3d 5a1d 89bb 6fd8 0f3d
00000050: 2a39 623c 9f44 97bd 758a 58bd c7e7 3bbc
00000060: 74e1 e53c 8815 21bc eef3 e33c 8456 f0bb
00000070: 75bc 3c3d dad0 b4bd a9c4 d6bd
-0.010460888 -0.10751339 0.0010909948 -0.028117249 0.02227695 -0.0641811 -0.12264489 0.14820977
0.04080134 -0.061709467 -0.07146985 -0.13045588 -0.034371395 -0.05170185 0.07512518 -0.06609862
0.022769544 0.034566175 -0.004184407 0.035118517 0.013807574 -0.07386135 -0.052866418 -0.011468834
0.028061606 -0.009831794 0.027826276 -0.007334532 0.046078164 -0.08828898 -0.10486729

bn1.running_mean f4 [31]
00000000: 5d84 333d e962 163e 24c1 36be 62f8 44be
00000010: 17fb b2bb ebb6 1a3e b6ba f9bd a838 6e3c
00000020: 4c55 053e 9cbb 7e3d 8b9c b63c 8b06 353e
00000030: 6f06 dc3d 4e49 c9bd f4f1 543c 87a1 bf3d
00000040: aa1e 1e3e cc19 32be a29a 8d3d 0030 60bd
00000050: aeab 3dbe f67a bc3c 53f6 b8bd 9ee0 413c
00000060: 69a9 e0bd c365 0fbe b48e 1f3c f10b 75bd
00000070: 3cfa d63d 8411 333c ebe8 123e
0.043827403 0.14686169 -0.17847115 -0.19235376 -0.005462061 0.1510884 -0.121938154 0.014539875
0.1302082 0.062190637 0.022291442 0.17678277 0.107434146 -0.09828435 0.012997139 0.09356981
0.15441385 -0.17392653 0.069142595 -0.054733276 -0.18522522 0.023007851 -0.090313576 0.011833338
-0.109698124 -0.14003663 0.009738613 -0.05982584 0.10496947 0.010929469 0.14346664

bn1.running_var f4 [31]
00000000: 2d67 163e ed1d 803e 7f3f 413f 1bad ea3e
00000010: 2365 223e d61c b03f 52a6 0e3f 73cc 983d
00000020: 8e0f 993e 071e bd3e d8df 0e3e 3093 a73f
00000030: d9b3 2d3e 2ebc 4f3f a612 763e 8942 043f
00000040: 4a9e 193e 7c59 353e 2d39 143f ffc6 6e3e
00000050: 953b 833e f116 a43e 6362 803e 2336 413f
00000060: 1eca 6c3e 8fa0 cd3e 4c59 113e 5900 2c40
00000070: 6784 6c3f 4054 9f3f 631e 773e
0.14687796 0.25022832 0.7548751 0.45835194 0.15858893 1.37588 0.55722535 0.074608706
0.2989468 0.36936972 0.13952577 1.3091793 0.16963138 0.81146514 0.24030551 0.51664025
0.15001789 0.17709917 0.57899743 0.23318098 0.25631395 0.32048753 0.25075063 0.7547323
0.23123977 0.4016156 0.1419422 2.6875212 0.9238953 1.2447586 0.24132685

conv2.weight f4 [31, 1, 1, 31]
00000000: 64d7 1fbe c2fe 16be 6562 0c3e 1428 dc3d
00000010: e971 97bd 211e 11bd 7be6 10be c465 9e3c
00000020: 4fb4 e13d 7f79 fb3d 9584 453d a5cc 3ebe
00000030: 8cfe 823d cfaf 413e a372 32bd 5ede 253d
00000040: 80b3 593d e596 a03c b9b8 193e 013e 07be
00000050: bd7f e0bd d441 af3d 53f9 fc3d 079d eb3c
00000060: dca7 6bbd 7d84 633d 99d3 f53d baba 43be
00000070: 546e 0ebe dd42 27be 43a5 dcbc 92f4 4c3d
00000080: b7a6 20be 6512 3cbd d807 a23d 4233 1abe
00000090: d86d eebd 57ec 9dbd 34c2 c73c cde8 743c
000000a0: 1485 f5bd 0226 26be 158e 6cbc 711d a73d
000000b0: c0f6 7dbd 3f50 15be 27b3 8c3e 7f50 44be
000000c0: 5ebe 043e 5784 12be d36d 923d 2e47 d0bd
000000d0: ae85 20be 1d29 e6bd d69a 3bbe caa5 493d
000000e0: b412 a13d daf5 023e 188f c4bd efb3 053e
000000f0: 8e5b 2cbd a125 f2bd 6eef 3fbe 408b fdbd
00000100: c1b0 db3d 3d54 d63d 7840 0dbe cf38 ffbc
00000110: edf0 633c cb96 7b39 96b2 bfbc a4a2 133d
00000120: 58dc 303d 0fa4 a03c 2f47 1ebd f4ed 9b3c
00000130: 2193 f03c 1351 dbbd 3a14 243e 54f4 8a3d
00000140: 98b8 353e 4ad9 29be e588 79bd 1ab2 e9bd
00000150: 2215 24be e093 1bbe 406e 18be 5f9c 143d
00000160: 627e b63d 6ac5 253e 136d d73c 271f ac3d
00000170: 841a 513d 6e8b 9abd 1c6e 1e3e a9bd 453e
00000180: 0325 6f3d 382c 713c afa4 43bd 2412 363e
00000190: cd7e acbc 9a2b f3bb 681e 4dbe 0c85 b63d
000001a0: 66af 153e adea f83d 13e8 8cbd 525f 64be
000001b0: b7a6 54bd eb58 183e 2992 33be 562e 88be
000001c0: 4b94 8bbd 82aa 7cbd 6c07 2f3e c11a 1bbe
000001d0: ddb6 c1bd 5f89 f53d 6d5a 39bc d46f d83d
000001e0: 29b7 d83d b3b9 313d 7666 bf3d 0b5e 6b3d
000001f0: c2e5 ce3d 0cd5 ae3d 5597 e23c ce4f e5bd
00000200: 6ba9 b7bc ba93 7fbd e56e 1dbe 30e0 8fbd
00000210: dde2 b9bd c5e3 d93d 26fb 42be 41fc 1f3e
00000220: 02fc 313d afd3 7d3e ea4c 09bd 299b f03d
00000230: 17ac 36be 4122 093e 3fb1 7c3c f9c5 b7bd
00000240: 5ceb b6bc f184 6dbd 9d1a 24be b75b 31bd
00000250: 14fe 1f3e 8a9e 1d3d 94b3 c4bd 7ae8 6abd
00000260: eb31 1cbe ab69 043d b018 1bbe d8f2 08be
00000270: 8a3c 793e 61e6 a2bd 9da4 7dbd 6073 c6bd
00000280: e73b 043c 437b a1be 792c 6b3c b347 0fbe
00000290: 7ebf 083a c4da 343d 3231 3f3d bc69 cb3b
000002a0: bf06 2e3d 3027 9a3c f79c 183e 5c4c 2dbc
000002b0: a346 113e 9248 c53c 858d 49bd 4a6a 083e
000002c0: 2d73 c6bd 0515 55bd c924 34bb ce22 dc3b
000002d0: 4f45 5dbd 5310 11bd babf 113d 7629 523c
000002e0: 349a ebbc cf2f 7dbd 6b1a aabc 618f 383d
000002f0: 0c9e f93c 97fa 6a3d 89ae 84bd 2eb5 c93d
00000300: e72b 633d b9e7 4bbd 5c3d a3be 2869 143e
00000310: 8e56 293b 679b fbbd 26d6 a5bd c87a b2b9
00000320: d8e5 92bd 823e 5f3d 207b 21be 114c e9bd
00000330: c7a0 13be 35f0 4b3e 552e acbd 9ef4 623d
00000340: 3c6c dfbd 3a06 00be 6ef6 803e e29e 1abd
00000350: f075 f83c 2abf f43d 50a2 84bd 5f8d fcbc
00000360: 0bc0 10bc 57ae 4b3d 55a3 0fbe 8a7d ecbd
00000370: e242 333e fc3a e93d a3aa 143e cc7a 2fbd
00000380: 5a54 3abc e8e3 c0bd 6854 d8bc c873 50bd
00000390: 91c7 a3bd 1d4f 18bd e31a 8dbd 0d5c a7bd
000003a0: 4116 d8bd 0deb 583e 5b06 ecbd c6c8 bd3d
000003b0: f678 97bd 69aa abbd 0307 3fbe c9d4 a0bb
000003c0: 100f 96bd d428 2e3b 8956 163e bdb8 6bbe
000003d0: e808 273d ca58 2bbe fde4 0f3e f1d4 843d
000003e0: df68 64bd 3076 ae3d 550f 23bd 9276 bb3c
000003f0: fcf4 133e 8aa7 6bbd e309 4bbd 0178 aebd
-0.15609509 -0.1474562 0.1370941 0.10749832 -0.073947735 -0.035429124 -0.14150421 0.019335635
0.11020719 0.12279033 0.048222143 -0.18632753 0.06396207 0.18914722 -0.043566357 0.04049527
0.0531497 0.019603202 0.15011872 -0.13207246 -0.10961864 0.085574776 0.12352242 0.0287614
-0.05753313 0.055546273 0.1200325 -0.191142 -0.13909274 -0.163341 -0.026934272 0.050037928
-0.15688597 -0.04591598 0.07911652 -0.15058616 -0.11642045 -0.07711094 0.024384595 0.014948082
-0.11988273 -0.16225436 -0.014438172 0.081599124 -0.062002897 -0.14581393 0.27480432 -0.19171332
0.12963244 -0.14308296 0.071498536 -0.101698264 -0.15675995 -0.112383105 -0.18320784 0.049230374
0.078648955 0.12789097 -0.095976055 0.1305692 -0.0420795 -0.118235834 -0.18743679 -0.123800755
0.107270725 0.10465286 -0.13794124 -0.031155018 0.013912422 0.000239934 -0.023400586 0.036043778
0.043178886 0.01960948 -0.038642105 0.019034363 0.029367032 -0.10708823 0.16023341 0.06784883
0.17746198 -0.16586795 -0.06092157 -0.11410923 -0.16023687 -0.15193129 -0.14885807 0.03628194
0.08910824 0.16188589 0.026297128 0.08404379 0.051050678 -0.07546125 0.15471691 0.19310631
0.058384907 0.014720015 -0.047764476 0.17780358 -0.021056557 -0.007420969 -0.2003113 0.089120954
0.1461769 0.12154136 -0.06880202 -0.22301987 -0.051916804 0.1487767 -0.17536224 -0.26597852
-0.06815394 -0.061686046 0.17092675 -0.15146925 -0.094587065 0.11989092 -0.011313063 0.105682045
0.1058181 0.043389987 0.09345715 0.057462733 0.101024166 0.08536729 0.027660051 -0.11196862
-0.022419652 -0.062396742 -0.15374334 -0.07025182 -0.09076474 0.10639147 -0.19041118 0.15623571
0.043453224 0.24787782 -0.033520617 0.117483445 -0.17839085 0.13391973 0.015423118 -0.08973307
-0.022329025 -0.05798811 -0.16025777 -0.043300357 0.15624267 0.038481273 -0.09604564 -0.057350613
-0.15253417 0.032327335 -0.15146136 -0.13373888 0.243395 -0.079540975 -0.061924566 -0.09689975
0.008070922 -0.31539354 0.014353865 -0.13992195 0.0005216523 0.044153944 0.046677776 0.006207673
0.042486902 0.018817514 0.14903627 -0.0105772875 0.14187102 0.024082456 -0.04920723 0.13321796
-0.09689937 -0.052022 -0.0027487746 0.006718016 -0.054021176 -0.03541596 0.035583235 0.012827268
-0.028760053 -0.061813172 -0.02076455 0.04505861 0.03047087 0.057367887 -0.064786024 0.098490104
0.05546179 -0.049781535 -0.3188275 0.14493239 0.0025838944 -0.122855 -0.08097486 -0.00034042285
-0.071727455 0.05450297 -0.15769625 -0.11391462 -0.144168 0.1991585 -0.08407275 0.055409066
-0.10909316 -0.12502375 0.2518801 -0.03774918 0.030329674 0.11950524 -0.06476271 -0.03082913
-0.008834849 0.04972681 -0.1402715 -0.11547382 0.17505983 0.113882035 0.14518218 -0.042841718
-0.01137265 -0.0941847 -0.026407436 -0.050891668 -0.07997049 -0.037184823 -0.06889894 -0.08171854
-0.105511196 0.21183415 -0.1152465 0.0926681 -0.07396118 -0.083821125 -0.18655019 -0.0049081785
-0.07327092 0.0026574628 0.14681448 -0.23019691 0.040779978 -0.16733089 0.14052196 0.06485928
-0.055764075 0.08518636 -0.039809544 0.022883687 0.14448923 -0.057532825 -0.049569976 -0.08518983

conv2.bias f4 [31]
00000000: cd4b 5fbd e634 80bd 5ed1 08be 5d2d f43d
00000010: 577b 1bbd 4fbd 8ebd 2c8b c63d a34f 2c3e
00000020: d1d8 6b3c c433 a0bd e173 133e 3ece 4dbd
00000030: ff03 81bd eb15 e6bd 934d b2bd b59f 0abe
00000040: 00d5 dcbd 9f8f 06be 6058 b1bc aede 9d3d
00000050: dc02 0bbe c4ec 87bc ee09 8abd f649 8a3d
00000060: b748 133e 7f31 3dbd eff5 b5bd 57b9 10be
00000070: 9265 c6bd f846 903d 8766 9f3c
-0.05451565 -0.062600896 -0.13361117 0.11922715 -0.037959423 -0.069697015 0.09694514 0.16827254
0.014394955 -0.078223735 0.14399673 -0.050245516 -0.0629959 -0.11234649 -0.08706202 -0.13537486
-0.10782814 -0.13140725 -0.021648586 0.077084884 -0.1357531 -0.01659239 -0.06740175 0.06752388
0.14383207 -0.04618978 -0.08884799 -0.14133202 -0.09687342 0.07044786 0.019458069

bn2.weight f4 [31]
00000000: e82f 823f 76b0 983f 927d 873f aaec 6a3f
00000010: 5800 953f a14b 8d3f b425 923f aba6 823f
00000020: 1800 783f f3ff 913f 950d 803f 0565 763f
00000030: d032 683f 92d4 863f a81d 893f 4eb4 8c3f
00000040: d583 683f 000a 9a3f c29b 8a3f 2ed4 853f
00000050: d7f5 813f eabe 683f bf42 7b3f 75f9 843f
00000060: eab2 713f b5a8 783f ddd9 8e3f a2e3 563f
00000070: 63b5 863f edae 853f c5b9 873f
1.017087 1.1928852 1.0585196 0.9176737 1.164073 1.1038705 1.1417756 1.0207113
0.96875143 1.1406235 1.0004145 0.96247894 0.90702534 1.0533621 1.0712175 1.0992525
0.9082616 1.2034302 1.0828784 1.0455377 1.0153149 0.9091631 0.9814872 1.0388628
0.94413626 0.97132427 1.1160237 0.8394109 1.0524105 1.0444008 1.0603567

bn2.bias f4 [31]
00000000: 4000 e63c f590 cb3d 7634 3f3d 9476 03be
00000010: 89f7 183c 852c bbbc 7672 103c 3f65 673d
00000020: 6cb7 49be 10c5 4d3d 34b0 5dbd 992e f6bc
00000030: fc3e fdbd 715e acbc de55 9ebc f662 bc3d
00000040: 4f93 a1bd 9d5d 20bd 32f8 f6bc 7ca6 d4bc
00000050: 9229 92bd a2ff cbbd f44c 29be 99ac c0bc
00000060: 4181 5cbd 2595 f2bd d239 cabc c9d4 7abe
00000070: abd3 0abd fd98 3a3c 94e4 5e3d
0.028076291 0.09939758 0.04668089 -0.12838203 0.009336361 -0.022848377 0.008816352 0.05649304
-0.19698876 0.05023676 -0.05412312 -0.030051516 -0.12365529 -0.021041127 -0.019328054 0.09198563
-0.07889425 -0.039151777 -0.030147646 -0.025958292 -0.07136835 -0.099608675 -0.16533262 -0.023519801
-0.053834204 -0.11844853 -0.024685774 -0.24495234 -0.03389327 0.011389014 0.054417208

bn2.running_mean f4 [31]
00000000: ef92 02be 9ef5 cdbe 0a6a 8cbe 4649 1f3e
00000010: 1b69 60be 5e14 28be 9e02 dabd a649 68bd
00000020: c691 753e 5027 a23b 6170 a13e 08e0 2d3e
00000030: 6b8f 52be bfdd 2ebe c5e9 eabd 6a57 5abe
00000040: d15b 6abe dc60 8dbe 0264 3c3e 642e 693d
00000050: e4ff e9be 3a9e cb3e 443f 26be be83 62be
00000060: 40b8 b83e be3f 0d3e 0c8a 68be 0713 8fbe
00000070: 0a14 a1be 4ec4 923e de8d 793e
-0.12751363 -0.40226454 -0.2742465 0.15555295 -0.21915095 -0.1641402 -0.106450304 -0.05671086
0.2398139 0.004948534 0.3153105 0.16979992 -0.20562522 -0.17076777 -0.11470369 -0.21322408
-0.22886588 -0.2761296 0.18397525 0.056929007 -0.45703042 0.39769155 -0.16235071 -0.22120568
0.36078072 0.13793847 -0.2270891 -0.27944204 -0.314606 0.28665394 0.24370524

bn2.running_var f4 [31]
00000000: 0a32 8b3d caad 933d 9130 a03d c160 8c3e
00000010: e11d 513d 6800 8d3d d704 823d 0bed d03d
00000020: 77f0 1d3e 5327 193d 2016 623e 41af 163e
00000030: 3795 503d 1be1 9a3d 5cd5 913d 7642 b23d
00000040: 891e 2f3e 8162 4f3d 873c 853d 42b4 793d
00000050: 95b3 f83d bc1b 0d3e 5661 963d 12af 6e3d
00000060: 2a3c 823e 4e0e 7e3d df63 a13d f716 353e
00000070: 2c55 8a3d f8b0 9e3d 301c 383e
0.067966536 0.07210882 0.07821763 0.27417567 0.051053885 0.06884843 0.063485794 0.10201462
0.15423761 0.037391018 0.22078753 0.14715292 0.050923552 0.07562467 0.07120773 0.08704083
0.17101492 0.05063105 0.06505685 0.060962923 0.121436276 0.13780111 0.07342784 0.05827243
0.25436527 0.06202536 0.07880377 0.17684542 0.067545265 0.07748598 0.17979503

fc1.weight f4 [128, 344]
00000000: e962 18bc 9e21 a5bd 0cdd c03a 36b8 98bb
00000010: 46bb c93b 18b9 cd3c 1395 653d bae7 a7bb
00000020: bafd 49bd 17a7 5c3d c220 a2bd 550d edbc
00000030: 4ff4 903d 9abb 60be 9640 b3bd ae50 0dbd
00000040: e5d7 1a3d 94fa b3bc 2e4c 8abd c71d ac3d
00000050: d993 74bd 7f41 e93c b3d4 97bd 5b7a 8dbd
00000060: 1548 63bd 54b7 ed3d cf3a ca3d 84db 7a3d
00000070: 6a32 c53d e7ba 9ebc c5c8 d03c e0cf 423e
00000080: af18 0fbd d5b9 b43d 204d 8e3d 7399 60bd
00000090: 39f4 3e3d 4cea b13d c88b 3d3b 424d 1e3d
000000a0: 5744 17be 891d 733d cfe2 1c3d 9057 c73c
000000b0: 6555 9a3d 9080 eebc 2551 f33c 1193 a0bd
000000c0: 3173 67bd dc83 813d 2bdd 81bd e139 b3bc
000000d0: 8cfc 1dbd a760 893d f309 103d 0e67 8f3c
000000e0: 488f b13d c6c4 3c3d 45ce 953d 35c9 72bd
000000f0: 6a8f cb3d 15da 8cbd 4390 cf3d 33e3 893d
00000100: 28f1 833d c912 03bd 21d4 81bd 4388 cdbb
00000110: dc86 89bd de4c e43d 8e03 8b3d 6561 20be
00000120: 8f51 83bd 547e 713d 6ed5 13be 5271 363e
00000130: e11e 663d 2af2 693d f84d 033c 1921 0fbe
00000140: f8f6 463d dffe 7cbc 76f6 de3d aa78 5abd
00000150: f5e1 e0bc 2f4d 3dbc 519f 33bc f6f8 4dbd
00000160: 4061 b2bc 912a c0bc efae 523b 8b0e 403d
00000170: a4f8 0cbd 20fe d1bd c1e3 7ebd 34a8 b0bd
00000180: 2598 2ebd 3d8b f3bb 0ba5 8c3d 9033 373a
00000190: 14f2 a33b ef4c 89bd 3f42 ea3d d10c 15bc
000001a0: f072 473d 9753 e23c acf0 83bb 4a6f 46bc
000001b0: 9511 a2bd 7c99 063c 61f6 1dbd 74c7 553d
000001c0: daab 00bc 70fe 8a3b 6665 223d 7411 c03d
000001d0: 0be9 0d3d 2944 5bbd 9d2a fa3b 04c5 123d
000001e0: 6043 dfbc bb9c a63b 35d0 e1bd 8091 d6bc
000001f0: 6a4c b73d 3952 a5bc 14b7 993d b0d1 06bd
00000200: 15b7 6ebd 3802 bcbd 743d 2abc e178 c13c
00000210: d6be 333d 30f2 05be c97e 8e3b 433a 5dbd
00000220: 266b 313d 8c0e 03bd 0e9c debb 7eef bd3d
00000230: 443b a2bd 04d9 3e3d 315c acbd 1531 573c
00000240: 8565 e9bc 1ecf b0bd deba 153d 4915 c6bb
00000250: 2560 2bbd 52c7 9f3c f886 623d e2f9 88bb
00000260: 42d6 9c3d c197 bcbd fb82 c63d 14ed 1dbe
00000270: 36aa 96bd 4a97 5fbd 9653 8b3d df4a e7bb
00000280: 1afd 89bd 3d0f 39bd c578 49bd f0df f43d
00000290: 7257 cfbc 8d0d dc3b 5cea 6f3d 9ffe ad3d
000002a0: 5892 b5bc f2c1 b2bd 5e68 93bd d66a d4bd
000002b0: 5ba4 c23d 53b9 cfbc 3cc1 483c e8d3 4f3c
000002c0: e8b0 c23c 9dc8 d23d 28e1 7d3b 8405 b2bb
000002d0: 47b2 8dbd 1bee c2bc a33a 90bc b1c8 0ebd
000002e0: d39d 87bd df23 9a3d 0b07 fa3d 4bd1 60bd
000002f0: 2f2a c2bd b4a0 0dbe 64e5 b8bd 29ab a43d
00000300: a703 563d d4db a03c 39d4 1e3c 4206 4dbd
00000310: 85a9 eb3d 7fcf e53b fe51 6abd c459 163c
00000320: 2e1f 8bbc d8d4 0b3e 9d91 21be ca55 e3bc
00000330: 6f73 d63d 0a8b e7bd eeb1 87bd 04cd e93d
00000340: 6a2a 923b 858d b1bd ee8e 723d 3fc2 153d
00000350: 402a b43c 2923 8ebd 9feb 083d f2b2 f6bc
00000360: bb7d 6abd 7c49 713d b797 38bc 9450 eabc
00000370: f0ca 5ebd 1fb1 dd3c cf1e 273c 5781 1d3d
00000380: d282 743d dfd2 b03c 1893 afbc 2e34 283c
00000390: 5467 6f3d 0980 40bd bf1e 67bd b905 a93d
000003a0: bb50 5cbd 7404 a63d efed 95bc e919 89bd
000003b0: f0a6 41bd 6d4e e63c ff35 af3c b2d4 7cbc
000003c0: cd23 bb3d 915d 56bd 1e88 abbb e532 183d
000003d0: f505 40bc 7c1f a83c 6e9e 86bd 2e7d ff3d
000003e0: e482 a7bd a6c1 b7bd 3915 553d c9e1 35bc
000003f0: 7faf 0a3b f148 94bd 2ba0 09bd c964 c6bd
-0.009300926 -0.080630526 0.0014714315 -0.0046606315 0.006156358 0.025112674 0.05605037 -0.0051240595
-0.049314238 0.053870287 -0.07916404 -0.028937021 0.07077848 -0.21946564 -0.08752553 -0.03450077
0.03780355 -0.02197007 -0.06752811 0.08404117 -0.05971131 0.028473614 -0.07413616 -0.06908103
-0.055488665 0.11607233 0.09874498 0.061244503 0.09628756 -0.019376231 0.02548636 0.1902461
-0.03493565 0.08824507 0.06948304 -0.05483384 0.046619628 0.08687267 0.0028922427 0.038647898
-0.14772163 0.05935434 0.03830224 0.024333745 0.07535819 -0.029114038 0.029701779 -0.07840551
-0.05650634 0.06323978 -0.063410126 -0.021878185 -0.038570926 0.06707888 0.03516574 0.017505195
0.08669907 0.046086095 0.073147334 -0.059273917 0.099394634 -0.06877533 0.101349376 0.06732788
0.06442481 -0.032000337 -0.063392885 -0.006272347 -0.067151755 0.11147474 0.067877874 -0.15662153
-0.064120404 0.058958367 -0.14436886 0.17816666 0.056181792 0.05711571 0.008014195 -0.1397747
0.04857537 -0.015441625 0.108868524 -0.05333773 -0.027451495 -0.0115540465 -0.010963277 -0.050286256
-0.021774888 -0.023457797 0.0032147726 0.04688887 -0.03441681 -0.102535486 -0.06222892 -0.08625832
-0.042625565 -0.00743237 0.06867417 0.00069885794 0.005003223 -0.06704127 0.11438417 -0.009097294
0.048693597 0.02762775 -0.004026493 -0.012111494 -0.0791351 0.008215304 -0.038565043 0.052192166
-0.007853473 0.004241757 0.039647482 0.09378329 0.034646075 -0.0535318 0.0076344744 0.03583242
-0.027253807 0.0050846017 -0.110260405 -0.026192427 0.08950122 -0.020180808 0.075056225 -0.032914817
-0.05828007 -0.09180111 -0.010390628 0.02361721 0.043883167 -0.13080668 0.00434861 -0.05401064
0.043315075 -0.031996295 -0.0067935055 0.09274195 -0.0792146 0.04659368 -0.084160216 0.013134261
-0.028490791 -0.086332545 0.036555164 -0.006045018 -0.041839737 0.019504223 0.055304497 -0.004180179
0.07658054 -0.09208632 0.09692951 -0.1542247 -0.07356684 -0.05458764 0.06803052 -0.007058486
-0.067377284 -0.045180548 -0.04918744 0.11956775 -0.025310252 0.0067154826 0.058573112 0.08495831
-0.022164509 -0.087283984 -0.07197641 -0.1037194 0.095040046 -0.025356924 0.012253102 0.0126848
0.023765996 0.1029217 0.003873894 -0.0054327864 -0.06918769 -0.023795178 -0.017606085 -0.034859363
-0.066218995 0.07526373 0.122083746 -0.054887097 -0.09480702 -0.13830835 -0.09028128 0.08040459
0.052249577 0.019636072 0.0096941525 -0.050054796 0.11506943 0.007013261 -0.0572071 0.009176675
-0.016982641 0.13655412 -0.15778203 -0.027750868 0.10471236 -0.113058165 -0.06625734 0.11416057
0.0044606226 -0.08669571 0.05921834 0.0365622 0.021992803 -0.069403 0.03342783 -0.030114625
-0.057248812 0.05890797 -0.01126664 -0.028602876 -0.054392755 0.027061997 0.010200216 0.038453426
0.059695072 0.021584926 -0.021432444 0.010266347 0.05844815 -0.046997104 -0.056425806 0.08253045
-0.053787928 0.08106318 -0.018301932 -0.06694395 -0.047278345 0.028113568 0.021388052 -0.01543157
0.09137688 -0.052335326 -0.0052347323 0.03715791 -0.01172017 0.020522825 -0.06573187 0.12475048
-0.08179262 -0.089724824 0.052022193 -0.011101195 0.0021161733 -0.07240475 -0.033600014 -0.09687192

fc1.bias f4 [128]
00000000: 4c90 53bb a171 b0bb 8ed5 7fbc 2b33 c33b
00000010: d169 403c 8959 b63c 1fd4 963c 8132 303d
00000020: 3bbd 1fbd be98 703d 0174 12bc ffec 843c
00000030: b4e4 bcbb 9dbe 273b 887d dabc 73d6 1e3d
00000040: b2b2 58bc ce5c f9bc fcef d5bc b2fb bf3b
00000050: 7ab8 c7bc d09d 573c 3f9d d6bb 611d 1dbc
00000060: 63f2 cb3c aafb c83a 046f 62bd 154c 073d
00000070: 5ea8 653d 696c f7bb 167d a7bc 12ae 1c3d
00000080: 8587 c2bb c816 e8bc 6dd5 50bd 1e98 11bd
00000090: 5691 84bc 10c1 30bd aad3 36bd 0274 01bd
000000a0: 7e4b 79bc 0810 033c ed26 7cbc 814c 1b3d
000000b0: 7733 553d 61ce d5bc e8e2 b3b9 2d25 843c
000000c0: 7fc1 253d 9d59 04bb 6d65 b4bc e3d3 773c
000000d0: 1dda 3dbc f4b1 653d 096b 11bd a34b 13bd
000000e0: 4938 923c 9daa d0bb 9d4e d9bc bcdb 133c
000000f0: 0b49 2cbd 202c 80bc c772 223d ebc5 153d
00000100: f4be 273d 81cd f43c b63e b5bc 62fb 9bbb
00000110: 584d 7f3c cd86 99bc 738e 0c3d 72d2 b3bc
00000120: a8db 453d 87de cfbc 15a9 09bc 20b2 70bd
00000130: 023d 1e3c d409 613c b958 003d 9a9c 1f3d
00000140: a989 68bc 04f1 0f3d 4a84 fbbc 2fb9 1e3c
00000150: 234f 043d 1c2b bdbc 1a82 4a3d 7a75 303d
00000160: 3a55 40bd d894 ef3c 3b94 263d 55fc 363d
00000170: a918 b43c c649 45bd 276b 70bc d365 863c
00000180: 5f9f 353d 9195 9fbc fd46 333d d9f4 3c3d
00000190: 4085 b4bb 54ca 42bd c950 463d ae38 fe3c
000001a0: f12b 413d 473a dabb d90d dd3c 7545 50bd
000001b0: 569f 0abd d61c d2bc 48e2 503d 4e71 25bd
000001c0: 5a1a 263d 09c6 de3b d8c3 2bbd 349f 2abc
000001d0: c18c 0cbd 6cb0 1dbd eba3 68bb cae6 42bd
000001e0: b1a8 d13c 3a42 473d 9529 ee3c 25f2 45bd
000001f0: d47e 213c 2ed1 5ebc b986 f4bb ad44 6cbd
-0.0032282053 -0.0053846394 -0.01561488 0.0059570274 0.011743979 0.02225949 0.018411694 0.043016914
-0.038998824 0.058739416 -0.00893879 0.01622629 -0.005764568 0.0025595792 -0.026671186 0.038778733
-0.013226198 -0.03043976 -0.02611541 0.005858862 -0.024379957 0.013160184 -0.006549507 -0.009589524
0.024895852 0.0015333791 -0.055281654 0.03303154 0.05606877 -0.0075507653 -0.020445388 0.038251944
-0.0059365653 -0.028331175 -0.05098479 -0.03554546 -0.016182583 -0.04315287 -0.044635452 -0.031604774
-0.015215753 0.007999428 -0.01539014 0.037914757 0.052051034 -0.026099386 -0.000343106 0.016131008
0.040467735 -0.0020195015 -0.02202102 0.015126201 -0.011587647 0.056077912 -0.035502467 -0.035960805
0.017849104 -0.006367995 -0.026526744 0.009024557 -0.042061847 -0.01564604 0.03966024 0.036565702
0.04095359 0.029883148 -0.02212463 -0.004760192 0.015582405 -0.018741036 0.034315538 -0.021950934
0.048305184 -0.025374664 -0.008402129 -0.058763623 0.0096581 0.013735253 0.031334613 0.038967706
-0.014192977 0.03514196 -0.030702729 0.009687706 0.032302033 -0.023091845 0.04944048 0.043080784
-0.04695628 0.029245779 0.040668707 0.044674236 0.021984415 -0.04816606 -0.014673985 0.016405975
0.04434144 -0.019480499 0.04376887 0.046131942 -0.0055090487 -0.047556236 0.048416886 0.031032886
0.047161046 -0.006659779 0.026984142 -0.05084749 -0.03384336 -0.025648516 0.05099705 -0.04039126
0.040552475 0.00679851 -0.041934818 -0.010413934 -0.03431392 -0.038498327 -0.0035498093 -0.04758338
0.025593134 0.048647143 0.029072562 -0.04832663 0.009856898 -0.013599677 -0.0074623493 -0.05768268

fc2.weight f4 [1, 128]
00000000: a418 c5bc 31c5 6fbc 178d c6bc 7ece 6cbc
00000010: dc94 34bc 4514 20bc 965f bf3c dda8 9b3c
00000020: 8069 f4bb 6cf5 30bc 23b3 73bc 1bd2 8c3c
00000030: 3f9c 9f3c 98ec da3c e6a3 b93c 06ab 34bc
00000040: 0851 973c a748 8dbc 3947 87bc a030 8ebc
00000050: 80a5 af3c 4046 d43c 9057 34bc 2cf1 993c
00000060: 5e30 48bd a9a1 d6bc 032e 34bc e50b 60bc
00000070: 80dc dd3c 4397 e9bb e566 ecbc d504 78bc
00000080: 52ed 02bc e491 fa3c 4677 d83c ab28 29bd
00000090: d3a1 813c 8be7 21bc c40e 5abc 0092 1ebc
000000a0: 5d86 a1bc 06b7 79bc 857d 9f3c a321 a93c
000000b0: e07a a63c 24a1 33bc 6a95 8c3c a79f 32bc
000000c0: f31a a03c 8504 2bbc 93de 043d b826 61bc
000000d0: d8f3 843c ed7f ba3c 3522 0dbc 4369 4c3c
000000e0: 8ab2 8c3c 714c 863c f547 a13c 87d5 ad3c
000000f0: 9c39 993c 4fd6 00bc 78a3 b4bc e486 763c
00000100: aa99 ca3c 8e31 7bbc 73cb 05bc 6530 43bc
00000110: 4540 ea3c bcf8 cf3c 12c8 4dbc 7ba9 073d
00000120: 47b5 81bc 0cc7 7dbc a4d5 ac3c a860 7ebc
00000130: d209 1dbd fe6e 253d b0fc f83c 8e00 5cbc
00000140: d3ed 913c 6d1f 943c f443 6cbc 33e8 2fbc
00000150: 5053 b63c 5b57 e33c b8a1 d63c 68de b63c
00000160: 4468 d2bc 3544 1bbb 6081 a93c c3b0 693c
00000170: 1287 9e3c 6482 e03c 4820 50bc 056f d6bb
00000180: df5c 343c 1e93 acbb 587e ae3c 89fb c6bc
00000190: d980 da3c db00 b1bc 7a7f 913c 4878 87bc
000001a0: 6ac8 f1bb 0580 9c3c 362c b93c 021b cdbc
000001b0: 29c6 5abc bd1a b73c a5f5 b93c 7119 503c
000001c0: 1ea1 d2bb 88a6 153d b547 7ebc 4271 a13c
000001d0: c49b e83c 6d6d 7dbc 02c2 c9bc b37f 0cbc
000001e0: 8059 aebb bd4b e33c 8223 4abd 93f1 103d
000001f0: 75e9 3ebc 5a10 6e3c 205d f13c 0128 5bbc
-0.024059601 -0.014634416 -0.024237199 -0.014453528 -0.011021819 -0.009770458 0.023361009 0.019001419
-0.0074588656 -0.010800701 -0.0148742525 0.01719003 0.019483684 0.026724145 0.02266116 -0.011027103
0.018471256 -0.017246557 -0.016513454 -0.01735717 0.021441221 0.025912404 -0.011007205 0.018791758
-0.04887425 -0.026200132 -0.010997298 -0.013674711 0.027082682 -0.0071286275 -0.028857658 -0.015137871
-0.007991152 0.030587144 0.026424062 -0.04129855 0.015824234 -0.009881864 -0.013309184 -0.009678364
-0.01971739 -0.01524139 0.019469032 0.020645922 0.020322263 -0.010963712 0.01716109 -0.010902322
0.0195441 -0.010438089 0.032438826 -0.013742141 0.016229555 0.022766078 -0.008614113 0.012476268
0.017174978 0.016393872 0.019687632 0.021219982 0.018704228 -0.007863595 -0.022050604 0.015046809
0.024731476 -0.015331639 -0.008166182 -0.011913394 0.0285951 0.02538716 -0.0125599075 0.033120614
-0.01583351 -0.015489351 0.021097966 -0.015525974 -0.038339444 0.040389054 0.030393928 -0.013427867
0.017813599 0.018081391 -0.014420498 -0.010736513 0.022256523 0.027751615 0.02620016 0.022322848
-0.025684483 -0.0023691778 0.020691574 0.014263335 0.019351516 0.027405925 -0.012703009 -0.0065439963
0.01100847 -0.005266561 0.02130048 -0.024289863 0.026672767 -0.021606853 0.01776098 -0.016536847
-0.0073786275 0.019104013 0.02260409 -0.025037292 -0.013352909 0.022351617 0.02270014 0.012701378
-0.006427898 0.03653577 -0.015520026 0.019707326 0.028394587 -0.015467984 -0.024628643 -0.008575368
-0.005320728 0.027746076 -0.04935027 0.035386633 -0.01165234 0.014530266 0.02946335 -0.013376237
